Python/saved_models/M1.xes.model.pt (torch, 643314 bytes, 16 tensors)

batchnorm.weight f4 [200]
000000 00 00 80 3f 00 00 80 3f 00 00 80 3f 00 00 80 3f
       1.0 1.0 1.0 1.0
000010 00 00 80 3f 00 00 80 3f 00 00 80 3f 00 00 80 3f
       1.0 1.0 1.0 1.0
000020 00 00 80 3f 00 00 80 3f 00 00 80 3f 00 00 80 3f
       1.0 1.0 1.0 1.0
000030 00 00 80 3f 00 00 80 3f 00 00 80 3f 00 00 80 3f
       1.0 1.0 1.0 1.0
000040 00 00 80 3f 00 00 80 3f 00 00 80 3f 00 00 80 3f
       1.0 1.0 1.0 1.0
000050 00 00 80 3f 00 00 80 3f 00 00 80 3f 00 00 80 3f
       1.0 1.0 1.0 1.0
000060 00 00 80 3f 00 00 80 3f 00 00 80 3f 00 00 80 3f
       1.0 1.0 1.0 1.0
000070 00 00 80 3f 00 00 80 3f 00 00 80 3f 00 00 80 3f
       1.0 1.0 1.0 1.0
000080 00 00 80 3f 00 00 80 3f 00 00 80 3f 00 00 80 3f
       1.0 1.0 1.0 1.0
000090 00 00 80 3f 00 00 80 3f 00 00 80 3f 00 00 80 3f
       1.0 1.0 1.0 1.0
0000a0 00 00 80 3f 00 00 80 3f 00 00 80 3f 00 00 80 3f
       1.0 1.0 1.0 1.0
0000b0 00 00 80 3f 00 00 80 3f 00 00 80 3f 00 00 80 3f
       1.0 1.0 1.0 1.0
0000c0 00 00 80 3f 00 00 80 3f 00 00 80 3f 00 00 80 3f
       1.0 1.0 1.0 1.0
0000d0 00 00 80 3f 00 00 80 3f 00 00 80 3f 00 00 80 3f
       1.0 1.0 1.0 1.0
0000e0 00 00 80 3f 00 00 80 3f 00 00 80 3f 00 00 80 3f
       1.0 1.0 1.0 1.0
0000f0 00 00 80 3f 00 00 80 3f 00 00 80 3f 00 00 80 3f
       1.0 1.0 1.0 1.0
000100 00 00 80 3f 00 00 80 3f 00 00 80 3f 00 00 80 3f
       1.0 1.0 1.0 1.0
000110 00 00 80 3f 00 00 80 3f 00 00 80 3f 00 00 80 3f
       1.0 1.0 1.0 1.0
000120 00 00 80 3f 00 00 80 3f 00 00 80 3f 00 00 80 3f
       1.0 1.0 1.0 1.0
000130 00 00 80 3f 00 00 80 3f 00 00 80 3f 00 00 80 3f
       1.0 1.0 1.0 1.0
000140 00 00 80 3f 00 00 80 3f 00 00 80 3f 00 00 80 3f
       1.0 1.0 1.0 1.0
000150 00 00 80 3f 00 00 80 3f 00 00 80 3f 00 00 80 3f
       1.0 1.0 1.0 1.0
000160 00 00 80 3f 00 00 80 3f 00 00 80 3f 00 00 80 3f
       1.0 1.0 1.0 1.0
000170 00 00 80 3f 00 00 80 3f 00 00 80 3f 00 00 80 3f
       1.0 1.0 1.0 1.0
000180 00 00 80 3f 00 00 80 3f 00 00 80 3f 00 00 80 3f
       1.0 1.0 1.0 1.0
000190 00 00 80 3f 00 00 80 3f 00 00 80 3f 00 00 80 3f
       1.0 1.0 1.0 1.0
0001a0 00 00 80 3f 00 00 80 3f 00 00 80 3f 00 00 80 3f
       1.0 1.0 1.0 1.0
0001b0 00 00 80 3f 00 00 80 3f 00 00 80 3f 00 00 80 3f
       1.0 1.0 1.0 1.0
0001c0 00 00 80 3f 00 00 80 3f 00 00 80 3f 00 00 80 3f
       1.0 1.0 1.0 1.0
0001d0 00 00 80 3f 00 00 80 3f 00 00 80 3f 00 00 80 3f
       1.0 1.0 1.0 1.0
0001e0 00 00 80 3f 00 00 80 3f 00 00 80 3f 00 00 80 3f
       1.0 1.0 1.0 1.0
0001f0 00 00 80 3f 00 00 80 3f 00 00 80 3f 00 00 80 3f
       1.0 1.0 1.0 1.0
000200 00 00 80 3f 00 00 80 3f 00 00 80 3f 00 00 80 3f
       1.0 1.0 1.0 1.0
000210 00 00 80 3f 00 00 80 3f 00 00 80 3f 00 00 80 3f
       1.0 1.0 1.0 1.0
000220 00 00 80 3f 00 00 80 3f 00 00 80 3f 00 00 80 3f
       1.0 1.0 1.0 1.0
000230 00 00 80 3f 00 00 80 3f 00 00 80 3f 00 00 80 3f
       1.0 1.0 1.0 1.0
000240 00 00 80 3f 00 00 80 3f 00 00 80 3f 00 00 80 3f
       1.0 1.0 1.0 1.0
000250 00 00 80 3f 00 00 80 3f 00 00 80 3f 00 00 80 3f
       1.0 1.0 1.0 1.0
000260 00 00 80 3f 00 00 80 3f 00 00 80 3f 00 00 80 3f
       1.0 1.0 1.0 1.0
000270 00 00 80 3f 00 00 80 3f 00 00 80 3f 00 00 80 3f
       1.0 1.0 1.0 1.0
000280 00 00 80 3f 00 00 80 3f 00 00 80 3f 00 00 80 3f
       1.0 1.0 1.0 1.0
000290 00 00 80 3f 00 00 80 3f 00 00 80 3f 00 00 80 3f
       1.0 1.0 1.0 1.0
0002a0 00 00 80 3f 00 00 80 3f 00 00 80 3f 00 00 80 3f
       1.0 1.0 1.0 1.0
0002b0 00 00 80 3f 00 00 80 3f 00 00 80 3f 00 00 80 3f
       1.0 1.0 1.0 1.0
0002c0 00 00 80 3f 00 00 80 3f 00 00 80 3f 00 00 80 3f
       1.0 1.0 1.0 1.0
0002d0 00 00 80 3f 00 00 80 3f 00 00 80 3f 00 00 80 3f
       1.0 1.0 1.0 1.0
0002e0 00 00 80 3f 00 00 80 3f 00 00 80 3f 00 00 80 3f
       1.0 1.0 1.0 1.0
0002f0 00 00 80 3f 00 00 80 3f 00 00 80 3f 00 00 80 3f
       1.0 1.0 1.0 1.0
000300 00 00 80 3f 00 00 80 3f 00 00 80 3f 00 00 80 3f
       1.0 1.0 1.0 1.0
000310 00 00 80 3f 00 00 80 3f 00 00 80 3f 00 00 80 3f
       1.0 1.0 1.0 1.0

batchnorm.bias f4 [200]
000000 00 00 00 00 00 00 00 00 00 00 00 00 00 00 00 00
       0.0 0.0 0.0 0.0
000010 00 00 00 00 00 00 00 00 00 00 00 00 00 00 00 00
       0.0 0.0 0.0 0.0
000020 00 00 00 00 00 00 00 00 00 00 00 00 00 00 00 00
       0.0 0.0 0.0 0.0
000030 00 00 00 00 00 00 00 00 00 00 00 00 00 00 00 00
       0.0 0.0 0.0 0.0
000040 00 00 00 00 00 00 00 00 00 00 00 00 00 00 00 00
       0.0 0.0 0.0 0.0
000050 00 00 00 00 00 00 00 00 00 00 00 00 00 00 00 00
       0.0 0.0 0.0 0.0
000060 00 00 00 00 00 00 00 00 00 00 00 00 00 00 00 00
       0.0 0.0 0.0 0.0
000070 00 00 00 00 00 00 00 00 00 00 00 00 00 00 00 00
       0.0 0.0 0.0 0.0
000080 00 00 00 00 00 00 00 00 00 00 00 00 00 00 00 00
       0.0 0.0 0.0 0.0
000090 00 00 00 00 00 00 00 00 00 00 00 00 00 00 00 00
       0.0 0.0 0.0 0.0
0000a0 00 00 00 00 00 00 00 00 00 00 00 00 00 00 00 00
       0.0 0.0 0.0 0.0
0000b0 00 00 00 00 00 00 00 00 00 00 00 00 00 00 00 00
       0.0 0.0 0.0 0.0
0000c0 00 00 00 00 00 00 00 00 00 00 00 00 00 00 00 00
       0.0 0.0 0.0 0.0
0000d0 00 00 00 00 00 00 00 00 00 00 00 00 00 00 00 00
       0.0 0.0 0.0 0.0
0000e0 00 00 00 00 00 00 00 00 00 00 00 00 00 00 00 00
       0.0 0.0 0.0 0.0
0000f0 00 00 00 00 00 00 00 00 00 00 00 00 00 00 00 00
       0.0 0.0 0.0 0.0
000100 00 00 00 00 00 00 00 00 00 00 00 00 00 00 00 00
       0.0 0.0 0.0 0.0
000110 00 00 00 00 00 00 00 00 00 00 00 00 00 00 00 00
       0.0 0.0 0.0 0.0
000120 00 00 00 00 00 00 00 00 00 00 00 00 00 00 00 00
       0.0 0.0 0.0 0.0
000130 00 00 00 00 00 00 00 00 00 00 00 00 00 00 00 00
       0.0 0.0 0.0 0.0
000140 00 00 00 00 00 00 00 00 00 00 00 00 00 00 00 00
       0.0 0.0 0.0 0.0
000150 00 00 00 00 00 00 00 00 00 00 00 00 00 00 00 00
       0.0 0.0 0.0 0.0
000160 00 00 00 00 00 00 00 00 00 00 00 00 00 00 00 00
       0.0 0.0 0.0 0.0
000170 00 00 00 00 00 00 00 00 00 00 00 00 00 00 00 00
       0.0 0.0 0.0 0.0
000180 00 00 00 00 00 00 00 00 00 00 00 00 00 00 00 00
       0.0 0.0 0.0 0.0
000190 00 00 00 00 00 00 00 00 00 00 00 00 00 00 00 00
       0.0 0.0 0.0 0.0
0001a0 00 00 00 00 00 00 00 00 00 00 00 00 00 00 00 00
       0.0 0.0 0.0 0.0
0001b0 00 00 00 00 00 00 00 00 00 00 00 00 00 00 00 00
       0.0 0.0 0.0 0.0
0001c0 00 00 00 00 00 00 00 00 00 00 00 00 00 00 00 00
       0.0 0.0 0.0 0.0
0001d0 00 00 00 00 00 00 00 00 00 00 00 00 00 00 00 00
       0.0 0.0 0.0 0.0
0001e0 00 00 00 00 00 00 00 00 00 00 00 00 00 00 00 00
       0.0 0.0 0.0 0.0
0001f0 00 00 00 00 00 00 00 00 00 00 00 00 00 00 00 00
       0.0 0.0 0.0 0.0
000200 00 00 00 00 00 00 00 00 00 00 00 00 00 00 00 00
       0.0 0.0 0.0 0.0
000210 00 00 00 00 00 00 00 00 00 00 00 00 00 00 00 00
       0.0 0.0 0.0 0.0
000220 00 00 00 00 00 00 00 00 00 00 00 00 00 00 00 00
       0.0 0.0 0.0 0.0
000230 00 00 00 00 00 00 00 00 00 00 00 00 00 00 00 00
       0.0 0.0 0.0 0.0
000240 00 00 00 00 00 00 00 00 00 00 00 00 00 00 00 00
       0.0 0.0 0.0 0.0
000250 00 00 00 00 00 00 00 00 00 00 00 00 00 00 00 00
       0.0 0.0 0.0 0.0
000260 00 00 00 00 00 00 00 00 00 00 00 00 00 00 00 00
       0.0 0.0 0.0 0.0
000270 00 00 00 00 00 00 00 00 00 00 00 00 00 00 00 00
       0.0 0.0 0.0 0.0
000280 00 00 00 00 00 00 00 00 00 00 00 00 00 00 00 00
       0.0 0.0 0.0 0.0
000290 00 00 00 00 00 00 00 00 00 00 00 00 00 00 00 00
       0.0 0.0 0.0 0.0
0002a0 00 00 00 00 00 00 00 00 00 00 00 00 00 00 00 00
       0.0 0.0 0.0 0.0
0002b0 00 00 00 00 00 00 00 00 00 00 00 00 00 00 00 00
       0.0 0.0 0.0 0.0
0002c0 00 00 00 00 00 00 00 00 00 00 00 00 00 00 00 00
       0.0 0.0 0.0 0.0
0002d0 00 00 00 00 00 00 00 00 00 00 00 00 00 00 00 00
       0.0 0.0 0.0 0.0
0002e0 00 00 00 00 00 00 00 00 00 00 00 00 00 00 00 00
       0.0 0.0 0.0 0.0
0002f0 00 00 00 00 00 00 00 00 00 00 00 00 00 00 00 00
       0.0 0.0 0.0 0.0
000300 00 00 00 00 00 00 00 00 00 00 00 00 00 00 00 00
       0.0 0.0 0.0 0.0
000310 00 00 00 00 00 00 00 00 00 00 00 00 00 00 00 00
       0.0 0.0 0.0 0.0

batchnorm.running_mean f4 [200]
000000 00 00 00 00 00 00 00 00 00 00 00 00 00 00 00 00
       0.0 0.0 0.0 0.0
000010 00 00 00 00 00 00 00 00 00 00 00 00 00 00 00 00
       0.0 0.0 0.0 0.0
000020 00 00 00 00 00 00 00 00 00 00 00 00 00 00 00 00
       0.0 0.0 0.0 0.0
000030 00 00 00 00 00 00 00 00 00 00 00 00 00 00 00 00
       0.0 0.0 0.0 0.0
000040 00 00 00 00 00 00 00 00 00 00 00 00 00 00 00 00
       0.0 0.0 0.0 0.0
000050 00 00 00 00 00 00 00 00 00 00 00 00 00 00 00 00
       0.0 0.0 0.0 0.0
000060 00 00 00 00 00 00 00 00 00 00 00 00 00 00 00 00
       0.0 0.0 0.0 0.0
000070 00 00 00 00 00 00 00 00 00 00 00 00 00 00 00 00
       0.0 0.0 0.0 0.0
000080 00 00 00 00 00 00 00 00 00 00 00 00 00 00 00 00
       0.0 0.0 0.0 0.0
000090 00 00 00 00 00 00 00 00 00 00 00 00 00 00 00 00
       0.0 0.0 0.0 0.0
0000a0 00 00 00 00 00 00 00 00 00 00 00 00 00 00 00 00
       0.0 0.0 0.0 0.0
0000b0 00 00 00 00 00 00 00 00 00 00 00 00 00 00 00 00
       0.0 0.0 0.0 0.0
0000c0 00 00 00 00 00 00 00 00 00 00 00 00 00 00 00 00
       0.0 0.0 0.0 0.0
0000d0 00 00 00 00 00 00 00 00 00 00 00 00 00 00 00 00
       0.0 0.0 0.0 0.0
0000e0 00 00 00 00 00 00 00 00 00 00 00 00 00 00 00 00
       0.0 0.0 0.0 0.0
0000f0 00 00 00 00 00 00 00 00 00 00 00 00 00 00 00 00
       0.0 0.0 0.0 0.0
000100 00 00 00 00 00 00 00 00 00 00 00 00 00 00 00 00
       0.0 0.0 0.0 0.0
000110 00 00 00 00 00 00 00 00 00 00 00 00 00 00 00 00
       0.0 0.0 0.0 0.0
000120 00 00 00 00 00 00 00 00 00 00 00 00 00 00 00 00
       0.0 0.0 0.0 0.0
000130 00 00 00 00 00 00 00 00 00 00 00 00 00 00 00 00
       0.0 0.0 0.0 0.0
000140 00 00 00 00 00 00 00 00 00 00 00 00 00 00 00 00
       0.0 0.0 0.0 0.0
000150 00 00 00 00 00 00 00 00 00 00 00 00 00 00 00 00
       0.0 0.0 0.0 0.0
000160 00 00 00 00 00 00 00 00 00 00 00 00 00 00 00 00
       0.0 0.0 0.0 0.0
000170 00 00 00 00 00 00 00 00 00 00 00 00 00 00 00 00
       0.0 0.0 0.0 0.0
000180 00 00 00 00 00 00 00 00 00 00 00 00 00 00 00 00
       0.0 0.0 0.0 0.0
000190 00 00 00 00 00 00 00 00 00 00 00 00 00 00 00 00
       0.0 0.0 0.0 0.0
0001a0 00 00 00 00 00 00 00 00 00 00 00 00 00 00 00 00
       0.0 0.0 0.0 0.0
0001b0 00 00 00 00 00 00 00 00 00 00 00 00 00 00 00 00
       0.0 0.0 0.0 0.0
0001c0 00 00 00 00 00 00 00 00 00 00 00 00 00 00 00 00
       0.0 0.0 0.0 0.0
0001d0 00 00 00 00 00 00 00 00 00 00 00 00 00 00 00 00
       0.0 0.0 0.0 0.0
0001e0 00 00 00 00 00 00 00 00 00 00 00 00 00 00 00 00
       0.0 0.0 0.0 0.0
0001f0 00 00 00 00 00 00 00 00 00 00 00 00 00 00 00 00
       0.0 0.0 0.0 0.0
000200 00 00 00 00 00 00 00 00 00 00 00 00 00 00 00 00
       0.0 0.0 0.0 0.0
000210 00 00 00 00 00 00 00 00 00 00 00 00 00 00 00 00
       0.0 0.0 0.0 0.0
000220 00 00 00 00 00 00 00 00 00 00 00 00 00 00 00 00
       0.0 0.0 0.0 0.0
000230 00 00 00 00 00 00 00 00 00 00 00 00 00 00 00 00
       0.0 0.0 0.0 0.0
000240 00 00 00 00 00 00 00 00 00 00 00 00 00 00 00 00
       0.0 0.0 0.0 0.0
000250 00 00 00 00 00 00 00 00 00 00 00 00 00 00 00 00
       0.0 0.0 0.0 0.0
000260 00 00 00 00 00 00 00 00 00 00 00 00 00 00 00 00
       0.0 0.0 0.0 0.0
000270 00 00 00 00 00 00 00 00 00 00 00 00 00 00 00 00
       0.0 0.0 0.0 0.0
000280 00 00 00 00 00 00 00 00 00 00 00 00 00 00 00 00
       0.0 0.0 0.0 0.0
000290 00 00 00 00 00 00 00 00 00 00 00 00 00 00 00 00
       0.0 0.0 0.0 0.0
0002a0 00 00 00 00 00 00 00 00 00 00 00 00 00 00 00 00
       0.0 0.0 0.0 0.0
0002b0 00 00 00 00 00 00 00 00 00 00 00 00 00 00 00 00
       0.0 0.0 0.0 0.0
0002c0 00 00 00 00 00 00 00 00 00 00 00 00 00 00 00 00
       0.0 0.0 0.0 0.0
0002d0 00 00 00 00 00 00 00 00 00 00 00 00 00 00 00 00
       0.0 0.0 0.0 0.0
0002e0 00 00 00 00 00 00 00 00 00 00 00 00 00 00 00 00
       0.0 0.0 0.0 0.0
0002f0 00 00 00 00 00 00 00 00 00 00 00 00 00 00 00 00
       0.0 0.0 0.0 0.0
000300 00 00 00 00 00 00 00 00 00 00 00 00 00 00 00 00
       0.0 0.0 0.0 0.0
000310 00 00 00 00 00 00 00 00 00 00 00 00 00 00 00 00
       0.0 0.0 0.0 0.0

batchnorm.running_var f4 [200]
000000 00 00 80 3f 00 00 80 3f 00 00 80 3f 00 00 80 3f
       1.0 1.0 1.0 1.0
000010 00 00 80 3f 00 00 80 3f 00 00 80 3f 00 00 80 3f
       1.0 1.0 1.0 1.0
000020 00 00 80 3f 00 00 80 3f 00 00 80 3f 00 00 80 3f
       1.0 1.0 1.0 1.0
000030 00 00 80 3f 00 00 80 3f 00 00 80 3f 00 00 80 3f
       1.0 1.0 1.0 1.0
000040 00 00 80 3f 00 00 80 3f 00 00 80 3f 00 00 80 3f
       1.0 1.0 1.0 1.0
000050 00 00 80 3f 00 00 80 3f 00 00 80 3f 00 00 80 3f
       1.0 1.0 1.0 1.0
000060 00 00 80 3f 00 00 80 3f 00 00 80 3f 00 00 80 3f
       1.0 1.0 1.0 1.0
000070 00 00 80 3f 00 00 80 3f 00 00 80 3f 00 00 80 3f
       1.0 1.0 1.0 1.0
000080 00 00 80 3f 00 00 80 3f 00 00 80 3f 00 00 80 3f
       1.0 1.0 1.0 1.0
000090 00 00 80 3f 00 00 80 3f 00 00 80 3f 00 00 80 3f
       1.0 1.0 1.0 1.0
0000a0 00 00 80 3f 00 00 80 3f 00 00 80 3f 00 00 80 3f
       1.0 1.0 1.0 1.0
0000b0 00 00 80 3f 00 00 80 3f 00 00 80 3f 00 00 80 3f
       1.0 1.0 1.0 1.0
0000c0 00 00 80 3f 00 00 80 3f 00 00 80 3f 00 00 80 3f
       1.0 1.0 1.0 1.0
0000d0 00 00 80 3f 00 00 80 3f 00 00 80 3f 00 00 80 3f
       1.0 1.0 1.0 1.0
0000e0 00 00 80 3f 00 00 80 3f 00 00 80 3f 00 00 80 3f
       1.0 1.0 1.0 1.0
0000f0 00 00 80 3f 00 00 80 3f 00 00 80 3f 00 00 80 3f
       1.0 1.0 1.0 1.0
000100 00 00 80 3f 00 00 80 3f 00 00 80 3f 00 00 80 3f
       1.0 1.0 1.0 1.0
000110 00 00 80 3f 00 00 80 3f 00 00 80 3f 00 00 80 3f
       1.0 1.0 1.0 1.0
000120 00 00 80 3f 00 00 80 3f 00 00 80 3f 00 00 80 3f
       1.0 1.0 1.0 1.0
000130 00 00 80 3f 00 00 80 3f 00 00 80 3f 00 00 80 3f
       1.0 1.0 1.0 1.0
000140 00 00 80 3f 00 00 80 3f 00 00 80 3f 00 00 80 3f
       1.0 1.0 1.0 1.0
000150 00 00 80 3f 00 00 80 3f 00 00 80 3f 00 00 80 3f
       1.0 1.0 1.0 1.0
000160 00 00 80 3f 00 00 80 3f 00 00 80 3f 00 00 80 3f
       1.0 1.0 1.0 1.0
000170 00 00 80 3f 00 00 80 3f 00 00 80 3f 00 00 80 3f
       1.0 1.0 1.0 1.0
000180 00 00 80 3f 00 00 80 3f 00 00 80 3f 00 00 80 3f
       1.0 1.0 1.0 1.0
000190 00 00 80 3f 00 00 80 3f 00 00 80 3f 00 00 80 3f
       1.0 1.0 1.0 1.0
0001a0 00 00 80 3f 00 00 80 3f 00 00 80 3f 00 00 80 3f
       1.0 1.0 1.0 1.0
0001b0 00 00 80 3f 00 00 80 3f 00 00 80 3f 00 00 80 3f
       1.0 1.0 1.0 1.0
0001c0 00 00 80 3f 00 00 80 3f 00 00 80 3f 00 00 80 3f
       1.0 1.0 1.0 1.0
0001d0 00 00 80 3f 00 00 80 3f 00 00 80 3f 00 00 80 3f
       1.0 1.0 1.0 1.0
0001e0 00 00 80 3f 00 00 80 3f 00 00 80 3f 00 00 80 3f
       1.0 1.0 1.0 1.0
0001f0 00 00 80 3f 00 00 80 3f 00 00 80 3f 00 00 80 3f
       1.0 1.0 1.0 1.0
000200 00 00 80 3f 00 00 80 3f 00 00 80 3f 00 00 80 3f
       1.0 1.0 1.0 1.0
000210 00 00 80 3f 00 00 80 3f 00 00 80 3f 00 00 80 3f
       1.0 1.0 1.0 1.0
000220 00 00 80 3f 00 00 80 3f 00 00 80 3f 00 00 80 3f
       1.0 1.0 1.0 1.0
000230 00 00 80 3f 00 00 80 3f 00 00 80 3f 00 00 80 3f
       1.0 1.0 1.0 1.0
000240 00 00 80 3f 00 00 80 3f 00 00 80 3f 00 00 80 3f
       1.0 1.0 1.0 1.0
000250 00 00 80 3f 00 00 80 3f 00 00 80 3f 00 00 80 3f
       1.0 1.0 1.0 1.0
000260 00 00 80 3f 00 00 80 3f 00 00 80 3f 00 00 80 3f
       1.0 1.0 1.0 1.0
000270 00 00 80 3f 00 00 80 3f 00 00 80 3f 00 00 80 3f
       1.0 1.0 1.0 1.0
000280 00 00 80 3f 00 00 80 3f 00 00 80 3f 00 00 80 3f
       1.0 1.0 1.0 1.0
000290 00 00 80 3f 00 00 80 3f 00 00 80 3f 00 00 80 3f
       1.0 1.0 1.0 1.0
0002a0 00 00 80 3f 00 00 80 3f 00 00 80 3f 00 00 80 3f
       1.0 1.0 1.0 1.0
0002b0 00 00 80 3f 00 00 80 3f 00 00 80 3f 00 00 80 3f
       1.0 1.0 1.0 1.0
0002c0 00 00 80 3f 00 00 80 3f 00 00 80 3f 00 00 80 3f
       1.0 1.0 1.0 1.0
0002d0 00 00 80 3f 00 00 80 3f 00 00 80 3f 00 00 80 3f
       1.0 1.0 1.0 1.0
0002e0 00 00 80 3f 00 00 80 3f 00 00 80 3f 00 00 80 3f
       1.0 1.0 1.0 1.0
0002f0 00 00 80 3f 00 00 80 3f 00 00 80 3f 00 00 80 3f
       1.0 1.0 1.0 1.0
000300 00 00 80 3f 00 00 80 3f 00 00 80 3f 00 00 80 3f
       1.0 1.0 1.0 1.0
000310 00 00 80 3f 00 00 80 3f 00 00 80 3f 00 00 80 3f
       1.0 1.0 1.0 1.0

lstm.weight_ih_l0 f4 [400, 37]
000000 48 b6 cc bd f1 42 7d bd 70 3a 95 3d 9b d5 c5 3e
       -0.09995705 -0.06183142 0.07286537 0.3863953
000010 34 07 6e 3c 7c fc 12 be ad 21 8b 3e c1 9e bc 3d
       0.014528085 -0.14354128 0.2717413 0.092099674
000020 2b e1 13 bf 1a 9c d6 3c 6e 16 88 3e ee cb a0 3f
       -0.57765454 0.026197482 0.26579612 1.2562234
000030 86 8a 81 3e 4f e9 a0 3d 94 b1 8f be 68 55 e0 be
       0.25300997 0.07857 -0.2806517 -0.4381516
000040 8d ea 3b be 09 c7 76 be db 26 b1 be c3 be 45 bf
       -0.18351193 -0.24099363 -0.34599957 -0.77244204
000050 3a 6b ba be 22 41 b4 3f 4b 8c 05 3e 2d d9 22 be
       -0.36409932 1.4082377 0.13041799 -0.15903158
000060 a2 ee d5 3e 99 0a 1d bf f8 b6 7d bd b3 9e 87 be
       0.41783625 -0.61344296 -0.06194207 -0.26488265
000070 6a 28 ce bd ed cd 99 be b2 c3 a7 be 6c d9 b0 be
       -0.10066302 -0.3003992 -0.3276649 -0.3454088
000080 25 20 2d be 13 17 14 bf 41 81 fe be 5a 9a 94 be
       -0.16906793 -0.5784771 -0.49707988 -0.2902401
000090 18 b5 47 b6 1a 3d 8f 3c 40 87 d4 be 2b 3a fb bd
       -2.9758721e-06 0.01748519 -0.41509438 -0.12266954
0000a0 75 41 22 bf 67 0b 1b 3f e2 7f 1b be ac 7d 6c 3e
       -0.6338113 0.60564274 -0.15185502 0.23094815
0000b0 e8 a3 84 3e 3c 43 da be ab a1 2f 3f f1 ab 94 3e
       0.259063 -0.4262942 0.6860606 0.2903743
0000c0 36 2c 35 3e 0b 8b e8 be 0e 00 6c 3e 55 c8 f7 be
       0.17692646 -0.4541858 0.23046896 -0.4839503
0000d0 70 7a c7 be 7d 6c 81 3e 39 66 6b be 67 b1 b4 bc
       -0.389606 0.25278082 -0.22988214 -0.022057248
0000e0 2f 79 82 bf 55 af 23 bf 24 de d2 3d 59 81 fe 3e
       -1.0193232 -0.6393941 0.10296276 0.4970806
0000f0 e1 c1 70 3e 70 c7 9e bc 73 51 bb 3d 89 7b 8a be
       0.23511459 -0.019382209 0.091463946 -0.27047375
000100 cb 7f f3 be 03 9c 8a bd 66 8c e5 3e 65 55 03 3d
       -0.47558436 -0.06768038 0.44833678 0.03206386
000110 29 8d ee bd 2b 88 d7 3e 6e 30 a2 be 0f 98 b8 bd
       -0.11648018 0.42096075 -0.31677574 -0.09013378
000120 bc 36 cf 3e de f1 5c b5 05 a0 42 bd 12 4f c1 bc
       0.40471447 -8.230835e-07 -0.047515888 -0.023597274
000130 90 e6 04 be 1b ef d0 bc 74 24 d3 3d 54 6a 31 be
       -0.12978578 -0.02550464 0.10309687 -0.17325717
000140 ef 4c e2 bc df 80 24 be 4a ae 66 3e ce 68 53 be
       -0.027624575 -0.16064785 0.22527424 -0.20645449
000150 82 b0 d9 bc e6 1f 94 bd 09 ec 9b bd 80 70 45 3d
       -0.026573423 -0.07232647 -0.076133795 0.04820299
000160 9c 37 0b bd a3 0a 34 be 13 bc 1b be 08 0d 65 bd
       -0.03398858 -0.17582183 -0.15208463 -0.05592063
000170 c0 b5 c5 bd 9e 50 0b 3c 4e 58 78 be 7a 35 44 bd
       -0.09653807 0.008503107 -0.24252436 -0.04790256
000180 1b df a3 bd a6 e1 ca bd 1b f3 9f bd 9f 8b 30 be
       -0.08001538 -0.0990632 -0.078100406 -0.17240761
000190 9b ac 49 be 39 8e 1f be a8 87 76 bd 85 8c a7 bd
       -0.1969475 -0.15581597 -0.060187966 -0.08181099
0001a0 63 59 36 bd a8 1d 5d 3d 12 bd 21 3e 15 f0 40 be
       -0.04451884 0.05398336 0.15794781 -0.18841584
0001b0 2a e7 00 be c9 3e cb bd 5c 10 22 b4 fc e8 45 be
       -0.12588182 -0.09924085 -1.5093377e-07 -0.19327158
0001c0 70 aa c0 3a 88 d0 27 3e 83 c0 73 bd de 5b 15 3e
       0.0014699232 0.16388142 -0.059509765 0.14585826
0001d0 95 cb 20 bd 86 3e 78 3d 53 b5 d2 bd fc 0a 68 bd
       -0.03925665 0.060606502 -0.10288491 -0.0566511
0001e0 ba dc ec bd 0d 3c 45 be d7 80 89 3d 99 39 bc bd
       -0.11565538 -0.19261189 0.067140274 -0.091906734
0001f0 27 46 1d bd 20 fc 0f be c6 c4 ab 3c b9 7e c1 bd
       -0.03839698 -0.14061022 0.020967852 -0.094479986
000200 13 82 ef 3d 46 67 ae 3d 00 6d 56 be 92 bc 09 be
       0.116947316 0.085157916 -0.20940018 -0.1345084
000210 67 37 7e 3d 8a 38 77 be f0 81 80 3c 20 20 1a be
       0.062064555 -0.24142662 0.015686959 -0.15051317
000220 36 d9 e6 be c2 16 c0 be 10 50 25 3b 60 3e aa bd
       -0.45087594 -0.37517363 0.0025224723 -0.08312678
000230 e1 1e 1c be 9b 8c dc bd f7 04 5c 3e 03 b5 ac bc
       -0.15246154 -0.10769006 0.21486269 -0.021082407
000240 7e bf 5a be 2d f9 02 bd b7 58 6f be b4 c4 bf 35
       -0.21362111 -0.031975914 -0.23373686 1.4287857e-06
000250 0f 87 58 bf 07 b0 2b be 53 9b c4 be 54 eb cf be
       -0.84581083 -0.16766368 -0.38399753 -0.4060923
000260 89 c0 e4 bd 35 17 34 be 29 1f 92 bd 33 6a c5 be
       -0.11169536 -0.17586978 -0.071348496 -0.38557586
000270 95 77 8e bd 76 b7 09 bf 00 d2 3f bc 7e d2 99 3e
       -0.06956402 -0.53795564 -0.011707783 0.30043405
000280 62 7e 19 3c 11 c9 63 3f 7f 4e 48 be 8b a7 00 be
       0.009368511 0.8897868 -0.19561194 -0.12563913
000290 29 a8 b0 3d 5b e7 27 bf ca 0f 01 3e 66 d2 e8 bd
       0.08625824 -0.65587395 0.1260368 -0.11368255
0002a0 69 04 00 3f 8d e4 fd 3e 76 96 83 3f c5 b4 91 be
       0.5000673 0.49588433 1.0280292 -0.2845823
0002b0 cf 59 00 be 38 df 9d be e9 b3 af be 23 71 21 bf
       -0.1253426 -0.30834365 -0.34316948 -0.6306326
0002c0 b8 cf d5 bd b5 63 a1 be 42 24 94 bd 9f d3 3d 3d
       -0.1044001 -0.31521383 -0.07233478 0.046344396
0002d0 fc 35 43 3e 73 ff a9 3e 5b 97 8b be 84 ad 34 bd
       0.19063562 0.33202705 -0.27263913 -0.04411079
0002e0 0d 91 bf 35 b4 b5 a1 3e 87 a1 bc bd 45 0a ea bd
       1.4272824e-06 0.3158394 -0.092104964 -0.1142774
0002f0 21 18 8f 3d da 35 ec bd b2 91 98 3e 12 cb d7 3d
       0.06987024 -0.11533709 0.29798657 0.105367795
000300 71 70 e9 be 0e 47 83 b9 d9 0a 84 be 88 6c a9 be
       -0.45593598 -0.00025039207 -0.25789526 -0.33090615
000310 f1 c0 be 3d af 86 d0 3e d1 4b 05 bf c8 83 1e be
       0.093141444 0.40727755 -0.5206881 -0.15479958
000320 87 55 6a be fc 9f 03 bd 60 7d 0d be ec 8e db 3d
       -0.22884189 -0.032134995 -0.13817358 0.107206196
000330 a9 57 6a 3e 03 b4 19 bf aa a5 1f bb 78 28 ae 3d
       0.22885002 -0.600403 -0.0024360218 0.085038126
000340 bb b4 14 bd 74 81 f4 be 62 46 60 be d1 ba db 3d
       -0.03630517 -0.47755015 -0.21901849 0.10728992
000350 58 e0 0c 3c 11 8b 47 be 48 71 f8 bd 6f 84 3e be
       0.00859841 -0.19486643 -0.12130982 -0.18605207
000360 22 ea 42 bd 37 f8 53 bd 21 64 e3 bd 90 66 d5 bb
       -0.047586568 -0.051750388 -0.111030824 -0.0065124705
000370 92 3e 77 bd 7c f1 e4 b5 ab 3a 1d 3e cc d9 6b 3e
       -0.060362406 -1.7057605e-06 0.15354411 0.23032302
000380 1d 5c 3b be 03 af 01 bc e5 47 21 3c 40 b0 63 3e
       -0.18296857 -0.007915261 0.009843801 0.22235203
000390 e4 1e 7e 3c 70 13 6f be cb a6 5f 3d b4 e2 58 3e
       0.015510295 -0.23347259 0.054602426 0.2118023
0003a0 84 b2 06 3e 48 6e 8a be 79 21 fc bd aa fd 17 be
       0.13154036 -0.27037263 -0.12311072 -0.14842859
0003b0 73 c3 97 be c5 2e 84 be 5d cf 4f be 6b 6f f1 3b
       -0.29641303 -0.25816932 -0.20293947 0.0073680184
0003c0 a6 97 40 be e8 bb c8 be 2e dd 9e bd ff d5 0a bf
       -0.1880785 -0.3920586 -0.077570304 -0.5423278
0003d0 57 84 4e be ce ec 8d be e2 d2 16 bf 51 23 71 3e
       -0.20167671 -0.2771973 -0.5891553 0.23548628
0003e0 29 75 9f be 19 ed 97 be 6e c8 2e be 88 97 10 3e
       -0.31144074 -0.2967308 -0.17068645 0.14120305
0003f0 6b 2f f9 3d 83 71 25 3e 1a 68 55 3e 29 2e f3 be
       0.121672474 0.16156583 0.20840493 -0.47496155

lstm.weight_hh_l0 f4 [400, 100]
000000 38 aa 20 be b8 1e 0d be da 43 22 3d da fe 4a be
       -0.15689933 -0.1378125 0.03961549 -0.1982378
000010 97 53 c0 3d d0 f2 75 3e c5 e3 9f 3d 38 3f 89 3d
       0.093909435 0.24018407 0.078071155 0.06701511
000020 de 9a 5a 3e 96 28 38 be e4 d4 98 b9 6b c4 46 bd
       0.2134814 -0.17984232 -0.00029150315 -0.048527163
000030 7b e3 4a be 14 a1 95 bb 12 71 b8 bd e2 cf 85 be
       -0.1981334 -0.004566321 -0.090059415 -0.26135164
000040 cb bf 9f 3d e9 12 3b 3e 96 6f 03 be 13 d8 89 bd
       0.078002535 0.18268932 -0.12835535 -0.06730666
000050 25 50 3b 3d c1 2e 96 bd 1c ad ac bd 6e fc 70 3d
       0.04573073 -0.07333136 -0.084314555 0.058834486
000060 43 1d ba 3d cb cb 8f be b9 05 0e be 91 64 0a 3d
       0.090876125 -0.2808517 -0.1386937 0.033787314
000070 3f 31 0d 3e fb ec 89 3e 76 61 56 3e 74 f8 a7 be
       0.13788317 0.26938614 0.20935616 -0.32806742
000080 c0 af b2 3d a8 36 cb be 59 4f e3 bc 74 ae 38 3d
       0.08724928 -0.39690137 -0.027747797 0.045088246
000090 fb 1d c2 bd 7b f4 49 3d 90 33 0d 3c 2a 1b 1f 3d
       -0.094783746 0.04930542 0.0086182505 0.038844265
0000a0 17 6a 37 be 87 b4 52 be 0d e2 2a 3e 11 59 68 3d
       -0.17911564 -0.20576678 0.16687794 0.056725565
0000b0 83 6d 16 be fe c6 91 bb ec f7 25 be 65 e5 71 3e
       -0.14690213 -0.0044487705 -0.16207856 0.23622663
0000c0 6c aa 0f 3d 68 44 85 be 11 c0 5e 3d f6 6d bf 3e
       0.035074636 -0.26028752 0.054382388 0.3738858
0000d0 f5 22 72 3e 28 a3 cd bc 61 9e fd 3d aa da 23 bd
       0.23646148 -0.025102213 0.12383724 -0.040003456
0000e0 01 f4 26 3e c5 38 92 be 32 60 ef bd 12 4a 2d bc
       0.16304018 -0.28558937 -0.1168827 -0.010576742
0000f0 70 16 ee 3d 59 38 16 3e 9b 99 64 bd ad 5a 47 bd
       0.11625373 0.14669932 -0.055810552 -0.04867046
000100 79 30 43 3c 14 2c a9 bd 2d 72 f6 bd 8e 79 49 bd
       0.011913412 -0.0826036 -0.12033496 -0.04918819
000110 ad d0 2c be 1e 3b 0e 3e 6b 08 b7 3e 4d f6 54 bc
       -0.16876478 0.13889739 0.3574861 -0.012998176
000120 8b 6a ae 3c 28 d4 42 3d 92 f5 65 3e 8e 54 b9 3c
       0.021291038 0.04756561 0.22456959 0.022623327
000130 d1 a5 32 be c8 d1 88 3d a4 b9 30 be 06 10 4f be
       -0.17446066 0.066806376 -0.17258316 -0.20220956
000140 11 b1 42 be 11 38 76 3e df 7d 9f 3d 6c ad a2 3e
       -0.19012858 0.24044825 0.0778768 0.31772935
000150 58 3a 1c 3d fb 08 61 bd b6 94 85 bd 49 0d 45 3e
       0.03814158 -0.054940205 -0.06522505 0.19243349
000160 41 d7 76 3e 2b 58 f9 3c c6 78 10 bd e5 2c d5 bc
       0.2410555 0.03043755 -0.03527143 -0.026022384
000170 15 67 3a be 0f 83 65 3e 67 d2 08 be cf 9a 1d bc
       -0.18203385 0.22413276 -0.13361512 -0.009619429
000180 94 c8 db bd c2 ec 34 3e bc f8 2f 3e a8 c4 4f be
       -0.107316166 0.17668441 0.17184728 -0.20289862
000190 e0 ef 9a 3e e5 aa cd 3e 7e 82 16 3e 77 41 f3 3d
       0.30261135 0.40169445 0.14698216 0.11877721
0001a0 a4 e2 4d 3d a1 b0 e1 bd c3 3b 07 be 4d 65 42 be
       0.05026497 -0.110200174 -0.13206391 -0.18983956
0001b0 25 e9 95 3d 9c 12 f7 bc c1 7b ec bd 2f 58 35 be
       0.073198594 -0.03016024 -0.11547042 -0.1770942
0001c0 2d 75 41 3e e2 6f 83 be aa 83 c4 be 31 94 85 3d
       0.18892355 -0.25671297 -0.38381702 0.06522406
0001d0 5a 4b 2d bd 0b 54 80 bd 2e c6 2c 3e 2f 5f d8 be
       -0.04230819 -0.0626603 0.16872475 -0.4226012
0001e0 c6 9b a8 3e 24 36 43 be ac d0 b3 3b 43 ae 45 3e
       0.32931346 -0.19063622 0.005487522 0.19304757
0001f0 4f 41 7b 3e 23 e0 bb 3d 0e d4 36 bf 15 79 30 3e
       0.24536632 0.0917361 -0.7141732 0.17233689
000200 d9 a5 56 bd 9b 9a 30 bc db d7 a9 3c 11 58 37 be
       -0.05240426 -0.010779048 0.02073281 -0.17904688
000210 76 30 81 be 6a c7 83 be f0 9c b3 bd 01 73 c3 bc
       -0.25232285 -0.25738078 -0.08770168 -0.02385855
000220 e7 2a 53 be 65 c8 79 3e 45 7e fc 3e 6d c6 40 3d
       -0.20621835 0.2439285 0.49315086 0.047064234
000230 98 c3 b7 ba ea 39 1b be 59 83 22 3d 7a a1 e7 bb
       -0.0014020083 -0.15158811 0.039676044 -0.00706881
000240 5f b1 e4 be 52 f4 48 3e 5a 44 d1 3d 4f 74 46 3d
       -0.44666573 0.19624451 0.10218115 0.048450764
000250 ba 12 5a 3d 2a 83 0b 3d cc 16 5e 3e 97 3d 83 be
       0.053240515 0.034060635 0.21688384 -0.25632927
000260 00 11 dd ba 57 ef ce bc ac ba c2 3d a8 71 b4 be
       -0.0016866028 -0.02526061 0.09508261 -0.35242963
000270 4b 62 1b be 4e 41 87 3e b0 9f 09 3d ac 0e ed be
       -0.15174215 0.2641701 0.033599555 -0.46300256
000280 c5 3d f8 3e 14 55 05 3e a7 3f f4 be dd 19 97 be
       0.48484626 0.13020736 -0.47704813 -0.2951192
000290 35 c4 93 3c 1a 0a cc 3d fa b7 05 be ad b5 53 3d
       0.018037895 0.09962864 -0.13058463 0.05168693
0002a0 f9 56 7f bd 13 bb 82 bd 9c b4 ba 3d b6 b1 87 bd
       -0.062338803 -0.06383338 0.0911648 -0.066256925
0002b0 b8 9f 5b 3e 95 c6 7c be 7a a9 7e 3b a2 dd aa bb
       0.21447647 -0.24685128 0.003885834 -0.005214409
0002c0 c4 d7 db bd 93 1e c9 bd 78 cd 40 be d4 64 c1 3c
       -0.107345134 -0.09820285 -0.1882838 0.023607649
0002d0 ea 7a d1 3e 99 71 b1 3e 55 2d 92 bd fe 94 02 be
       0.40914088 0.3465698 -0.07137553 -0.12752149
0002e0 f7 78 cb be 17 5a e6 bd 06 4e 2c be f5 48 98 3e
       -0.39740726 -0.11247652 -0.16826639 0.29743162
0002f0 14 c2 0f 3e c1 1e 37 3d 87 51 8b be be ef 7e bd
       0.14038879 0.044707064 -0.27210638 -0.062240355
000300 e9 84 16 3d af 54 88 3d 67 02 7d 3d ed ba 0a bd
       0.036747847 0.06656777 0.06176987 -0.033869673
000310 73 6e db 3e aa f7 5b 3e db 15 5e bc c4 76 f6 bd
       0.42857704 0.21481195 -0.013555015 -0.120343715
000320 47 1e aa bd da 84 1c bd 12 85 ab 3d 3a 1a 90 3c
       -0.08306556 -0.038212635 0.083749905 0.01759063
000330 24 99 44 be 04 0c 71 3e 51 29 de 3d 2c 77 fa 3d
       -0.19199044 0.2353974 0.10847724 0.122297615
000340 77 33 0c bd 02 c8 dd bd 66 ee dc bd 26 f2 96 bd
       -0.03422877 -0.10829164 -0.107876584 -0.07370405
000350 72 f0 87 be f4 01 dc bd a1 dc 71 3d 17 ad 3f be
       -0.26550633 -0.1074256 0.0590483 -0.18718372
000360 e4 9e a8 bc 6d 6d e8 3d cb bf 42 be e3 a6 00 3e
       -0.020583577 0.11348996 -0.19018476 0.12563662
000370 2d ed 47 bd 16 e9 dd bd c7 d4 8b 3d 10 e5 be bd
       -0.048810173 -0.10835473 0.068276934 -0.09321034
000380 80 51 36 be 10 22 0d be 60 68 5a 3e bf 1b c9 3d
       -0.17804527 -0.13782525 0.21328878 0.09819745
000390 5c b6 ea 3d 67 5c 45 3d 89 9c bd 3d 27 48 ee bd
       0.114605635 0.048183825 0.09258372 -0.11634856
0003a0 db 21 91 3c fe f7 09 bd e4 3d 69 bd 76 fb 09 bd
       0.017716339 -0.03368377 -0.05694379 -0.033687077
0003b0 db bb e1 be 44 58 15 3e b0 7c 24 be ab 55 e2 3d
       -0.44088635 0.14584452 -0.1606319 0.11051496
0003c0 ac 47 a1 bd c3 12 f1 bd fb f2 2d 3e 2c b2 5f be
       -0.078749985 -0.11771157 0.16987221 -0.21845311
0003d0 e7 11 ad bd 62 67 06 3e 48 79 de 3d 0d 4b 83 3c
       -0.0845068 0.13125375 0.10862976 0.016026998
0003e0 69 70 66 bb 44 39 31 be b8 25 59 be 7e b7 08 3e
       -0.0035162217 -0.17307001 -0.21205795 0.13351247
0003f0 d0 75 1e 3e 87 5e 08 be c7 0d 90 bc 40 f6 1b 3d
       0.1547463 -0.1331731 -0.017584695 0.03807664

lstm.bias_ih_l0 f4 [400]
000000 0d ef d8 be 29 15 e1 be 53 76 2c bf b8 7e 17 bf
       -0.4236988 -0.43961456 -0.6736805 -0.5917773
000010 91 79 a5 be 3e 0b 0e bf 26 14 ac be ab 5f ff be
       -0.3231931 -0.55485904 -0.33609122 -0.49877676
000020 eb fe e9 be eb 1f a9 be dc b2 a1 be f3 5d a5 be
       -0.457023 -0.33032164 -0.3158177 -0.3229824
000030 5c f5 a5 be f2 22 c0 be 8d 27 f6 be df 78 15 bf
       -0.32413757 -0.3752666 -0.4807705 -0.5838756
000040 28 8f d7 be b6 f1 02 bf 03 f2 f1 be cc ac 96 be
       -0.42101407 -0.5115007 -0.47254953 -0.2942871
000050 a3 26 b0 be 8e 87 02 bf e8 48 9d be f9 23 05 bf
       -0.34404477 -0.5098809 -0.30719686 -0.52008015
000060 9e fa f2 be 22 ba 2f bf 72 13 00 bf cf 08 18 bf
       -0.4745683 -0.6864339 -0.5002967 -0.5938844
000070 1c 1c e5 be 6f 05 df be 2e 83 02 bf 69 d4 e2 be
       -0.44748008 -0.43558833 -0.50981414 -0.4430268
000080 d0 89 e4 3c 87 bb 26 bf 80 2b b5 be a3 dc e5 be
       0.027897745 -0.65129894 -0.3538475 -0.44894895
000090 3d 59 ca be 2a 79 9f be a5 74 f0 be 55 1b ec be
       -0.39521208 -0.31147128 -0.46963993 -0.46114603
0000a0 24 c9 79 be 2c df cc be 62 78 df be ca 12 cf be
       -0.24393135 -0.40014017 -0.43646532 -0.40444022
0000b0 98 5f 00 bf 66 c2 b6 be 92 f6 30 bf 7c 34 20 bf
       -0.50145864 -0.3569519 -0.69126236 -0.62580085
0000c0 81 ea ff be e2 81 26 bf 2e 16 fd be 00 ec 11 bf
       -0.499836 -0.65041935 -0.49430984 -0.5700073
0000d0 b3 8b 03 bf f2 36 fc be ae a8 f8 be 72 bd f2 be
       -0.5138504 -0.4926067 -0.48566192 -0.4741016
0000e0 d8 86 c2 be 40 1e f6 be 54 48 4e be 60 1f cc be
       -0.37993503 -0.48069954 -0.20144778 -0.39867687
0000f0 b4 14 8a be a7 a5 0c bf 99 d5 1b bf 4b ea c4 be
       -0.2696892 -0.54940265 -0.608728 -0.3846
000100 21 d8 18 bf 28 9e 0d bf de 73 ea be 16 86 ca be
       -0.59704787 -0.5531945 -0.45791525 -0.39555424
000110 22 53 d4 be 1f 02 07 bf e0 c3 db be 2d 7b e2 be
       -0.41469675 -0.5273761 -0.42922878 -0.442346
000120 3c d7 45 bf c2 2e 0e bf f3 da 10 bf 3a 04 38 bf
       -0.77281547 -0.55540097 -0.5658409 -0.7188145
000130 7f 3c fd be 36 75 b3 be 9d c4 89 be b7 9a 2d bf
       -0.49460217 -0.35050362 -0.26907817 -0.678142
000140 44 26 09 bf 77 58 c9 be 74 56 d2 be 8a e8 00 bf
       -0.53574014 -0.39325306 -0.41081583 -0.50354826
000150 a6 fc c0 be bc c9 1d bf 05 2a d2 be 73 0c c2 be
       -0.37692755 -0.6163595 -0.41047683 -0.37900123
000160 ee 80 23 bf e0 00 16 bf 5a ca 8f be 6a 3a eb be
       -0.63868606 -0.58595085 -0.2808407 -0.45943004
000170 63 7f 5a bf c4 3c 04 bf 8d 79 c5 be 47 56 1a bf
       -0.85350627 -0.5165522 -0.38569298 -0.602879
000180 11 b4 1d bf d1 e2 2a bf aa 69 26 bf 9d de 07 bf
       -0.61602885 -0.66752344 -0.6500498 -0.53074056
000190 b8 17 f0 bd 87 6d ad 3e d8 d0 ce be ac 4d 84 be
       -0.11723274 0.33872625 -0.4039371 -0.2584051
0001a0 78 cd a2 3d a7 a3 6e bd 90 6a 1b be 64 39 7b be
       0.07949346 -0.05826154 -0.15177369 -0.24533612
0001b0 c9 f8 73 be e7 f8 11 be 68 2f 71 be 7b 4e 20 be
       -0.23825373 -0.14255105 -0.2355324 -0.15654938
0001c0 9b f7 ff 3b f6 2b 86 be 36 d9 e9 3d ab 92 ab 3e
       0.0078114993 -0.26205415 0.11418383 0.33510336
0001d0 fe 90 11 be 38 53 13 be 57 45 7c 3d 78 8c 03 be
       -0.14215466 -0.14387214 0.061589565 -0.12846553
0001e0 17 73 d6 3e 7f 01 12 be ef 87 d6 bd 37 04 4a be
       0.41884682 -0.14258383 -0.10475146 -0.1972817
0001f0 75 ea 2d be 9b 6a ea be ac c0 13 3e 9d c8 a7 bd
       -0.1698397 -0.4578446 0.14428967 -0.08192561
000200 e6 23 79 be 43 65 57 be 14 79 bd be e4 5e ce 3b
       -0.243301 -0.21034722 -0.37006438 0.006297933
000210 7a eb 22 bc a0 2d f8 be 15 d1 f0 bd ea 6d a5 be
       -0.009943837 -0.4847231 -0.11758629 -0.3231042
000220 ea 06 f9 bd b0 2e 25 be 76 68 e2 3d 5d be 99 be
       -0.12159522 -0.16131091 0.110550806 -0.30028048
000230 cb bf d7 bd 31 ef db bc c4 8c 79 3c 71 b7 50 be
       -0.105346285 -0.026847454 0.015231315 -0.20382477
000240 64 19 8b bc 56 ba 25 bc 9b 83 81 be f7 4f 99 be
       -0.01697988 -0.010115227 -0.2529572 -0.2994382
000250 ec f5 cf bc cf ef 89 bd 63 c9 2b be 6a 30 b9 be
       -0.02538582 -0.06735193 -0.16776042 -0.3616975
000260 be 01 94 be 54 b8 0d be a5 72 df be 34 93 b8 3c
       -0.2890758 -0.13839847 -0.43642154 0.02253113
000270 ca f4 07 bc 12 be c0 bd b1 34 b0 bd 8e 9e 1e bd
       -0.008298108 -0.09411253 -0.086038 -0.03872543
000280 07 df d9 3e 32 17 10 bd d7 5c 31 be 22 a4 35 3e
       0.4255297 -0.03517837 -0.17320572 0.17738393
000290 ab 99 25 be aa b9 06 be 53 57 20 be 12 c7 84 be
       -0.16171901 -0.13156763 -0.15658312 -0.2593313
0002a0 dc 3e 6f be 3d 11 89 be de d1 ab bd 4f 91 36 be
       -0.23363823 -0.26770964 -0.08389638 -0.17828868
0002b0 34 48 92 be d3 b7 7e be 1c e4 ef be 69 94 bd be
       -0.28570712 -0.24874811 -0.4685372 -0.3702729
0002c0 9c be a3 bc f5 f2 83 bc 87 1b 92 be c5 16 e2 be
       -0.01998835 -0.016107062 -0.28536627 -0.44157997
0002d0 8f a8 58 bd 25 a8 6b bd d1 74 f8 bc 91 fe 4a be
       -0.052895125 -0.057533402 -0.03032914 -0.19823672
0002e0 1c dd c8 bd ee 0a 99 be 89 a3 b7 bd 9a 33 6a be
       -0.09807798 -0.2989115 -0.08966739 -0.22871247
0002f0 b2 58 af be 08 e7 55 be d1 e5 53 be f5 a7 3a be
       -0.34247357 -0.20888913 -0.20693137 -0.18228133
000300 21 0c d7 be be 3c 9b be 84 3f 04 be f0 4b 30 be
       -0.4200144 -0.3031978 -0.12914854 -0.17216468
000310 e0 ae 91 be 3c 6f 6b be 94 70 88 be e2 75 71 be
       -0.28453732 -0.22991651 -0.2664839 -0.23580125
000320 4d cd fb bc 32 9a d8 bd e1 51 38 bd 1a 9e 43 bd
       -0.030737543 -0.105762854 -0.04499996 -0.0477582
000330 1b b0 3f 3e 2e 10 17 bd ab 1e 06 bd 6f 63 88 3c
       0.18719523 -0.036880665 -0.03274409 0.016648976
000340 2c 3a ad 3d 6c 5b d5 bc e0 26 02 3d 93 cf 06 3d
       0.08458361 -0.02604457 0.031775355 0.032912802
000350 f9 9f b9 3a 02 ad a3 3d 03 67 d6 3d 87 ba 82 3d
       0.0014162055 0.07991983 0.10468867 0.063832335
000360 a5 41 54 3d 40 35 fc 3d 4c 77 dd bb 43 a1 8e bc
       0.051820416 0.12314844 -0.006758606 -0.01741088
000370 aa 2b e0 bc 4e d6 94 bc a8 cd b8 3d 76 3b 2a 3d
       -0.02736457 -0.018168595 0.09023601 0.041560613
000380 37 54 a8 bc fe 84 1c bd 70 36 b2 3c 66 93 0b bd
       -0.02054797 -0.03821277 0.021754473 -0.034076117
000390 2e 63 84 3d 89 12 54 3d e6 53 79 3d 69 47 03 be
       0.064642295 0.05177549 0.060871027 -0.1282021
0003a0 5e e5 04 be 47 3a 78 bd ac e6 8f 3c 24 17 7e 3d
       -0.12978122 -0.060602453 0.017566048 0.062033787
0003b0 b5 c9 4a 3e 33 55 dc bc 91 37 e6 3c ef c9 51 3a
       0.19803508 -0.026896095 0.028102668 0.0008002808
0003c0 ce 96 89 3d aa e2 33 3d 82 8c 52 3d 78 82 2c 3c
       0.06718217 0.043917336 0.05140353 0.010529153
0003d0 06 09 b3 3c 99 cb 5f 3c 0d 32 1c be 3a e8 b3 3d
       0.021854889 0.013659381 -0.15253468 0.08784528
0003e0 35 ca aa 3d 1e d8 1b 3c d4 ba 99 3b b8 41 00 3e
       0.08339349 0.009511976 0.004691461 0.1252507
0003f0 be bb 23 3e 58 04 2c bd e4 62 87 3d 0f ae 0d 3d
       0.15989587 -0.04199633 0.06610659 0.034589823

lstm.bias_hh_l0 f4 [400]
000000 f9 36 a0 be 4f b0 f4 be a1 0b 0d bf 74 13 00 bf
       -0.3129194 -0.47790763 -0.5509587 -0.50029683
000010 9d 78 c3 be 3f 30 1c bf 79 6d a8 be 05 71 cc be
       -0.38177958 -0.6101112 -0.3289602 -0.39929977
000020 2f ff 01 bf f9 65 a4 be 91 d2 dc be 7c 3a a1 be
       -0.50780004 -0.3210905 -0.431294 -0.31489933
000030 b5 73 94 be f2 52 fa be 3c e8 0a bf 5f 00 01 bf
       -0.28994527 -0.48891407 -0.5426061 -0.5039119
000040 a5 db b7 be cf 66 bb be 12 c6 cb be 77 e3 cb be
       -0.35909763 -0.36601874 -0.39799553 -0.3982198
000050 c2 9f b6 be 48 ba 01 bf 9b bc de be d3 f3 ed be
       -0.3566876 -0.5067487 -0.4350327 -0.46475086
000060 ad 53 a1 be 5d 73 41 bf af ac 00 bf db 9d 21 bf
       -0.31509152 -0.75566655 -0.50263494 -0.63131493
000070 60 b6 02 bf d6 f6 db be 96 19 2a bf d5 90 ff be
       -0.5105953 -0.42961758 -0.6644529 -0.49915186
000080 fc bd 16 3d 67 57 17 bf 8a af e1 be d3 e9 07 bf
       0.036802277 -0.5911774 -0.44079238 -0.5309116
000090 1e 8e ad be a6 76 a6 be 1d 54 d0 be 5f 1b 03 bf
       -0.3389749 -0.32512397 -0.40689173 -0.5121364
0000a0 a4 92 81 be c4 88 9d be 11 f3 e2 be 22 61 a7 be
       -0.2530719 -0.30768406 -0.4432607 -0.32691294
0000b0 2a 26 cf be 66 1f c1 be 49 14 4e bf 7a f3 19 bf
       -0.40458804 -0.37719268 -0.804997 -0.6013714
0000c0 27 28 08 bf 06 32 1f bf 92 ac ef be 13 44 f9 be
       -0.5318627 -0.62185705 -0.46811348 -0.4868475
0000d0 6f 12 f3 be 16 46 c8 be f9 09 0a bf a4 63 03 bf
       -0.47475 -0.3911597 -0.5392147 -0.51323915
0000e0 7a 9e c5 be ab fe 08 bf e1 55 aa be bd f3 86 be
       -0.3859747 -0.5351359 -0.33268645 -0.26357833
0000f0 15 d5 98 be 62 03 ce be ea 38 28 bf 25 2e 95 be
       -0.2985007 -0.40236956 -0.65711844 -0.29136768
000100 1e 5e 10 bf 52 23 1d bf ee b0 0c bf de 26 bc be
       -0.5639361 -0.6138202 -0.54957473 -0.36748403
000110 71 ba cb be 75 27 19 bf ce 51 bd be fa 2a d0 be
       -0.3979068 -0.5982583 -0.36976475 -0.4065779
000120 be b5 4a bf 85 cf 02 bf f6 a0 27 bf 8e 2e 34 bf
       -0.79183567 -0.510979 -0.6547998 -0.70383537
000130 c4 cd 11 bf f0 c6 bb be 7a ff cd be e5 c4 27 bf
       -0.569546 -0.36675215 -0.40233976 -0.6553481
000140 29 6b 0b bf 9d d9 03 bf c6 d7 be be 8d ea eb be
       -0.5446039 -0.51503927 -0.37273997 -0.46077386
000150 3c 39 bc be bb 59 29 bf 84 21 b3 be 75 71 c0 be
       -0.36762416 -0.6615254 -0.34986508 -0.3758656
000160 a3 46 02 bf 78 d5 f2 be 8d 72 d2 be e7 7e d0 be
       -0.50889033 -0.4742849 -0.4110302 -0.4072182
000170 97 25 67 bf 58 44 e7 be 92 7b c0 be 3b c3 19 bf
       -0.9029173 -0.4516933 -0.37594277 -0.60063523
000180 9c c0 0f bf 69 fd 0f bf f0 b6 f5 be 6a 88 02 bf
       -0.56153274 -0.5624605 -0.47991133 -0.509894
000190 45 2e a7 bd a9 4e d0 3e 8f 52 f7 be 31 9e 3c be
       -0.08163122 0.40685013 -0.48305175 -0.1841972
0001a0 a1 ec b5 3d 0f e6 0e be 04 34 30 bd d7 c2 5c be
       0.08883024 -0.13954948 -0.043018356 -0.215587
0001b0 bb de ab be 74 64 86 be 9c 38 37 be b8 ee e2 bd
       -0.33568367 -0.26248515 -0.17892689 -0.11080688
0001c0 ed a7 e0 3a 83 71 38 be 06 77 35 3e e3 01 90 3e
       0.001713989 -0.18012051 0.17721185 0.2812644
0001d0 4e 1b 83 be 01 bd e1 bc 75 ea a1 bd 84 2a 14 bd
       -0.2560677 -0.027555944 -0.07906047 -0.03617336
0001e0 af e2 9b 3e ec 86 c1 bd bc 15 6d be 56 aa a3 be
       0.30446383 -0.094495624 -0.23152822 -0.31965894
0001f0 4d e6 38 be 9d 4e e7 be 18 a2 bd 3d 7e 8c 1f bc
       -0.18056603 -0.45177165 0.092594326 -0.009738086
000200 9d 6d 66 be 64 c1 80 be 19 b9 ae be 31 66 16 bc
       -0.22502752 -0.25147545 -0.34125593 -0.009179638
000210 b1 9a 5e bd e9 ad e5 be b5 e6 21 3c 7e 1b 92 be
       -0.054346744 -0.44859245 0.009881665 -0.285366
000220 99 b6 30 be 27 85 41 be 7b 01 5d 3e 4d b4 ac be
       -0.17257155 -0.1889845 0.21582596 -0.3373131
000230 41 e2 3e bd e6 62 bb bd 23 e2 96 bd 73 19 21 be
       -0.04660249 -0.09149723 -0.07367351 -0.15732364
000240 66 e3 36 bd fd bd 1d 3e 92 b5 8a be c1 6e 82 be
       -0.044650458 0.15404506 -0.27091652 -0.25475124
000250 e5 dc 28 bc 2a 28 2d be 44 34 68 be a5 df a1 be
       -0.010306572 -0.16909853 -0.22676188 -0.3161594
000260 2b 21 99 be 45 c5 6a be f1 75 13 bf 0f ed 26 3d
       -0.29908118 -0.22926815 -0.5760184 0.04075342
000270 52 78 01 3d e8 34 3f be 05 ea bd bc 55 3f fc bd
       0.031608887 -0.18672526 -0.023182878 -0.12316767
000280 67 9e ea 3e 7e b0 a4 bd 36 11 21 be 55 6b 2b 3e
       0.45823976 -0.08041476 -0.15729222 0.16740163
000290 bf 9e 47 be be 46 26 be be 78 73 be d5 97 85 be
       -0.1949415 -0.16237924 -0.23776528 -0.260924
0002a0 a6 e6 8b be 5b 40 48 be cc bb 1b be f2 10 0b be
       -0.27324408 -0.195558 -0.15208358 -0.13580683
0002b0 97 8b b9 be f1 96 25 be 74 d7 ef be 26 15 85 be
       -0.3623931 -0.16170861 -0.46844065 -0.25992697
0002c0 8e 20 40 bd 29 9d c9 bd 45 d4 48 be 38 6c e0 be
       -0.046906047 -0.09844429 -0.19612224 -0.43832564
0002d0 5b 70 a5 3d 12 7f 39 3d fc 54 d7 bd dc 71 7c be
       0.08078071 0.0452872 -0.10514256 -0.24652809
0002e0 ef d9 39 bc 74 c5 84 be 83 69 15 be b7 a8 41 be
       -0.011343463 -0.25931895 -0.14591031 -0.18912016
0002f0 b6 de 94 be ec 36 2b be 7a b8 60 be 87 69 77 bd
       -0.29076165 -0.1672017 -0.21945372 -0.060403373
000300 78 97 ee be 8b ed 22 be 13 86 d1 bd 5c 2b 81 be
       -0.46599936 -0.15910928 -0.10230651 -0.25228393
000310 7d 6e d3 be 9d 1e a8 be 48 f2 ab be f3 3c 4d be
       -0.41295233 -0.32835856 -0.33583283 -0.20042782
000320 8d 20 40 bd c3 0c c7 bd d6 9f 76 3c 67 85 c9 bd
       -0.046906043 -0.09719231 0.015052756 -0.098398976
000330 75 2a 78 3d 79 f7 94 bd 3d e0 d8 3d 3a b1 8d 3d
       0.060587365 -0.07273764 0.10589645 0.06918569
000340 58 eb ea 3d e9 5f 28 3d 4d 83 a7 3c 6b 96 6b 3d
       0.114706695 0.041107092 0.020448351 0.057516497
000350 39 51 d1 bd bb 22 ed bc 8a 1c c8 bb de be 64 bd
       -0.1022057 -0.028947225 -0.0061069177 -0.055846088
000360 36 d5 7b bc 23 c6 66 3c 90 f3 f6 bc 5f 2f d4 bb
       -0.015370658 0.014085325 -0.030145437 -0.0064753736
000370 6e eb de bc 39 fb a7 bd 3e 4d c5 3d 8f 25 7c bd
       -0.027211871 -0.08202214 0.096338734 -0.061559256
000380 f3 fa a2 3c 5e 1d b2 bd 55 aa f7 3c 67 f4 a2 bc
       0.019895053 -0.086970076 0.030232588 -0.01989193
000390 ac ec af 3c db 2b 18 3e 52 97 1c 3c 97 41 7d bd
       0.021475159 0.1486048 0.009557562 -0.06183013
0003a0 34 e8 b9 3b 94 3a fa 3c 28 f5 79 bd 01 99 d1 bb
       0.0056734327 0.03054551 -0.061024815 -0.0063964133
0003b0 07 7b a9 3e e1 24 a3 bd 47 20 17 be 90 50 a0 3c
       0.33101675 -0.079660185 -0.14758407 0.019569665
0003c0 0e a5 2c bd 24 d3 97 3c d4 09 2a bd fd 3c 03 3d
       -0.042149596 0.018533297 -0.04151328 0.032040585
0003d0 03 4c 9d bd f3 0c 24 3d 1a 59 18 bd f6 3c 65 3d
       -0.07680514 0.04005141 -0.03719435 0.05596634
0003e0 ea 95 2a 3d c0 02 96 bb 6f fc bb 3c 04 0c 71 3c
       0.041646875 -0.0045779645 0.022947518 0.014712337
0003f0 8c 28 88 ba 7b 1e 86 bd 51 f6 c7 3d ec ed 97 bd
       -0.001038806 -0.065487824 0.09763778 -0.07418427
