Python/saved_models/M2.xes.model.pt (torch, 196210 bytes, 16 tensors)

batchnorm.weight f4 [100]
0	0x3f800000	1.0
1	0x3f800000	1.0
2	0x3f800000	1.0
3	0x3f800000	1.0
4	0x3f800000	1.0
5	0x3f800000	1.0
6	0x3f800000	1.0
7	0x3f800000	1.0
8	0x3f800000	1.0
9	0x3f800000	1.0
10	0x3f800000	1.0
11	0x3f800000	1.0
12	0x3f800000	1.0
13	0x3f800000	1.0
14	0x3f800000	1.0
15	0x3f800000	1.0
16	0x3f800000	1.0
17	0x3f800000	1.0
18	0x3f800000	1.0
19	0x3f800000	1.0
20	0x3f800000	1.0
21	0x3f800000	1.0
22	0x3f800000	1.0
23	0x3f800000	1.0
24	0x3f800000	1.0
25	0x3f800000	1.0
26	0x3f800000	1.0
27	0x3f800000	1.0
28	0x3f800000	1.0
29	0x3f800000	1.0
30	0x3f800000	1.0
31	0x3f800000	1.0
32	0x3f800000	1.0
33	0x3f800000	1.0
34	0x3f800000	1.0
35	0x3f800000	1.0
36	0x3f800000	1.0
37	0x3f800000	1.0
38	0x3f800000	1.0
39	0x3f800000	1.0
40	0x3f800000	1.0
41	0x3f800000	1.0
42	0x3f800000	1.0
43	0x3f800000	1.0
44	0x3f800000	1.0
45	0x3f800000	1.0
46	0x3f800000	1.0
47	0x3f800000	1.0
48	0x3f800000	1.0
49	0x3f800000	1.0
50	0x3f800000	1.0
51	0x3f800000	1.0
52	0x3f800000	1.0
53	0x3f800000	1.0
54	0x3f800000	1.0
55	0x3f800000	1.0
56	0x3f800000	1.0
57	0x3f800000	1.0
58	0x3f800000	1.0
59	0x3f800000	1.0
60	0x3f800000	1.0
61	0x3f800000	1.0
62	0x3f800000	1.0
63	0x3f800000	1.0
64	0x3f800000	1.0
65	0x3f800000	1.0
66	0x3f800000	1.0
67	0x3f800000	1.0
68	0x3f800000	1.0
69	0x3f800000	1.0
70	0x3f800000	1.0
71	0x3f800000	1.0
72	0x3f800000	1.0
73	0x3f800000	1.0
74	0x3f800000	1.0
75	0x3f800000	1.0
76	0x3f800000	1.0
77	0x3f800000	1.0
78	0x3f800000	1.0
79	0x3f800000	1.0
80	0x3f800000	1.0
81	0x3f800000	1.0
82	0x3f800000	1.0
83	0x3f800000	1.0
84	0x3f800000	1.0
85	0x3f800000	1.0
86	0x3f800000	1.0
87	0x3f800000	1.0
88	0x3f800000	1.0
89	0x3f800000	1.0
90	0x3f800000	1.0
91	0x3f800000	1.0
92	0x3f800000	1.0
93	0x3f800000	1.0
94	0x3f800000	1.0
95	0x3f800000	1.0
96	0x3f800000	1.0
97	0x3f800000	1.0
98	0x3f800000	1.0
99	0x3f800000	1.0

batchnorm.bias f4 [100]
0	0x00000000	0.0
1	0x00000000	0.0
2	0x00000000	0.0
3	0x00000000	0.0
4	0x00000000	0.0
5	0x00000000	0.0
6	0x00000000	0.0
7	0x00000000	0.0
8	0x00000000	0.0
9	0x00000000	0.0
10	0x00000000	0.0
11	0x00000000	0.0
12	0x00000000	0.0
13	0x00000000	0.0
14	0x00000000	0.0
15	0x00000000	0.0
16	0x00000000	0.0
17	0x00000000	0.0
18	0x00000000	0.0
19	0x00000000	0.0
20	0x00000000	0.0
21	0x00000000	0.0
22	0x00000000	0.0
23	0x00000000	0.0
24	0x00000000	0.0
25	0x00000000	0.0
26	0x00000000	0.0
27	0x00000000	0.0
28	0x00000000	0.0
29	0x00000000	0.0
30	0x00000000	0.0
31	0x00000000	0.0
32	0x00000000	0.0
33	0x00000000	0.0
34	0x00000000	0.0
35	0x00000000	0.0
36	0x00000000	0.0
37	0x00000000	0.0
38	0x00000000	0.0
39	0x00000000	0.0
40	0x00000000	0.0
41	0x00000000	0.0
42	0x00000000	0.0
43	0x00000000	0.0
44	0x00000000	0.0
45	0x00000000	0.0
46	0x00000000	0.0
47	0x00000000	0.0
48	0x00000000	0.0
49	0x00000000	0.0
50	0x00000000	0.0
51	0x00000000	0.0
52	0x00000000	0.0
53	0x00000000	0.0
54	0x00000000	0.0
55	0x00000000	0.0
56	0x00000000	0.0
57	0x00000000	0.0
58	0x00000000	0.0
59	0x00000000	0.0
60	0x00000000	0.0
61	0x00000000	0.0
62	0x00000000	0.0
63	0x00000000	0.0
64	0x00000000	0.0
65	0x00000000	0.0
66	0x00000000	0.0
67	0x00000000	0.0
68	0x00000000	0.0
69	0x00000000	0.0
70	0x00000000	0.0
71	0x00000000	0.0
72	0x00000000	0.0
73	0x00000000	0.0
74	0x00000000	0.0
75	0x00000000	0.0
76	0x00000000	0.0
77	0x00000000	0.0
78	0x00000000	0.0
79	0x00000000	0.0
80	0x00000000	0.0
81	0x00000000	0.0
82	0x00000000	0.0
83	0x00000000	0.0
84	0x00000000	0.0
85	0x00000000	0.0
86	0x00000000	0.0
87	0x00000000	0.0
88	0x00000000	0.0
89	0x00000000	0.0
90	0x00000000	0.0
91	0x00000000	0.0
92	0x00000000	0.0
93	0x00000000	0.0
94	0x00000000	0.0
95	0x00000000	0.0
96	0x00000000	0.0
97	0x00000000	0.0
98	0x00000000	0.0
99	0x00000000	0.0

batchnorm.running_mean f4 [100]
0	0x00000000	0.0
1	0x00000000	0.0
2	0x00000000	0.0
3	0x00000000	0.0
4	0x00000000	0.0
5	0x00000000	0.0
6	0x00000000	0.0
7	0x00000000	0.0
8	0x00000000	0.0
9	0x00000000	0.0
10	0x00000000	0.0
11	0x00000000	0.0
12	0x00000000	0.0
13	0x00000000	0.0
14	0x00000000	0.0
15	0x00000000	0.0
16	0x00000000	0.0
17	0x00000000	0.0
18	0x00000000	0.0
19	0x00000000	0.0
20	0x00000000	0.0
21	0x00000000	0.0
22	0x00000000	0.0
23	0x00000000	0.0
24	0x00000000	0.0
25	0x00000000	0.0
26	0x00000000	0.0
27	0x00000000	0.0
28	0x00000000	0.0
29	0x00000000	0.0
30	0x00000000	0.0
31	0x00000000	0.0
32	0x00000000	0.0
33	0x00000000	0.0
34	0x00000000	0.0
35	0x00000000	0.0
36	0x00000000	0.0
37	0x00000000	0.0
38	0x00000000	0.0
39	0x00000000	0.0
40	0x00000000	0.0
41	0x00000000	0.0
42	0x00000000	0.0
43	0x00000000	0.0
44	0x00000000	0.0
45	0x00000000	0.0
46	0x00000000	0.0
47	0x00000000	0.0
48	0x00000000	0.0
49	0x00000000	0.0
50	0x00000000	0.0
51	0x00000000	0.0
52	0x00000000	0.0
53	0x00000000	0.0
54	0x00000000	0.0
55	0x00000000	0.0
56	0x00000000	0.0
57	0x00000000	0.0
58	0x00000000	0.0
59	0x00000000	0.0
60	0x00000000	0.0
61	0x00000000	0.0
62	0x00000000	0.0
63	0x00000000	0.0
64	0x00000000	0.0
65	0x00000000	0.0
66	0x00000000	0.0
67	0x00000000	0.0
68	0x00000000	0.0
69	0x00000000	0.0
70	0x00000000	0.0
71	0x00000000	0.0
72	0x00000000	0.0
73	0x00000000	0.0
74	0x00000000	0.0
75	0x00000000	0.0
76	0x00000000	0.0
77	0x00000000	0.0
78	0x00000000	0.0
79	0x00000000	0.0
80	0x00000000	0.0
81	0x00000000	0.0
82	0x00000000	0.0
83	0x00000000	0.0
84	0x00000000	0.0
85	0x00000000	0.0
86	0x00000000	0.0
87	0x00000000	0.0
88	0x00000000	0.0
89	0x00000000	0.0
90	0x00000000	0.0
91	0x00000000	0.0
92	0x00000000	0.0
93	0x00000000	0.0
94	0x00000000	0.0
95	0x00000000	0.0
96	0x00000000	0.0
97	0x00000000	0.0
98	0x00000000	0.0
99	0x00000000	0.0

batchnorm.running_var f4 [100]
0	0x3f800000	1.0
1	0x3f800000	1.0
2	0x3f800000	1.0
3	0x3f800000	1.0
4	0x3f800000	1.0
5	0x3f800000	1.0
6	0x3f800000	1.0
7	0x3f800000	1.0
8	0x3f800000	1.0
9	0x3f800000	1.0
10	0x3f800000	1.0
11	0x3f800000	1.0
12	0x3f800000	1.0
13	0x3f800000	1.0
14	0x3f800000	1.0
15	0x3f800000	1.0
16	0x3f800000	1.0
17	0x3f800000	1.0
18	0x3f800000	1.0
19	0x3f800000	1.0
20	0x3f800000	1.0
21	0x3f800000	1.0
22	0x3f800000	1.0
23	0x3f800000	1.0
24	0x3f800000	1.0
25	0x3f800000	1.0
26	0x3f800000	1.0
27	0x3f800000	1.0
28	0x3f800000	1.0
29	0x3f800000	1.0
30	0x3f800000	1.0
31	0x3f800000	1.0
32	0x3f800000	1.0
33	0x3f800000	1.0
34	0x3f800000	1.0
35	0x3f800000	1.0
36	0x3f800000	1.0
37	0x3f800000	1.0
38	0x3f800000	1.0
39	0x3f800000	1.0
40	0x3f800000	1.0
41	0x3f800000	1.0
42	0x3f800000	1.0
43	0x3f800000	1.0
44	0x3f800000	1.0
45	0x3f800000	1.0
46	0x3f800000	1.0
47	0x3f800000	1.0
48	0x3f800000	1.0
49	0x3f800000	1.0
50	0x3f800000	1.0
51	0x3f800000	1.0
52	0x3f800000	1.0
53	0x3f800000	1.0
54	0x3f800000	1.0
55	0x3f800000	1.0
56	0x3f800000	1.0
57	0x3f800000	1.0
58	0x3f800000	1.0
59	0x3f800000	1.0
60	0x3f800000	1.0
61	0x3f800000	1.0
62	0x3f800000	1.0
63	0x3f800000	1.0
64	0x3f800000	1.0
65	0x3f800000	1.0
66	0x3f800000	1.0
67	0x3f800000	1.0
68	0x3f800000	1.0
69	0x3f800000	1.0
70	0x3f800000	1.0
71	0x3f800000	1.0
72	0x3f800000	1.0
73	0x3f800000	1.0
74	0x3f800000	1.0
75	0x3f800000	1.0
76	0x3f800000	1.0
77	0x3f800000	1.0
78	0x3f800000	1.0
79	0x3f800000	1.0
80	0x3f800000	1.0
81	0x3f800000	1.0
82	0x3f800000	1.0
83	0x3f800000	1.0
84	0x3f800000	1.0
85	0x3f800000	1.0
86	0x3f800000	1.0
87	0x3f800000	1.0
88	0x3f800000	1.0
89	0x3f800000	1.0
90	0x3f800000	1.0
91	0x3f800000	1.0
92	0x3f800000	1.0
93	0x3f800000	1.0
94	0x3f800000	1.0
95	0x3f800000	1.0
96	0x3f800000	1.0
97	0x3f800000	1.0
98	0x3f800000	1.0
99	0x3f800000	1.0

lstm.weight_ih_l0 f4 [200, 33]
0	0x3c17a6f6	0.009256115
1	0xbc8feb1b	-0.017568162
2	0x3ac5b878	0.0015084883
3	0x3b10057f	0.0021975932
4	0x3be9a972	0.007130795
5	0x3ac055e6	0.0014674037
6	0x3a3da14d	0.00072338135
7	0x3c311088	0.010807164
8	0x385963d0	5.182979e-05
9	0xbca97d56	-0.020689648
10	0x3be67651	0.0070331474
11	0xbaf2b436	-0.0018516842
12	0x3db0a526	0.086252496
13	0xbaf167c0	-0.0018417761
14	0x3cd1c591	0.025606902
15	0x3a8be637	0.0010673468
16	0x3c490973	0.012270319
17	0xbc280dba	-0.010257179
18	0x3bccd816	0.0062513454
19	0xbb77ab64	-0.0037791366
20	0x3b8a3a93	0.0042184084
21	0xba2a64bc	-0.0006499996
22	0x3bd4ea3a	0.0064976485
23	0x37bbd310	2.239042e-05
24	0xbb1b6c1d	-0.0023715564
25	0xbababa28	-0.0014246153
26	0x3c467074	0.012111772
27	0xbc35e838	-0.011102729
28	0x3aa12fc4	0.001229756
29	0x3c0545c1	0.008134306
30	0x3b0affcb	0.0021209593
31	0x3c0a4e7d	0.008441565
32	0x37f9a63e	2.9760526e-05
33	0x3bb4a804	0.005513193
34	0xbba747c7	-0.005104992
35	0x3b9e2efa	0.0048273774
36	0x3adf7b8d	0.0017050371
37	0x3b4b8ffe	0.0031061168
38	0x3a6419f6	0.0008701378
39	0xbaa8b507	-0.0012871333
40	0x3a050a9b	0.00050751277
41	0x3b8acd9e	0.0042359373
42	0xbb232d28	-0.0024898741
43	0x3c2f9b40	0.010718167
44	0xba017d82	-0.00049396616
45	0x3d2ea1d3	0.042634796
46	0xba38014e	-0.00070192374
47	0x3ce7903e	0.028267022
48	0x3b500597	0.0031741613
49	0x3c0b3c1d	0.008498219
50	0xbbba9020	-0.0056934506
51	0xbadbe0e6	-0.0016775399
52	0x3b93442a	0.00449421
53	0xbb7878f1	-0.0037913884
54	0x3a9e544a	0.0012079563
55	0x3be805de	0.0070807775
56	0xb9d51358	-0.00040640938
57	0xb844e848	-4.694637e-05
58	0xbac0ebf2	-0.0014718755
59	0x3c5be169	0.013420441
60	0xbbb764c4	-0.005596729
61	0xbb122815	-0.0022301723
62	0x3a428bb0	0.0007421328
63	0x3aea3b3e	0.0017870439
64	0x3a17c629	0.0005789721
65	0xb83fbdc6	-4.571469e-05
66	0xbb1447e9	-0.002262587
67	0xbc207c11	-0.009795205
68	0x3bf67f31	0.0075224866
69	0x3acc920a	0.0015607488
70	0x3b8df354	0.0043319855
71	0x3b325d52	0.0027216268
72	0xbb2cbb70	-0.0026356839
73	0x3c19bdc8	0.009383626
74	0x3b0822af	0.0020772626
75	0xbcad6fe7	-0.021171523
76	0x3c33e5b1	0.010980056
77	0x3cfd10ee	0.030891862
78	0x3c175f63	0.009239051
79	0xbbeb3d93	-0.007178971
80	0x3d888fa2	0.06668021
81	0x3b9c7a12	0.004775294
82	0x3cc43336	0.0239502
83	0x3c04c870	0.008104429
84	0x3bcdab04	0.00627649
85	0x3c250e54	0.010074217
86	0xbaeed7dc	-0.001822229
87	0xbb81a664	-0.003956603
88	0x3bf0d534	0.0073496345
89	0xbaa5390f	-0.0012605506
90	0x3ba6eb3b	0.0050939596
91	0x3a0c9b89	0.0005363753
92	0x3ca256e3	0.019816821
93	0xbbca55dd	-0.0061747865
94	0x3b44905a	0.0029993267
95	0x3c20b514	0.009808797
96	0x3ad2d1b3	0.0016084224
97	0x3c08d563	0.008351657
98	0x39cf49c3	0.00039537073
99	0xbc58024c	-0.013184141
100	0x3c9c567e	0.019084211
101	0xbb8ca42e	-0.0042920327
102	0x3afb2d94	0.0019163364
103	0x3c4fcf1a	0.012683654
104	0x3ad1d098	0.00160076
105	0xbaf8d47c	-0.0018984224
106	0x3a4c69e1	0.00077977596
107	0x3b778a42	0.0037771617
108	0x3c23da8b	0.010000835
109	0x3cbd730b	0.023126146
110	0x3a81c559	0.0009900733
111	0x3dc5af03	0.096525215
112	0xba945ea3	-0.0011319708
113	0x3ba5d67b	0.0050609685
114	0x37baeddf	2.2283695e-05
115	0xb98366c8	-0.00025062845
116	0xbcadb007	-0.0212021
117	0xbc1a02c2	-0.009400072
118	0xbac826fb	-0.0015270406
119	0xbbe2a61f	-0.006916776
120	0x3ba98f6f	0.0051745693
121	0xbada6a15	-0.0016663695
122	0xb9314cdd	-0.00016908669
123	0xbb2183ac	-0.0024645133
124	0x3b85bb27	0.004081148
125	0x3c687d95	0.014190097
126	0x3c7c4a8f	0.0153986355
127	0xbbedd4e6	-0.0072580455
128	0xb911c232	-0.00013900621
129	0x3b4ac164	0.0030938024
130	0x3bc888a0	0.0061198026
131	0xb98254d1	-0.00024858725
132	0x3bc764b2	0.006085002
133	0x3b99300f	0.0046749185
134	0x3b2a8a11	0.0026022235
135	0x3b810a62	0.0039380053
136	0x3c82bbcd	0.015958691
137	0xba0f6061	-0.00054693787
138	0x3903ba94	0.0001256264
139	0x3b846659	0.004040521
140	0xbb50b21a	-0.0031844438
141	0x3ad59971	0.001629634
142	0xbaf4c40a	-0.0018674147
143	0x3c57a1b5	0.013161113
144	0xbb133526	-0.00224621
145	0x3a5dc190	0.0008459324
146	0x3b71377b	0.003680675
147	0x3b6cf906	0.0036159172
148	0x3ba462e6	0.0050166724
149	0x3b42efcc	0.002974498
150	0x3b895a1a	0.004191649
151	0x3add87f9	0.0016901485
152	0x3b2a7229	0.0026007986
153	0xbb383878	-0.002810983
154	0x3c2688db	0.010164465
155	0x3b69ad7e	0.0035656388
156	0xbb04cb4f	-0.0020262783
157	0x3ba63a5b	0.0050728745
158	0x3c82e6bc	0.015979163
159	0xbbcea468	-0.00630622
160	0x3bbd5149	0.005777512
161	0x3bdd3102	0.006750227
162	0x3b744629	0.0037273264
163	0x3c1754b8	0.009236507
164	0x375ab10d	1.3035035e-05
165	0x3bf6ddb1	0.007533752
166	0x3ba28da7	0.004960734
167	0xbbcb2341	-0.006199271
168	0x3a443002	0.00074839604
169	0xbb315a80	-0.0027062
170	0x3bb331ca	0.005468582
171	0x3bc2d6b9	0.005946007
172	0x3b66677f	0.0035156903
173	0x3c3b19de	0.011419741
174	0xbb2203cf	-0.0024721508
175	0x3a9df949	0.0012052442
176	0x3dd7662c	0.105175346
177	0x398d5b47	0.00026961623
178	0xb951c7f3	-0.0002000628
179	0xbc38a257	-0.011269174
180	0x3b0f2dd6	0.0021847389
181	0xbc6ecf1a	-0.014575744
182	0x3b8f5d04	0.004375102
183	0x39b48e96	0.0003443851
184	0xbb388c45	-0.002815978
185	0x399b3103	0.0002960042
186	0xbc0b1a35	-0.008490135
187	0x3d0f6e6c	0.035017416
188	0xba2e36ad	-0.00066457206
189	0x3b3477e2	0.0027537276
190	0xba8961c1	-0.0010481403
191	0x3a368ed0	0.000696403
192	0x3ad925c7	0.0016567045
193	0x3b910bd4	0.004426459
194	0xbb0b5afa	-0.0021263943
195	0xbb3836e1	-0.0028108882
196	0x3b8057e6	0.0039167283
197	0x399a2fd9	0.00029408818
198	0xbba15ee3	-0.0049246415
199	0xbb941e55	-0.0045202174
200	0x3bd82dcc	0.0065972563
201	0x3944c555	0.00018765529
202	0x3992f163	0.00028027137
203	0x3b648c8a	0.0034873807
204	0x3b437505	0.0029824388
205	0x3b830311	0.0039981683
206	0x3a9fd107	0.0012193032
207	0x3b14bb55	0.0022694666
208	0x3bec246a	0.0072064893
209	0x3bd0d2a0	0.0063727647
210	0x3e0d3d48	0.13792908
211	0xba64ce87	-0.0008728285
212	0x3d3cb27b	0.04606865
213	0x3a9f5ad8	0.0012157811
214	0x3b9c8bfb	0.004777429
215	0x3b69572a	0.0035604932
216	0xb9510870	-0.00019934936
217	0xb9c305e0	-0.00037197676
218	0xbb2c8848	-0.0026326347
219	0xbb5f0c74	-0.0034034522
220	0x3bddc8fb	0.0067683435
221	0xba9e2d6e	-0.0012067982
222	0x3b0a0e01	0.0021065476
223	0xbad20d52	-0.0016025698
224	0x3cde37d1	0.027126225
225	0xbb81db5c	-0.0039629173
226	0x3b7948ae	0.0038037705
227	0xbb00e3e3	-0.001966708
228	0x3a6af9be	0.0008963606
229	0x3b359915	0.0027709652
230	0xb6cf0e24	-6.170727e-06
231	0xbacb6290	-0.0015517045
232	0xbc11586b	-0.008871178
233	0x3c87fe95	0.016600886
234	0xba53c406	-0.0008078221
235	0x3c0df19e	0.008663563
236	0xbb6e74cf	-0.0036385541
237	0xbaeaffba	-0.0017928996
238	0x3b32d571	0.0027287866
239	0x3c306384	0.010765914
240	0x3bccf034	0.0062542204
241	0xbbddaa2b	-0.0067646704
242	0xb8fcb668	-0.00012050272
243	0x3d1f004b	0.03881864
244	0xbb980a7a	-0.004639921
245	0x3db05a2a	0.086109474
246	0xb90f1b0a	-0.00013647616
247	0x3aaea007	0.0013322838
248	0x3af08e55	0.0018352965
249	0x3baab6de	0.0052097877
250	0x3c4c6973	0.012476313
251	0x3b4955b5	0.0030721251
252	0xbae3508c	-0.001734273
253	0x3cabae04	0.020957
254	0xb7ea9e84	-2.7968788e-05
255	0x3bae45db	0.005318386

lstm.weight_hh_l0 f4 [200, 50]
0	0x3c5697ca	0.013097713
1	0x3c2528fe	0.010080574
2	0x3afebaba	0.0019434311
3	0x3cb185e2	0.021670286
4	0x39dbced2	0.00041925028
5	0x3c563e46	0.013076371
6	0xbc02f807	-0.007993705
7	0xbbfc0c22	-0.007691876
8	0x3cd23ff9	0.02566527
9	0xbb4b0295	-0.003097688
10	0x3ca78017	0.02044682
11	0x3c024c2e	0.007952733
12	0xbb0f23ce	-0.002184141
13	0xbbc02e92	-0.0058649266
14	0xbbb8c787	-0.00563902
15	0x3c1f1601	0.009709836
16	0x3c217ae4	0.00985596
17	0xbc50f8b6	-0.01275461
18	0x3badb5e9	0.0053012264
19	0x3bb200e8	0.005432237
20	0x3b83ed62	0.004026101
21	0xbc408de9	-0.011752584
22	0x3bdeee99	0.0068033454
23	0x3be444b5	0.0069661983
24	0x3c91c737	0.017795188
25	0xbcb4fe57	-0.022093935
26	0xbc95c0ae	-0.018280353
27	0x3ca16c73	0.019705033
28	0xbcee1f9e	-0.02906781
29	0xbbc913b2	-0.006136381
30	0xbcb6b921	-0.022305073
31	0x3bffd244	0.007807048
32	0x3c4e978a	0.012609372
33	0x3b2c8122	0.0026322086
34	0xbc59659e	-0.013268856
35	0xbba3a8bd	-0.0049944804
36	0x3bc850c0	0.006113142
37	0xbcc79d0f	-0.024366884
38	0xbbc28705	-0.0059365057
39	0xbc78ba7b	-0.015181179
40	0xbc19904d	-0.009372783
41	0xbc9fa82f	-0.019489376
42	0xbc1c1bab	-0.009528081
43	0xbc1e903a	-0.009677941
44	0x3b8d67f9	0.004315373
45	0xbc949608	-0.018137947
46	0x3cf88765	0.030337999
47	0x3b59bc8f	0.0033223962
48	0xbb88a615	-0.004170189
49	0x3c7dfc75	0.015502085
50	0x3c523fe0	0.012832612
51	0x3cac8a57	0.02106206
52	0xbcd0f3b2	-0.025506828
53	0x3c213a2d	0.00984053
54	0xbb88eb10	-0.0041784123
55	0xbb557ed9	-0.0032576828
56	0xbcba8212	-0.0227671
57	0xbcdd5ddf	-0.0270223
58	0x3ceb80cb	0.028747937
59	0xbc7c08e5	-0.01538298
60	0x3c9611d7	0.018319054
61	0x3bb9bc44	0.005668195
62	0xbc063339	-0.008190923
63	0xbb320fc1	-0.0027170035
64	0xbc52b745	-0.012861078
65	0x3b12d87a	0.0022406862
66	0x3b4466af	0.002996843
67	0xbc0f2985	-0.008737926
68	0x3ace4da6	0.0015739694
69	0xba9da94b	-0.0012028603
70	0x3aa991fe	0.0012937186
71	0xbcb6590b	-0.022259256
72	0x3ab6621c	0.0013914737
73	0x3c0b4e76	0.008502593
74	0x3ccf792b	0.025326332
75	0xbc5ed444	-0.013600413
76	0xbcaa9ea1	-0.020827593
77	0x3ceb415f	0.028717695
78	0xbcc73c5a	-0.02432077
79	0xbcb2d91b	-0.02183204
80	0xbce95a8a	-0.028485555
81	0x3c4506bc	0.012025531
82	0x3c4e5bab	0.012595098
83	0x3cf97486	0.03045107
84	0xbc6b2284	-0.014351491
85	0xbcb06bfc	-0.021535866
86	0x3c375cce	0.01119156
87	0xbcea108b	-0.028572341
88	0xbbcbea08	-0.006222967
89	0xbc0d96da	-0.008641923
90	0xbc3b3806	-0.011426931
91	0xbcd442a1	-0.025910677
92	0xbc284223	-0.0102696745
93	0xba1c6302	-0.0005965681
94	0xbb011921	-0.0019698816
95	0xbcc220d6	-0.023697298
96	0x3cd1a744	0.025592454
97	0x3c575226	0.013142144
98	0xbbe83138	-0.0070859455
99	0x3c3b008f	0.011413707
100	0x3c015e4a	0.007896015
101	0x3cb7c184	0.022431143
102	0xbd006c36	-0.031353198
103	0x3b79abdf	0.0038096828
104	0xbc24d69d	-0.010060933
105	0x3c7c40a8	0.015396275
106	0xbce3b68d	-0.027797008
107	0xbd0f14ae	-0.03493183
108	0x3d28da5c	0.04122387
109	0x3b87d4f7	0.0041452604
110	0x3c93f680	0.018061876
111	0x3c9133ec	0.017724954
112	0xbd06e0e0	-0.0329293
113	0xbc14ea87	-0.009089119
114	0xbbf74722	-0.0075463215
115	0x3c2ed1a7	0.010670102
116	0x3bb50647	0.00552443
117	0xbc415d4a	-0.011802027
118	0x3b15c83a	0.002285494
119	0x3c4059e4	0.011740182
120	0xba8a2ff0	-0.0010542851
121	0xbcb3768c	-0.021907113
122	0x3bdf0430	0.006805919
123	0x3c7e3fde	0.015518157
124	0x3cf2f1fa	0.029656399
125	0xbcc357de	-0.02384561
126	0xbcb6fa63	-0.02233619
127	0x3c72ca88	0.014818795
128	0xbc170128	-0.009216584
129	0xbcf456df	-0.02982658
130	0xbc9876ef	-0.0186114
131	0x3c956ef6	0.018241387
132	0x3c28688b	0.010278831
133	0x3d0510c2	0.032486685
134	0xbc686d15	-0.014186163
135	0xbd033c57	-0.032039966
136	0x3c900b95	0.017583648
137	0xbc776e74	-0.015102018
138	0xbb35f6b4	-0.0027765455
139	0xbc8b09ca	-0.016972441
140	0xbc0acb24	-0.008471284
141	0xbcebcce1	-0.028784217
142	0xbcb0e3d4	-0.021593012
143	0x3caee3ab	0.021348795
144	0x3baff8b5	0.0053702244
145	0xbca050ed	-0.019569838
146	0x3cae2b52	0.021260891
147	0x3c81c40d	0.015840555
148	0xbbae0146	-0.0053102104
149	0x3c277dd4	0.010222871
150	0x3d4daf82	0.050216205
151	0x3da60e08	0.08108145
152	0xbdba8e8c	-0.0910922
153	0x3cca240d	0.024675393
154	0xbce79dd8	-0.028273508
155	0xbc1c99f5	-0.009558191
156	0xbdd3f905	-0.10350231
157	0xbdb446ca	-0.088025644
158	0x3dcf013a	0.10107656
159	0xbc57693e	-0.01314765
160	0x3d6e9c8d	0.058254767
161	0x3d5379f7	0.051629987
162	0xbd3ae294	-0.045626238
163	0xbb066475	-0.0020506654
164	0xbd347936	-0.04406091
165	0xbbb728ca	-0.005589579
166	0x3ade0fa1	0.0016941914
167	0xbc57d9ae	-0.0131744575
168	0xbaa35962	-0.0012462551
169	0x3c7f65e5	0.015588258
170	0x3b80599a	0.0039169313
171	0xbd9c8542	-0.076426044
172	0x3a721afb	0.0009235588
173	0x3d1f5d68	0.03890744
174	0x3dc51c76	0.09624569
175	0xbd9dead3	-0.07710805
176	0xbd857d5e	-0.065180525
177	0x3ddf19f6	0.108936235
178	0xbd3c8ebf	-0.04603457
179	0xbdc9e625	-0.0985835
180	0xbdaf9123	-0.085726045
181	0x3cae9983	0.021313434
182	0x3cf528f4	0.029926755
183	0x3df4e884	0.11958411
184	0xbd1e24f8	-0.038609475
185	0xbd93f569	-0.07224543
186	0x3d65a1a7	0.056062367
187	0xbdb29504	-0.08719829
188	0xbb9dccf7	-0.0048156935
189	0xbd4f63cf	-0.050632294
190	0xbcee1d70	-0.029066771
191	0xbdc8431b	-0.09778424
192	0xbb6d7719	-0.0036234318
193	0x3c6003a9	0.013672748
194	0xbb70e697	-0.0036758536
195	0xbdb46a08	-0.08809286
196	0x3e00391f	0.1252179
197	0x3d270ef6	0.040785752
198	0xb965c64c	-0.00021913013
199	0x3cd58001	0.026062014
200	0x3c6f2a4d	0.014597488
201	0x3ccdc9eb	0.025120696
202	0xbcb22417	-0.021745725
203	0x3c021a63	0.007940861
204	0xbc9c194e	-0.019055035
205	0x3c83d1a7	0.016091181
206	0xbd0390fd	-0.032120693
207	0xbcf10c17	-0.02942471
208	0x3d11f683	0.035635483
209	0x3c220358	0.0098884925
210	0x3cc6a5fe	0.024249073
211	0x3cb9a0cf	0.022659687
212	0xbd1104a2	-0.03540481
213	0xbc098d02	-0.008395435
214	0xbc6ccba6	-0.01445285
215	0x3becab2f	0.007222555
216	0x3b50ba8b	0.003184947
217	0xbc60501f	-0.013690977
218	0xbb04219d	-0.0020161637
219	0x3a758d92	0.0009367104
220	0xbb42320e	-0.0029631886
221	0xbcb69f55	-0.022292772
222	0x3bb6a02d	0.0055732937
223	0x3ca5c8d0	0.020237356
224	0x3cf1c648	0.029513493
225	0xbcce35c5	-0.025172124
226	0xbc8dab84	-0.0172937
227	0x3c9d0337	0.019166572
228	0xbc2a761b	-0.010404135
229	0xbcfdf435	-0.031000236
230	0xbcb9c73a	-0.022678006
231	0x3c9528f3	0.018208003
232	0x3c1d473f	0.009599506
233	0x3d1ca031	0.038238708
234	0xbc729e32	-0.0148082245
235	0xbcef7969	-0.029232698
236	0x3cb18faa	0.02167495
237	0xbcd9c58a	-0.026583452
238	0xbb672876	-0.003527192
239	0xbc5d2d47	-0.0134995645
240	0xbc125bc3	-0.0089330105
241	0xbcf19b33	-0.02949295
242	0xbcb7d6f9	-0.022441374
243	0x3ca7e87a	0.020496596
244	0xba454fb2	-0.0007526829
245	0xbcaec278	-0.021332964
246	0x3d55503c	0.05207847
247	0x3c999cdb	0.018751552
248	0x3ad2fe6c	0.0016097552
249	0x3c33ddd7	0.010978184
250	0x3d7aa604	0.06119348
251	0x3d8f1eae	0.069882736
252	0xbde516b5	-0.11185972
253	0x3d0341dd	0.032045234
254	0xbd724e71	-0.05915684
255	0x3a85bd9e	0.0010203605

lstm.bias_ih_l0 f4 [200]
0	0x3e06df30	0.13171077
1	0x3da3fe67	0.08007508
2	0x3d2582da	0.040407993
3	0x3e628c04	0.22123724
4	0x3d908a67	0.07057648
5	0x3dc9f4c9	0.09861142
6	0x3d8888f6	0.06666748
7	0x3d181b74	0.037135556
8	0x3e270c56	0.163133
9	0x3e061489	0.13093771
10	0x3c6cfb49	0.014464208
11	0x3d587a0d	0.05285077
12	0x3dc945bc	0.09827754
13	0x3d0129e0	0.031534076
14	0x3e0486fc	0.12942117
15	0x3dfeb6d9	0.12437219
16	0x3d4c4e1e	0.049879186
17	0x3d08cdf5	0.03339954
18	0x3d499992	0.04921872
19	0x3d3d3015	0.046188433
20	0x3cc5351a	0.024073172
21	0x3e2c59d2	0.16831139
22	0x3cada976	0.02119897
23	0x3bf57dac	0.007491788
24	0x3def0a75	0.116719164
25	0x3dbfaaac	0.09358725
26	0x3ddeb125	0.108736314
27	0x3e386fdc	0.18011421
28	0x3e25daca	0.16196743
29	0x3dd6ae53	0.104824685
30	0x3e0c1fe6	0.13684043
31	0x3d419784	0.047263637
32	0x3d816422	0.06317927
33	0x3da4bec4	0.08044198
34	0x3ccb3a1e	0.024807986
35	0x3d80f8f3	0.06297483
36	0x3d8fad38	0.07015461
37	0x3d37d394	0.04487951
38	0x3e2a62ad	0.16639204
39	0x3da60b52	0.08107628
40	0x3ddbdfed	0.1073607
41	0x3daf9e34	0.08575097
42	0x3dde24d9	0.10846872
43	0x3e1bdf10	0.1522181
44	0x3d3c76f9	0.0460119
45	0x3e1f4ca9	0.15556587
46	0x3dcf7204	0.10129169
47	0x3dc6711c	0.09689543
48	0x3e12e0aa	0.14343515
49	0x3dbaabb5	0.09114782
50	0x3c8490e1	0.016182365
51	0x3d667d9f	0.056272145
52	0x3da5b429	0.080910034
53	0xbc6c8d38	-0.014437966
54	0x3c65ac07	0.014018065
55	0x3d97e295	0.07416264
56	0x3e28cfac	0.1648547
57	0x3d2a3578	0.041554898
58	0x3da10978	0.07863134
59	0x3df7a3ff	0.12091827
60	0x3de565ba	0.112010434
61	0x3d86e0ed	0.0658587
62	0x3dc4f2bf	0.09616613
63	0xbb971bee	-0.004611484
64	0x3ca75b17	0.020429177
65	0xbcb7a8c9	-0.02241935
66	0x3c292753	0.010324317
67	0x3c884da6	0.016638588
68	0x3d4d1938	0.05007288
69	0x3daf9075	0.08572475
70	0x3b7abc90	0.0038259365
71	0x3d9e2c0b	0.07723244
72	0x3cdd8e1f	0.027045308
73	0x3cfc9e37	0.030837161
74	0x3d844838	0.06459087
75	0x3d96b6f1	0.07359112
76	0x3dd4e255	0.10394732
77	0x3da9ba4f	0.08287489
78	0x3cf4fdc5	0.029906163
79	0x3df6a144	0.12042478
80	0x3d4f3792	0.050590105
81	0x3c1224b1	0.008919881
82	0xbbf4dbcb	-0.0074724904
83	0x3dea4918	0.11439723
84	0x3d3e2e3b	0.046430808
85	0x3e01a46e	0.12660381
86	0x3d07d909	0.033165965
87	0x3d83ec8b	0.06441601
88	0x3ceb527e	0.028725859
89	0x3d5b4bfb	0.053539257
90	0x3d366325	0.044528145
91	0x3e013a73	0.12619953
92	0x3dc6daa9	0.09709675
93	0x3d4551ac	0.04817359
94	0x3d54d58f	0.051961478
95	0x3de64093	0.11242785
96	0x3de443b0	0.11145723
97	0x3d995e56	0.07488696
98	0x38a62ce9	7.923862e-05
99	0x3c00f016	0.007869741
100	0x3c57a733	0.013162422
101	0x3e40f03e	0.18841645
102	0xbe42ebd9	-0.19035281
103	0x3e2f9dd2	0.17150047
104	0xbd49f18f	-0.049302634
105	0x3b7d1916	0.0038619689
106	0xbdd6614a	-0.10467775
107	0xbe04fcef	-0.12987112
108	0x3e65bb18	0.22434652
109	0xba7a8e96	-0.000955799
110	0x3de0f351	0.10983909
111	0x3db0ffc4	0.086425334
112	0xbcdfb724	-0.027309008
113	0x3dd7ead3	0.10542836
114	0xbe49b812	-0.19699124
115	0x3cbb6e04	0.022879608
116	0x3d8139c1	0.06309844
117	0xbd06b4ec	-0.032887384
118	0x3d89f0de	0.06735395
119	0xbd22a10f	-0.03970438
120	0xbd185f1d	-0.037200082
121	0xbda3c50e	-0.079965696
122	0xbcdc100b	-0.026863119
123	0xbc990cb0	-0.018682808
124	0x3e618dcd	0.22026749
125	0xbe38c95c	-0.18045563
126	0xbe3691ee	-0.17829105
127	0x3e2d6cad	0.16935988
128	0xbe51c964	-0.2048698
129	0xbe389253	-0.18024568
130	0xbe28dcbf	-0.16490458
131	0x3da60c5f	0.08107828
132	0x3e2d9a46	0.16953382
133	0x3e68f8d4	0.2275117
134	0xbe2cc132	-0.16870573
135	0xbe2f186f	-0.17099164
136	0x3dd82511	0.10553945
137	0xbe56cdf3	-0.20977001
138	0xbe26aa07	-0.16275798
139	0xbe459c42	-0.19297889
140	0xbdd233bd	-0.102637745
141	0xbe791ff2	-0.24328592
142	0x3c8fb807	0.017543806
143	0x3dd53fcc	0.10412559
144	0xbd6e627f	-0.058199402
145	0xbe5fa957	-0.21841942
146	0x3e470623	0.19435935
147	0x3d7ebaf3	0.062190007
148	0xbd441cef	-0.047879156
149	0x3e38ee2b	0.18059604
150	0x3dc4f0cb	0.0961624
151	0x3e07061c	0.13185924
152	0x3e4932bb	0.19648258
153	0x3e9883b1	0.29787973
154	0x3d6b33d3	0.05742247
155	0x3dd77962	0.10521199
156	0x3dbe31f1	0.09286869
157	0x3dae29bf	0.08504056
158	0x3d659b75	0.05605646
159	0x3db2b163	0.0872524
160	0x3c9901aa	0.018677551
161	0x3ce90d70	0.02844879
162	0x3dcf2d9d	0.10116122
163	0x3cdaab96	0.026693147
164	0x3e0e7703	0.13912587
165	0x3e01e342	0.12684348
166	0xba85f592	-0.001022028
167	0x3dca8996	0.09889524
168	0x3d5a73a2	0.053332932
169	0x3d37d51c	0.04488097
170	0x3c91641b	0.01774793
171	0x3dc8b66b	0.098004185
172	0x3d117d0b	0.03551964
173	0x3c6568c1	0.014002026
174	0x3e1311b9	0.1436223
175	0x3d1000bf	0.03515696
176	0x3c8fbddd	0.017546589
177	0x3dcfc5f9	0.10145182
178	0x3e689eea	0.22716871
179	0x3df0f647	0.11765724
180	0x3d56e656	0.05246576
181	0x3d9ccc93	0.07656207
182	0x3d8080a9	0.0627454
183	0x3dab40e3	0.083619855
184	0x3ca3d275	0.019997815
185	0x3e05db09	0.13071837
186	0x3d684893	0.056709837
187	0x3cd766f9	0.026294218
188	0x3dbcfe96	0.09228246
189	0x3d87834f	0.06616842
190	0x3e38bfc5	0.18041904
191	0x3cf73911	0.030178579
192	0x3e02cab0	0.12772632
193	0x3e04c92c	0.12967366
194	0x3d91bb88	0.07115847
195	0x3e24fb97	0.16111599
196	0x3d841aff	0.064504616
197	0x3d9b7ca7	0.07592135
198	0x3e0b917a	0.13629714
199	0x3dc2d31a	0.09512921

lstm.bias_hh_l0 f4 [200]
0	0x3dc178f9	0.09446902
1	0x3e40a889	0.18814291
2	0x3ded9f75	0.1160268
3	0x3e980a2c	0.2969526
4	0x3b80a15c	0.0039254855
5	0x3e0b8a6b	0.13627021
6	0x3db52906	0.08845715
7	0x3cbec0c0	0.02328527
8	0x3d5db4cd	0.054127503
9	0x3da26ec9	0.07931287
10	0xbc7a2f3e	-0.0152700525
11	0x3d54c72c	0.051947758
12	0x3db7d19c	0.08975527
13	0x3d0e19e1	0.03469265
14	0x3df56b01	0.119833
15	0x3df7fdd1	0.121089585
16	0x3c4396e1	0.011937828
17	0x3c2e63c4	0.010643903
18	0x3d353b15	0.0442458
19	0x3d79b062	0.060959227
20	0x3cbe2e0e	0.02321532
21	0x3e1fa00e	0.155884
22	0x3caf36cc	0.021388434
23	0x3daef0ea	0.085420445
24	0x3d8898fa	0.06669803
25	0x3e03cfcc	0.12872237
26	0x3e103de2	0.14086106
27	0x3e10af04	0.14129263
28	0x3e43d982	0.19125941
29	0x3da98fd7	0.082793884
30	0x3dce6b57	0.10079067
31	0x3d43ef07	0.047835376
32	0x3deed08f	0.11660873
33	0x3e59a527	0.21254407
34	0x3d64c939	0.055855963
35	0x3d8add7d	0.06780527
36	0x3da23a12	0.07921232
37	0x3e142106	0.14465722
38	0x3dc4b34d	0.096045114
39	0x3dc57889	0.09642131
40	0x3e1f664d	0.15566368
41	0x3e0a6e24	0.13518578
42	0x3df60ab4	0.1201376
43	0x3e0af618	0.1357044
44	0x3d31a378	0.043368787
45	0x3e440db1	0.19145848
46	0x3e63b696	0.2223762
47	0x3d35e201	0.044404987
48	0x3e0e7e7b	0.13915436
49	0x3dcd0370	0.10010421
50	0x3cef42af	0.029206602
51	0x3c89de47	0.016829623
52	0x3d27a058	0.0409244
53	0xbd25c557	-0.0404714
54	0x3c26d6aa	0.010183016
55	0x3e14fffe	0.14550778
56	0x3e13b6f7	0.14425264
57	0x3d4f31bf	0.05058455
58	0x3dbcf36c	0.092261165
59	0x3d8ac0f1	0.06775082
60	0xbc4fff17	-0.0126950955
61	0x3d987b35	0.07445375
62	0x3dc474fb	0.09592625
63	0xba7330ea	-0.0009277003
64	0xbbffe1bd	-0.0078088925
65	0xbbbe2a10	-0.005803354
66	0xbb92fba1	-0.004485563
67	0x3d51fd7c	0.051267132
68	0x3d2f2686	0.04276135
69	0x3d8f839b	0.070075236
70	0x3b56532b	0.003270338
71	0x3b494e3e	0.0030716802
72	0x3bf2cfea	0.007410039
73	0x3d2e2e48	0.042524606
74	0x3d5b26f7	0.053503957
75	0x3db70bbe	0.089377865
76	0x3c6d82d0	0.01449652
77	0x3dabe3b5	0.08393041
78	0x3c84d15a	0.016213108
79	0x3cd45c8b	0.025923034
80	0x3c56c710	0.013108984
81	0xbac42c89	-0.0014966886
82	0x3d8a7126	0.067598626
83	0x3e347af4	0.17625028
84	0x3ba27321	0.004957572
85	0x3c175a5c	0.009237852
86	0x3db0c5e3	0.08631494
87	0x3d927aa8	0.07152301
88	0x3d108c74	0.035290197
89	0x3d642732	0.055701442
90	0x3d3c16e6	0.045920275
91	0x3ded4c62	0.115868345
92	0x3d72224c	0.05911474
93	0x3cf7981e	0.030223902
94	0x3ccff53c	0.025385492
95	0x3dba7ba6	0.09105615
96	0x3d841a96	0.06450383
97	0x3d54e3f4	0.051975206
98	0xba882189	-0.0010385971
99	0x3bea0377	0.0071415263
100	0x3e6fe9f8	0.23429096
101	0x3daa8a03	0.08327105
102	0x3d336d77	0.043805566
103	0x3e458bd3	0.1929162
104	0x3cc6e6d4	0.02427999
105	0xbd5b677c	-0.053565487
106	0xbe334d12	-0.17509869
107	0xbe622d9d	-0.22087713
108	0x3e2082db	0.15674917
109	0xbdfca825	-0.123367585
110	0x3e4e17b7	0.20126234
111	0x3dcdfc8f	0.10057937
112	0x3d15af4d	0.036544133
113	0xbdde5ae3	-0.10857179
114	0xbdbaedef	-0.091274135
115	0x3d0a9b8a	0.03383974
116	0xbd4d59c2	-0.050134428
117	0xbda7c54b	-0.081919275
118	0xbdcb80c6	-0.09936671
119	0x3d07aee1	0.033125762
120	0x3e1ef801	0.15524293
121	0xbe2c6a69	-0.16837467
122	0x3d867d1b	0.06566831
123	0x3e1a86d6	0.15090498
124	0x3e42b482	0.19014171
125	0xbd1e2f3d	-0.03861927
126	0xbe4d92ea	-0.20075575
127	0x3e2c99f3	0.16855602
128	0xbe4eb630	-0.20186687
129	0xbe270f70	-0.16314483
130	0xbe2dc7e0	-0.16970778
131	0x3d6d0148	0.05786255
132	0x3dd91e55	0.106014885
133	0x3e4a5cb1	0.19761921
134	0xbe3a6c32	-0.18205336
135	0xbe0ce1e6	-0.13758048
136	0x3c25373d	0.010083971
137	0xbe6cbc7e	-0.23118779
138	0xbd419825	-0.047264237
139	0xbc8bc2de	-0.017060693
140	0xbe005f9d	-0.12536474
141	0xbd003810	-0.031303465
142	0xbc60ec27	-0.013728178
143	0x3dd81cbd	0.105523564
144	0x3c53dd1d	0.0129311355
145	0xbd35fc5d	-0.044430126
146	0x3e7a0209	0.24414839
147	0x3dd4d35c	0.10391876
148	0xbe093872	-0.13400438
149	0x3e0b3ced	0.1359746
150	0x3cd9c4e5	0.026583144
151	0x3e149286	0.1450902
152	0x3e0e3b8a	0.138899
153	0x3e91e926	0.2849819
154	0x3d949825	0.07255582
155	0x3de117ad	0.10990844
156	0x3da5c436	0.08094065
157	0x3d9500b7	0.07275527
158	0x3d98ae78	0.07455152
159	0x3e18dec5	0.1492873
160	0x3e17b072	0.14813402
161	0x3c9046bd	0.017611856
162	0x3df43b2e	0.1192535
163	0x3d1f35bd	0.03886961
164	0x3e08d40f	0.13362144
165	0x3e0276df	0.12740658
166	0x3d1813fc	0.037128434
167	0x3dc4126a	0.09573825
168	0x3d16a3f0	0.036777437
169	0x3d163e7d	0.036680687
170	0x3c9f71cb	0.01946344
171	0x3dec1d6c	0.11529049
172	0x3cb45841	0.022014739
173	0x3ca4e1d1	0.020127209
174	0x3d2e9e1c	0.042631254
175	0x3db09126	0.08621435
176	0x3c24aeda	0.0100514535
177	0x3e0d401f	0.13793992
178	0x3e51d375	0.2049082
179	0x3d07e7be	0.03317999
180	0x3e538a78	0.2065829
181	0x3da9bb57	0.08287685
182	0x3e022a34	0.12711412
183	0x3e4ee998	0.20206296
184	0x3c4c5783	0.012472036
185	0x3dd98711	0.10621465
186	0x3d5c2862	0.05374945
187	0x3e18cbd5	0.14921506
188	0x3db303fd	0.08740995
189	0x3d13af5c	0.036055908
190	0x3d5879bb	0.052850466
191	0x3e238740	0.15969563
192	0x3db769a0	0.08955693
193	0x3e374231	0.17896344
194	0x3dbd85ca	0.09254034
195	0x3d489adf	0.04897582
196	0x3e6134b6	0.21992764
197	0x3d702d8b	0.058637183
198	0x3e19a431	0.1500404
199	0x3dbdafb5	0.09262029

lstm.weight_ih_l0_reverse f4 [200, 33]
0	0x3ca07bbd	0.019590253
1	0x3c9ffe50	0.019530445
2	0xbaef83da	-0.0018273548
3	0x3a1c3e5e	0.0005960221
4	0xbc6dc9ad	-0.014513415
5	0x3c6dadda	0.0145067815
6	0x3b30b8e4	0.0026965672
7	0x3cca9882	0.024730925
8	0xba853308	-0.0010162303
9	0x3d095f32	0.03353805
10	0x3d147e41	0.036253218
11	0x3c0d35bb	0.008618767
12	0x3c2a4287	0.010391838
13	0x3ab76109	0.0013990711
14	0x3c070df5	0.008243074
15	0x3c2cd2d6	0.010548314
16	0x3c80328a	0.015649099
17	0x3d2cae80	0.042158604
18	0x39bf23c6	0.00036457012
19	0x3c835c60	0.016035259
20	0xbc1420df	-0.00904104
21	0x3c15dfe0	0.009147614
22	0x3c2409f3	0.010012138
23	0xbc84a6c8	-0.016192809
24	0xbaf27308	-0.0018497417
25	0x3c533645	0.012891357
26	0xbb5d307c	-0.0033750823
27	0x3cb945f3	0.022616362
28	0x3da5c448	0.08094078
29	0x3d736261	0.059419993
30	0x3b7877d7	0.0037913227
31	0x3d011c49	0.031521115
32	0xb9b831b8	-0.00035132258
33	0x3bf283ef	0.0074009816
34	0x3c93f2fd	0.018060202
35	0xbc02e447	-0.007988996
36	0xbbd4d145	-0.0064946734
37	0xbb96cb1c	-0.0046018492
38	0x3b35b251	0.0027724693
39	0xbb9748f0	-0.004616849
40	0x3ba6f4a4	0.0050950814
41	0xbc45ddf8	-0.012076847
42	0x3a509258	0.0007956377
43	0x3c22bd0e	0.009932769
44	0x3c1bd355	0.009510835
45	0x3c8a72ad	0.016900385
46	0x3c654c96	0.01399531
47	0x3d5b297f	0.05350637
48	0x3b94c563	0.004540132
49	0x3bdfb72c	0.0068272557
50	0x3da83a88	0.08214289
51	0xbb2fec85	-0.0026843857
52	0xbbfa10c7	-0.0076313945
53	0x3c0fd485	0.008778696
54	0x3c3e00f2	0.011596905
55	0x3cf07c5d	0.029356176
56	0x3bab1284	0.005220713
57	0x3a3dc0c6	0.00072385033
58	0xba99cf78	-0.0011734804
59	0x3c3062de	0.010765759
60	0xbb405479	-0.0029347225
61	0x3cfc80e9	0.030823188
62	0xbc850d34	-0.016241647
63	0xbb124a77	-0.0022322217
64	0xbc83b7f7	-0.016078932
65	0xb8b650d5	-8.6934924e-05
66	0xbc3b0c8c	-0.011416566
67	0x3cab0dcf	0.020880608
68	0x3b990fcc	0.0046710726
69	0x3b437dbb	0.002982958
70	0x3b9781e0	0.0046236366
71	0x39370058	0.00017452368
72	0x3baf46aa	0.005349
73	0x3cb34eb9	0.021888124
74	0xbbd64dc3	-0.0065400316
75	0x3c74fe2a	0.014953176
76	0x3bbc221a	0.00574137
77	0x3b69acc3	0.0035655953
78	0x3cf5398a	0.029934663
79	0x3c246334	0.0100334175
80	0x3cf4389f	0.029812155
81	0x3b49ca39	0.00307907
82	0xbaa24206	-0.0012379296
83	0x3d8215b5	0.063517965
84	0xbbeaad82	-0.007161797
85	0xbbb2612a	-0.0054437118
86	0x398f6e37	0.00027357202
87	0x3c838612	0.01605514
88	0x3ca43293	0.020043647
89	0x3b57146b	0.0032818567
90	0x3b002027	0.0019550414
91	0x3c91a9fd	0.017781252
92	0x3c3cd3c5	0.011525099
93	0x3bdf5fb4	0.0068168286
94	0x3d8454f2	0.064615145
95	0xbcbd0c41	-0.023077132
96	0x3c099418	0.008397125
97	0x3b8ead70	0.0043541715
98	0x3965f2b8	0.00021929562
99	0x3c828179	0.015930878
100	0x3d064341	0.032778982
101	0x3d10c8d6	0.035347782
102	0x3ccb5002	0.024818424
103	0x3cba82db	0.022767475
104	0x3a037acc	0.00050155516
105	0x3c579dfd	0.013160226
106	0x3b2f2be0	0.0026729032
107	0x3c097207	0.008389003
108	0x3c05168c	0.008123051
109	0x3d0e05a8	0.034673363
110	0xbb9272ad	-0.004469237
111	0x3d476672	0.048681684
112	0x37942ac0	1.7662882e-05
113	0x3c337d65	0.010955189
114	0x3ad56492	0.0016280583
115	0xbbc0d278	-0.005884465
116	0x3d2ec223	0.042665612
117	0x3c43e3a0	0.0119561255
118	0x3ca56fee	0.020194974
119	0xbc7b044d	-0.01532085
120	0x3c373d47	0.011184043
121	0xbb1e196a	-0.0024124035
122	0x3b207f7e	0.0024490054
123	0x3c091ab2	0.008368181
124	0x3a28c66a	0.00064382574
125	0x3c6d5ae1	0.014486999
126	0x3cb7ac5a	0.02242105
127	0x3d9a06d8	0.075208366
128	0x3c178982	0.009249093
129	0xbb8c0b8c	-0.0042738374
130	0x3d850cef	0.064966075
131	0x382af5fb	4.0760246e-05
132	0xbbc1c992	-0.0059139216
133	0x3cd53e5f	0.026030717
134	0x3c78009f	0.015136867
135	0x3c9267be	0.017871734
136	0xbc01dfb4	-0.00792687
137	0x3b44667e	0.0029968317
138	0x3c179868	0.009252645
139	0xbbb291a9	-0.005449493
140	0xbc728e39	-0.014804416
141	0x3cab7723	0.020930832
142	0x3cd188c0	0.025577903
143	0x3ce14411	0.027498277
144	0x3d81055b	0.062998496
145	0xba65a444	-0.0008760134
146	0x3d478178	0.048707455
147	0xbb68cc91	-0.0035522322
148	0x3aa3c206	0.0012493737
149	0x3d11336c	0.03544943
150	0x3cd3a661	0.025836172
151	0x3bda18e5	0.0066557997
152	0x3bc38ad2	0.0059674764
153	0x3a99c867	0.0011732698
154	0x3d532514	0.051549032
155	0x3c3b436a	0.011429647
156	0x3c49154d	0.012273145
157	0xbcba7349	-0.02276005
158	0x3ce68c86	0.028143179
159	0xbc3cdb78	-0.011526935
160	0x3d97a000	0.074035645
161	0x3d25d6ba	0.040487982
162	0x3c66ed8e	0.014094723
163	0xbcdf1f14	-0.027236499
164	0x38fb95f5	0.00011996544
165	0x3b35b997	0.0027729028
166	0x3cbfc33e	0.023408528
167	0x3c26ec91	0.010188238
168	0xbbf08e1e	-0.0073411604
169	0x3b6b1f09	0.0035876653
170	0x3bd5e6c7	0.006527755
171	0x3c599a6b	0.013281445
172	0x3d04d65a	0.032430984
173	0x3c7d2784	0.015451316
174	0x3ca0395c	0.019558601
175	0xbafe91e5	-0.0019422142
176	0x3c6aea84	0.014338139
177	0x3bd63b72	0.006537848
178	0x3b901b0d	0.004397756
179	0x3bea4038	0.0071487688
180	0x3acd6e62	0.0015673155
181	0x3c8f9692	0.017527852
182	0x3d9d3c0d	0.076774694
183	0x3bf40d94	0.0074479077
184	0x3ccf4d16	0.025305312
185	0x3aad3c28	0.001321678
186	0x3c8b6afb	0.017018786
187	0x3c03e28c	0.008049618
188	0x3bb9fc0d	0.0056757987
189	0x3c0f8fc6	0.008762306
190	0x3b9b1512	0.0047327364
191	0x3be4c12d	0.006981036
192	0x3c335098	0.010944508
193	0x3d6a0e01	0.05714226
194	0x3b61c24a	0.003444808
195	0x3ba00ed0	0.0048845783
196	0x3ba49c49	0.0050235135
197	0xb839256c	-4.414229e-05
198	0xba39af92	-0.0007083352
199	0x3d062363	0.03274859
200	0x3c6761fc	0.014122482
201	0x3b87fb83	0.0041498556
202	0x3b966e42	0.0045907805
203	0x3c64ece1	0.013972492
204	0x3ccba708	0.02485992
205	0x3d0725c0	0.032994986
206	0x3d144505	0.036198635
207	0x3aff6706	0.001948566
208	0x3c7a2a15	0.015268822
209	0xbc276739	-0.010217481
210	0xbc3fe336	-0.011711886
211	0x3b99fc22	0.004699246
212	0x3bffecf8	0.0078102313
213	0x3bcdd4d2	0.0062814737
214	0xbbeb3385	-0.0071777725
215	0x3cebbd81	0.028776886
216	0x3bb0cf92	0.005395838
217	0x3c76a5a5	0.015054141
218	0x3994780c	0.00028318202
219	0x3bce913f	0.006303936
220	0x3b32c047	0.002727525
221	0xbc165a43	-0.0091767935
222	0xbb48a074	-0.0030613216
223	0x3d0434df	0.032276984
224	0x3c641722	0.013921531
225	0x3cc557cd	0.024089718
226	0x3c22cbf7	0.009936324
227	0xbaf22d07	-0.0018476554
228	0x3c862b77	0.016378148
229	0x3ce99326	0.028512549
230	0xb8ffa300	-0.00012189709
231	0x3c200534	0.0097668655
232	0xbc7c9d53	-0.015418368
233	0xbb92f7f0	-0.004485123
234	0x3cf04310	0.029328853
235	0x3cc26a30	0.023732275
236	0x3ae3776c	0.0017354316
237	0x3bc89f95	0.0061225393
238	0x3c8905c6	0.016726386
239	0x3cd6664b	0.026171824
240	0xb9c3e671	-0.0003736499
241	0x3c4e506d	0.012592417
242	0x3bc28475	0.0059362003
243	0x3a34e020	0.00068998523
244	0xb996cc88	-0.00028762617
245	0x3b021cdf	0.0019853634
246	0x3a9ae525	0.0011817558
247	0x39056b10	0.00012723752
248	0x3ad98ff2	0.0016598685
249	0xbaa363d8	-0.0012465669
250	0x3c787cee	0.015166504
251	0xbbde64fa	-0.0067869397
252	0x3c0a1ca5	0.008429681
253	0x3c6e41d5	0.014542063
254	0x3bfeea38	0.007779386
255	0x3c46bad6	0.012129506

lstm.weight_hh_l0_reverse f4 [200, 50]
0	0xbda56f85	-0.08077911
1	0xbe0fa59c	-0.14028019
2	0xbe026227	-0.12732755
3	0xbda82f1a	-0.08212109
4	0x3cb8c54e	0.02255502
5	0xbe02107b	-0.127016
6	0x3e2e612a	0.17029253
7	0xbdffdd84	-0.124934226
8	0x3d8c427c	0.068486184
9	0xbbb39975	-0.00548094
10	0xbc0073b6	-0.007840088
11	0x3d1e3d78	0.03863284
12	0x3dc69a91	0.0969745
13	0x3e1457ff	0.14486693
14	0x3df8291f	0.12117218
15	0x3c238aad	0.009981793
16	0xbe014cd8	-0.1262697
17	0xbd85c004	-0.06530765
18	0x3e357124	0.17718941
19	0x3e166b99	0.14689483
20	0x3c6b3be3	0.01435754
21	0x3e1abee1	0.15111877
22	0xbe2d1854	-0.16903812
23	0xbceb0da8	-0.028693035
24	0xbd1e7ce6	-0.03869333
25	0x3b3a6922	0.0028444012
26	0x3dc6c1a8	0.09704906
27	0x3ce59c21	0.02802855
28	0xbd08d287	-0.0334039
29	0xbd0189ee	-0.03162568
30	0xbe21337a	-0.15742293
31	0xbe1f30b7	-0.15545927
32	0x3e33ecb9	0.17570771
33	0xbcb5fb4e	-0.022214558
34	0xbe102fba	-0.14080706
35	0x3d071c6f	0.0329861
36	0x3d6feefb	0.05857752
37	0xbd29811a	-0.041382886
38	0x3c0ec5b4	0.008714128
39	0xba81dd70	-0.0009907912
40	0x3b8eb912	0.004355558
41	0x3c23d554	0.009999592
42	0xbd6b75e2	-0.05748547
43	0x3e2435f0	0.160362
44	0xbe40f5da	-0.18843785
45	0x3d48ccb1	0.049023334
46	0x3d6f7aff	0.058466908
47	0xbc3597be	-0.011083541
48	0x3b84dfd7	0.004055004
49	0x3d2c4333	0.042056274
50	0xbd8f6f6a	-0.070036724
51	0xbdb6f9c0	-0.08934355
52	0xbddd8291	-0.10815919
53	0xbcccb668	-0.024989322
54	0x3d3d4fa6	0.046218537
55	0xbd67d387	-0.056598213
56	0x3d6d4b57	0.057933178
57	0xbd6a515f	-0.057206508
58	0xbac5ba76	-0.0015085477
59	0xbd8efb02	-0.0698147
60	0x3cb9c84e	0.02267852
61	0x3d066400	0.03281021
62	0x3d4ca146	0.04995849
63	0x3d6d499b	0.057931524
64	0x3d6233f3	0.055225324
65	0x3ca78b49	0.020452159
66	0xbd6a9005	-0.057266254
67	0xbd26d0bd	-0.040726412
68	0x3dc57480	0.09641361
69	0x3d695692	0.056967326
70	0x3d2cb195	0.042161543
71	0x3da3e5d4	0.080028206
72	0xbdbf0ec2	-0.09328987
73	0xbd0b9846	-0.034080766
74	0xbcfa726a	-0.030572135
75	0xbd097a32	-0.0335638
76	0x3d7abd57	0.061215725
77	0xbc8e3ed4	-0.017363943
78	0xbd6313dd	-0.055438865
79	0xbd0c786d	-0.034294534
80	0xbdb2382f	-0.087021224
81	0xbdc2cf43	-0.09512188
82	0x3dc78ade	0.09743284
83	0xbd4ff73e	-0.050772898
84	0xbd9a3662	-0.07529904
85	0x3c209fbb	0.009803708
86	0x3d891462	0.06693341
87	0xbbb8af74	-0.00563615
88	0xbb836642	-0.004009993
89	0xbd6395ee	-0.055562906
90	0x3bd884f6	0.006607647
91	0x3d0cd6aa	0.034384407
92	0xbd332994	-0.043740824
93	0x3daf951e	0.08573364
94	0xbdcf5133	-0.101229094
95	0xbb348c71	-0.002754953
96	0x3b3dbd68	0.0028952006
97	0xbd00951e	-0.03139221
98	0x3bff4da8	0.00779124
99	0x3d4c72c5	0.04991414
100	0xbd11e3c4	-0.035617605
101	0xbd764c04	-0.060131088
102	0xbd61da95	-0.055140097
103	0xbd3ae9da	-0.045633174
104	0x3d050aa9	0.03248087
105	0x3c503437	0.0127077615
106	0x3d85cc17	0.06533068
107	0xbbaafd0f	-0.005218155
108	0x3ce9915d	0.028511697
109	0xbb5f8e89	-0.0034112057
110	0xbd97b6f4	-0.074079424
111	0x3d111377	0.035418954
112	0x3d6a1be0	0.05715549
113	0x3d188a32	0.03724117
114	0x3d31ab0e	0.04337602
115	0x3bb62acf	0.0055593024
116	0xbd6a4941	-0.057198767
117	0xbcaeba20	-0.021328986
118	0x3dd3dd8e	0.103449926
119	0x3d968183	0.07348921
120	0xbc70b057	-0.01469048
121	0x3d87d84c	0.06633052
122	0xbd932825	-0.07185391
123	0xbcd60dd9	-0.02612965
124	0xbd29ae17	-0.04142579
125	0xbca54fec	-0.020179711
126	0x3d3f4262	0.046694167
127	0xbb4dedc1	-0.003142223
128	0xbc5d24c3	-0.013497534
129	0x3ca3b2b0	0.019982666
130	0xbd99149c	-0.07474634
131	0xbda92472	-0.082589045
132	0x3d832a29	0.06404526
133	0xbb1f6d1c	-0.002432651
134	0xbd5280cf	-0.051392373
135	0xbc013087	-0.007885105
136	0x3d8ad80e	0.067794904
137	0xbc859426	-0.016305994
138	0xbd16d720	-0.036826253
139	0x3d589a32	0.052881427
140	0xbcdec2e5	-0.027192542
141	0xbd02165d	-0.03175961
142	0xbcce7942	-0.025204305
143	0x3da2e4b8	0.07953781
144	0xbd79a6bf	-0.060950037
145	0x3cda38f1	0.02663848
146	0x3d1b6667	0.037939455
147	0xbc9b9439	-0.018991577
148	0x3c6f0640	0.014588892
149	0x3ca54f88	0.020179525
150	0xbdb37905	-0.08763317
151	0xbe321a82	-0.17392924
152	0xbe48da3b	-0.19614498
153	0xbcaffdf6	-0.021483403
154	0x3cd4709e	0.025932606
155	0xbde34b8a	-0.11098392
156	0x3e17a3cf	0.14808582
157	0xbdbc6a6c	-0.09199986
158	0x3da2c9a3	0.079486154
159	0x3af3882e	0.0018580013
160	0xbcdf44c2	-0.027254466
161	0x3db4277a	0.08796592
162	0x3d346408	0.04404071
163	0x3e1a0909	0.15042509
164	0x3e0f5558	0.139974
165	0xb9c38de5	-0.00037299018
166	0xbe015849	-0.12631334
167	0xbd47acc6	-0.048748754
168	0x3e5a044b	0.212907
169	0x3e121a2e	0.142678
170	0xbc5ee00e	-0.0136032235
171	0x3e3b9023	0.18316703
172	0xbe3d943d	-0.1851358
173	0xbd674f33	-0.056472015
174	0xbd4b0c20	-0.04957211
175	0x3cf7d12b	0.030251106
176	0x3de7c0a5	0.11316041
177	0xbbbe05f1	-0.005799048
178	0xbcbc8c71	-0.023016186
179	0xbaa6b644	-0.0012719114
180	0xbe389648	-0.18026078
181	0xbe3c606d	-0.18396159
182	0x3e5d3fcf	0.21606372
183	0xbcbb26bd	-0.02284562
184	0xbd9c5346	-0.07633071
185	0x3d6b349d	0.057423223
186	0x3d85639a	0.06513138
187	0xbc12b432	-0.008954095
188	0x3b832baf	0.00400301
189	0x3b7b553d	0.0038350367
190	0xbccd785b	-0.025081804
191	0xbd8a3708	-0.06748778
192	0xbd9a735c	-0.07541534
193	0x3e367177	0.17816721
194	0xbe677f8f	-0.22607253
195	0xbb147132	-0.0022650477
196	0x3d6e7055	0.058212597
197	0xbd28a53e	-0.041173212
198	0x3c8d535a	0.01725166
199	0x3c426328	0.011864461
200	0xbe0371df	-0.12836407
201	0xbe2236d3	-0.15841226
202	0xbe3805f9	-0.17971028
203	0xbd89c2c4	-0.06726602
204	0x3c1b364a	0.009473393
205	0xbde40938	-0.11134571
206	0x3e2098d0	0.15683293
207	0xbdd0d4f6	-0.10196869
208	0x3d855dee	0.06512056
209	0x3cb86ec7	0.02251376
210	0xbbe6a6ac	-0.007038912
211	0x3d9a987c	0.07548615
212	0x3d94f516	0.07273309
213	0x3ddbeb89	0.10738284
214	0x3e13f3e4	0.14448506
215	0x3c9e0543	0.019289618
216	0xbddb9fa8	-0.107238114
217	0x3c04d8c7	0.008108324
218	0x3e463d92	0.19359425
219	0x3dce9f9d	0.100890376
220	0x3b10f68a	0.0022119605
221	0x3e2d9b9e	0.16953894
222	0xbe57d6ce	-0.21078035
223	0xbd60fd4e	-0.05492907
224	0xbcab90a0	-0.020942986
225	0xbcd313f9	-0.02576636
226	0x3d9499ea	0.07255919
227	0xbcff9f87	-0.031203998
228	0xbd389183	-0.045060646
229	0xbd2a0997	-0.04151305
230	0xbe3e4131	-0.18579556
231	0xbe2d6b87	-0.1693555
232	0x3e4509ff	0.19242094
233	0xbcd5043f	-0.026003001
234	0xbd8ab6a4	-0.06773117
235	0xbba83457	-0.0051331925
236	0x3dc20c76	0.09475033
237	0xbc9c58c0	-0.019085288
238	0xbc9af5ce	-0.018916037
239	0x3ab3573a	0.0013682612
240	0xbbea3dcc	-0.00714848
241	0x3c0f8952	0.008760767
242	0xbd8a839d	-0.067633845
243	0x3e2a8144	0.16650873
244	0xbe54e848	-0.20791733
245	0xbb173b56	-0.0023076138
246	0x3d07f310	0.033190787
247	0xbb8beadf	-0.004269942
248	0xbd07a7bd	-0.033118952
249	0xbbed77f3	-0.007246965
250	0xbdcdfe9e	-0.1005833
251	0xbe2f18ab	-0.17099254
252	0xbe6bc86d	-0.23025675
253	0xbcd35ffe	-0.025802609
254	0x3d187c78	0.037228078
255	0xbd635d27	-0.05550876
