Python scripts/saved_models/M1.xes.model.pt (torch, 639346 bytes, 16 tensors)

batchnorm.weight f4 [200]
00000000: 0000 803f 0000 803f 0000 803f 0000 803f
00000010: 0000 803f 0000 803f 0000 803f 0000 803f
00000020: 0000 803f 0000 803f 0000 803f 0000 803f
00000030: 0000 803f 0000 803f 0000 803f 0000 803f
00000040: 0000 803f 0000 803f 0000 803f 0000 803f
00000050: 0000 803f 0000 803f 0000 803f 0000 803f
00000060: 0000 803f 0000 803f 0000 803f 0000 803f
00000070: 0000 803f 0000 803f 0000 803f 0000 803f
00000080: 0000 803f 0000 803f 0000 803f 0000 803f
00000090: 0000 803f 0000 803f 0000 803f 0000 803f
000000a0: 0000 803f 0000 803f 0000 803f 0000 803f
000000b0: 0000 803f 0000 803f 0000 803f 0000 803f
000000c0: 0000 803f 0000 803f 0000 803f 0000 803f
000000d0: 0000 803f 0000 803f 0000 803f 0000 803f
000000e0: 0000 803f 0000 803f 0000 803f 0000 803f
000000f0: 0000 803f 0000 803f 0000 803f 0000 803f
00000100: 0000 803f 0000 803f 0000 803f 0000 803f
00000110: 0000 803f 0000 803f 0000 803f 0000 803f
00000120: 0000 803f 0000 803f 0000 803f 0000 803f
00000130: 0000 803f 0000 803f 0000 803f 0000 803f
00000140: 0000 803f 0000 803f 0000 803f 0000 803f
00000150: 0000 803f 0000 803f 0000 803f 0000 803f
00000160: 0000 803f 0000 803f 0000 803f 0000 803f
00000170: 0000 803f 0000 803f 0000 803f 0000 803f
00000180: 0000 803f 0000 803f 0000 803f 0000 803f
00000190: 0000 803f 0000 803f 0000 803f 0000 803f
000001a0: 0000 803f 0000 803f 0000 803f 0000 803f
000001b0: 0000 803f 0000 803f 0000 803f 0000 803f
000001c0: 0000 803f 0000 803f 0000 803f 0000 803f
000001d0: 0000 803f 0000 803f 0000 803f 0000 803f
000001e0: 0000 803f 0000 803f 0000 803f 0000 803f
000001f0: 0000 803f 0000 803f 0000 803f 0000 803f
00000200: 0000 803f 0000 803f 0000 803f 0000 803f
00000210: 0000 803f 0000 803f 0000 803f 0000 803f
00000220: 0000 803f 0000 803f 0000 803f 0000 803f
00000230: 0000 803f 0000 803f 0000 803f 0000 803f
00000240: 0000 803f 0000 803f 0000 803f 0000 803f
00000250: 0000 803f 0000 803f 0000 803f 0000 803f
00000260: 0000 803f 0000 803f 0000 803f 0000 803f
00000270: 0000 803f 0000 803f 0000 803f 0000 803f
00000280: 0000 803f 0000 803f 0000 803f 0000 803f
00000290: 0000 803f 0000 803f 0000 803f 0000 803f
000002a0: 0000 803f 0000 803f 0000 803f 0000 803f
000002b0: 0000 803f 0000 803f 0000 803f 0000 803f
000002c0: 0000 803f 0000 803f 0000 803f 0000 803f
000002d0: 0000 803f 0000 803f 0000 803f 0000 803f
000002e0: 0000 803f 0000 803f 0000 803f 0000 803f
000002f0: 0000 803f 0000 803f 0000 803f 0000 803f
00000300: 0000 803f 0000 803f 0000 803f 0000 803f
00000310: 0000 803f 0000 803f 0000 803f 0000 803f
1.0 1.0 1.0 1.0 1.0 1.0 1.0 1.0
1.0 1.0 1.0 1.0 1.0 1.0 1.0 1.0
1.0 1.0 1.0 1.0 1.0 1.0 1.0 1.0
1.0 1.0 1.0 1.0 1.0 1.0 1.0 1.0
1.0 1.0 1.0 1.0 1.0 1.0 1.0 1.0
1.0 1.0 1.0 1.0 1.0 1.0 1.0 1.0
1.0 1.0 1.0 1.0 1.0 1.0 1.0 1.0
1.0 1.0 1.0 1.0 1.0 1.0 1.0 1.0
1.0 1.0 1.0 1.0 1.0 1.0 1.0 1.0
1.0 1.0 1.0 1.0 1.0 1.0 1.0 1.0
1.0 1.0 1.0 1.0 1.0 1.0 1.0 1.0
1.0 1.0 1.0 1.0 1.0 1.0 1.0 1.0
1.0 1.0 1.0 1.0 1.0 1.0 1.0 1.0
1.0 1.0 1.0 1.0 1.0 1.0 1.0 1.0
1.0 1.0 1.0 1.0 1.0 1.0 1.0 1.0
1.0 1.0 1.0 1.0 1.0 1.0 1.0 1.0
1.0 1.0 1.0 1.0 1.0 1.0 1.0 1.0
1.0 1.0 1.0 1.0 1.0 1.0 1.0 1.0
1.0 1.0 1.0 1.0 1.0 1.0 1.0 1.0
1.0 1.0 1.0 1.0 1.0 1.0 1.0 1.0
1.0 1.0 1.0 1.0 1.0 1.0 1.0 1.0
1.0 1.0 1.0 1.0 1.0 1.0 1.0 1.0
1.0 1.0 1.0 1.0 1.0 1.0 1.0 1.0
1.0 1.0 1.0 1.0 1.0 1.0 1.0 1.0
1.0 1.0 1.0 1.0 1.0 1.0 1.0 1.0

batchnorm.bias f4 [200]
00000000: 0000 0000 0000 0000 0000 0000 0000 0000
00000010: 0000 0000 0000 0000 0000 0000 0000 0000
00000020: 0000 0000 0000 0000 0000 0000 0000 0000
00000030: 0000 0000 0000 0000 0000 0000 0000 0000
00000040: 0000 0000 0000 0000 0000 0000 0000 0000
00000050: 0000 0000 0000 0000 0000 0000 0000 0000
00000060: 0000 0000 0000 0000 0000 0000 0000 0000
00000070: 0000 0000 0000 0000 0000 0000 0000 0000
00000080: 0000 0000 0000 0000 0000 0000 0000 0000
00000090: 0000 0000 0000 0000 0000 0000 0000 0000
000000a0: 0000 0000 0000 0000 0000 0000 0000 0000
000000b0: 0000 0000 0000 0000 0000 0000 0000 0000
000000c0: 0000 0000 0000 0000 0000 0000 0000 0000
000000d0: 0000 0000 0000 0000 0000 0000 0000 0000
000000e0: 0000 0000 0000 0000 0000 0000 0000 0000
000000f0: 0000 0000 0000 0000 0000 0000 0000 0000
00000100: 0000 0000 0000 0000 0000 0000 0000 0000
00000110: 0000 0000 0000 0000 0000 0000 0000 0000
00000120: 0000 0000 0000 0000 0000 0000 0000 0000
00000130: 0000 0000 0000 0000 0000 0000 0000 0000
00000140: 0000 0000 0000 0000 0000 0000 0000 0000
00000150: 0000 0000 0000 0000 0000 0000 0000 0000
00000160: 0000 0000 0000 0000 0000 0000 0000 0000
00000170: 0000 0000 0000 0000 0000 0000 0000 0000
00000180: 0000 0000 0000 0000 0000 0000 0000 0000
00000190: 0000 0000 0000 0000 0000 0000 0000 0000
000001a0: 0000 0000 0000 0000 0000 0000 0000 0000
000001b0: 0000 0000 0000 0000 0000 0000 0000 0000
000001c0: 0000 0000 0000 0000 0000 0000 0000 0000
000001d0: 0000 0000 0000 0000 0000 0000 0000 0000
000001e0: 0000 0000 0000 0000 0000 0000 0000 0000
000001f0: 0000 0000 0000 0000 0000 0000 0000 0000
00000200: 0000 0000 0000 0000 0000 0000 0000 0000
00000210: 0000 0000 0000 0000 0000 0000 0000 0000
00000220: 0000 0000 0000 0000 0000 0000 0000 0000
00000230: 0000 0000 0000 0000 0000 0000 0000 0000
00000240: 0000 0000 0000 0000 0000 0000 0000 0000
00000250: 0000 0000 0000 0000 0000 0000 0000 0000
00000260: 0000 0000 0000 0000 0000 0000 0000 0000
00000270: 0000 0000 0000 0000 0000 0000 0000 0000
00000280: 0000 0000 0000 0000 0000 0000 0000 0000
00000290: 0000 0000 0000 0000 0000 0000 0000 0000
000002a0: 0000 0000 0000 0000 0000 0000 0000 0000
000002b0: 0000 0000 0000 0000 0000 0000 0000 0000
000002c0: 0000 0000 0000 0000 0000 0000 0000 0000
000002d0: 0000 0000 0000 0000 0000 0000 0000 0000
000002e0: 0000 0000 0000 0000 0000 0000 0000 0000
000002f0: 0000 0000 0000 0000 0000 0000 0000 0000
00000300: 0000 0000 0000 0000 0000 0000 0000 0000
00000310: 0000 0000 0000 0000 0000 0000 0000 0000
0.0 0.0 0.0 0.0 0.0 0.0 0.0 0.0
0.0 0.0 0.0 0.0 0.0 0.0 0.0 0.0
0.0 0.0 0.0 0.0 0.0 0.0 0.0 0.0
0.0 0.0 0.0 0.0 0.0 0.0 0.0 0.0
0.0 0.0 0.0 0.0 0.0 0.0 0.0 0.0
0.0 0.0 0.0 0.0 0.0 0.0 0.0 0.0
0.0 0.0 0.0 0.0 0.0 0.0 0.0 0.0
0.0 0.0 0.0 0.0 0.0 0.0 0.0 0.0
0.0 0.0 0.0 0.0 0.0 0.0 0.0 0.0
0.0 0.0 0.0 0.0 0.0 0.0 0.0 0.0
0.0 0.0 0.0 0.0 0.0 0.0 0.0 0.0
0.0 0.0 0.0 0.0 0.0 0.0 0.0 0.0
0.0 0.0 0.0 0.0 0.0 0.0 0.0 0.0
0.0 0.0 0.0 0.0 0.0 0.0 0.0 0.0
0.0 0.0 0.0 0.0 0.0 0.0 0.0 0.0
0.0 0.0 0.0 0.0 0.0 0.0 0.0 0.0
0.0 0.0 0.0 0.0 0.0 0.0 0.0 0.0
0.0 0.0 0.0 0.0 0.0 0.0 0.0 0.0
0.0 0.0 0.0 0.0 0.0 0.0 0.0 0.0
0.0 0.0 0.0 0.0 0.0 0.0 0.0 0.0
0.0 0.0 0.0 0.0 0.0 0.0 0.0 0.0
0.0 0.0 0.0 0.0 0.0 0.0 0.0 0.0
0.0 0.0 0.0 0.0 0.0 0.0 0.0 0.0
0.0 0.0 0.0 0.0 0.0 0.0 0.0 0.0
0.0 0.0 0.0 0.0 0.0 0.0 0.0 0.0

batchnorm.running_mean f4 [200]
00000000: 0000 0000 0000 0000 0000 0000 0000 0000
00000010: 0000 0000 0000 0000 0000 0000 0000 0000
00000020: 0000 0000 0000 0000 0000 0000 0000 0000
00000030: 0000 0000 0000 0000 0000 0000 0000 0000
00000040: 0000 0000 0000 0000 0000 0000 0000 0000
00000050: 0000 0000 0000 0000 0000 0000 0000 0000
00000060: 0000 0000 0000 0000 0000 0000 0000 0000
00000070: 0000 0000 0000 0000 0000 0000 0000 0000
00000080: 0000 0000 0000 0000 0000 0000 0000 0000
00000090: 0000 0000 0000 0000 0000 0000 0000 0000
000000a0: 0000 0000 0000 0000 0000 0000 0000 0000
000000b0: 0000 0000 0000 0000 0000 0000 0000 0000
000000c0: 0000 0000 0000 0000 0000 0000 0000 0000
000000d0: 0000 0000 0000 0000 0000 0000 0000 0000
000000e0: 0000 0000 0000 0000 0000 0000 0000 0000
000000f0: 0000 0000 0000 0000 0000 0000 0000 0000
00000100: 0000 0000 0000 0000 0000 0000 0000 0000
00000110: 0000 0000 0000 0000 0000 0000 0000 0000
00000120: 0000 0000 0000 0000 0000 0000 0000 0000
00000130: 0000 0000 0000 0000 0000 0000 0000 0000
00000140: 0000 0000 0000 0000 0000 0000 0000 0000
00000150: 0000 0000 0000 0000 0000 0000 0000 0000
00000160: 0000 0000 0000 0000 0000 0000 0000 0000
00000170: 0000 0000 0000 0000 0000 0000 0000 0000
00000180: 0000 0000 0000 0000 0000 0000 0000 0000
00000190: 0000 0000 0000 0000 0000 0000 0000 0000
000001a0: 0000 0000 0000 0000 0000 0000 0000 0000
000001b0: 0000 0000 0000 0000 0000 0000 0000 0000
000001c0: 0000 0000 0000 0000 0000 0000 0000 0000
000001d0: 0000 0000 0000 0000 0000 0000 0000 0000
000001e0: 0000 0000 0000 0000 0000 0000 0000 0000
000001f0: 0000 0000 0000 0000 0000 0000 0000 0000
00000200: 0000 0000 0000 0000 0000 0000 0000 0000
00000210: 0000 0000 0000 0000 0000 0000 0000 0000
00000220: 0000 0000 0000 0000 0000 0000 0000 0000
00000230: 0000 0000 0000 0000 0000 0000 0000 0000
00000240: 0000 0000 0000 0000 0000 0000 0000 0000
00000250: 0000 0000 0000 0000 0000 0000 0000 0000
00000260: 0000 0000 0000 0000 0000 0000 0000 0000
00000270: 0000 0000 0000 0000 0000 0000 0000 0000
00000280: 0000 0000 0000 0000 0000 0000 0000 0000
00000290: 0000 0000 0000 0000 0000 0000 0000 0000
000002a0: 0000 0000 0000 0000 0000 0000 0000 0000
000002b0: 0000 0000 0000 0000 0000 0000 0000 0000
000002c0: 0000 0000 0000 0000 0000 0000 0000 0000
000002d0: 0000 0000 0000 0000 0000 0000 0000 0000
000002e0: 0000 0000 0000 0000 0000 0000 0000 0000
000002f0: 0000 0000 0000 0000 0000 0000 0000 0000
00000300: 0000 0000 0000 0000 0000 0000 0000 0000
00000310: 0000 0000 0000 0000 0000 0000 0000 0000
0.0 0.0 0.0 0.0 0.0 0.0 0.0 0.0
0.0 0.0 0.0 0.0 0.0 0.0 0.0 0.0
0.0 0.0 0.0 0.0 0.0 0.0 0.0 0.0
0.0 0.0 0.0 0.0 0.0 0.0 0.0 0.0
0.0 0.0 0.0 0.0 0.0 0.0 0.0 0.0
0.0 0.0 0.0 0.0 0.0 0.0 0.0 0.0
0.0 0.0 0.0 0.0 0.0 0.0 0.0 0.0
0.0 0.0 0.0 0.0 0.0 0.0 0.0 0.0
0.0 0.0 0.0 0.0 0.0 0.0 0.0 0.0
0.0 0.0 0.0 0.0 0.0 0.0 0.0 0.0
0.0 0.0 0.0 0.0 0.0 0.0 0.0 0.0
0.0 0.0 0.0 0.0 0.0 0.0 0.0 0.0
0.0 0.0 0.0 0.0 0.0 0.0 0.0 0.0
0.0 0.0 0.0 0.0 0.0 0.0 0.0 0.0
0.0 0.0 0.0 0.0 0.0 0.0 0.0 0.0
0.0 0.0 0.0 0.0 0.0 0.0 0.0 0.0
0.0 0.0 0.0 0.0 0.0 0.0 0.0 0.0
0.0 0.0 0.0 0.0 0.0 0.0 0.0 0.0
0.0 0.0 0.0 0.0 0.0 0.0 0.0 0.0
0.0 0.0 0.0 0.0 0.0 0.0 0.0 0.0
0.0 0.0 0.0 0.0 0.0 0.0 0.0 0.0
0.0 0.0 0.0 0.0 0.0 0.0 0.0 0.0
0.0 0.0 0.0 0.0 0.0 0.0 0.0 0.0
0.0 0.0 0.0 0.0 0.0 0.0 0.0 0.0
0.0 0.0 0.0 0.0 0.0 0.0 0.0 0.0

batchnorm.running_var f4 [200]
00000000: 0000 803f 0000 803f 0000 803f 0000 803f
00000010: 0000 803f 0000 803f 0000 803f 0000 803f
00000020: 0000 803f 0000 803f 0000 803f 0000 803f
00000030: 0000 803f 0000 803f 0000 803f 0000 803f
00000040: 0000 803f 0000 803f 0000 803f 0000 803f
00000050: 0000 803f 0000 803f 0000 803f 0000 803f
00000060: 0000 803f 0000 803f 0000 803f 0000 803f
00000070: 0000 803f 0000 803f 0000 803f 0000 803f
00000080: 0000 803f 0000 803f 0000 803f 0000 803f
00000090: 0000 803f 0000 803f 0000 803f 0000 803f
000000a0: 0000 803f 0000 803f 0000 803f 0000 803f
000000b0: 0000 803f 0000 803f 0000 803f 0000 803f
000000c0: 0000 803f 0000 803f 0000 803f 0000 803f
000000d0: 0000 803f 0000 803f 0000 803f 0000 803f
000000e0: 0000 803f 0000 803f 0000 803f 0000 803f
000000f0: 0000 803f 0000 803f 0000 803f 0000 803f
00000100: 0000 803f 0000 803f 0000 803f 0000 803f
00000110: 0000 803f 0000 803f 0000 803f 0000 803f
00000120: 0000 803f 0000 803f 0000 803f 0000 803f
00000130: 0000 803f 0000 803f 0000 803f 0000 803f
00000140: 0000 803f 0000 803f 0000 803f 0000 803f
00000150: 0000 803f 0000 803f 0000 803f 0000 803f
00000160: 0000 803f 0000 803f 0000 803f 0000 803f
00000170: 0000 803f 0000 803f 0000 803f 0000 803f
00000180: 0000 803f 0000 803f 0000 803f 0000 803f
00000190: 0000 803f 0000 803f 0000 803f 0000 803f
000001a0: 0000 803f 0000 803f 0000 803f 0000 803f
000001b0: 0000 803f 0000 803f 0000 803f 0000 803f
000001c0: 0000 803f 0000 803f 0000 803f 0000 803f
000001d0: 0000 803f 0000 803f 0000 803f 0000 803f
000001e0: 0000 803f 0000 803f 0000 803f 0000 803f
000001f0: 0000 803f 0000 803f 0000 803f 0000 803f
00000200: 0000 803f 0000 803f 0000 803f 0000 803f
00000210: 0000 803f 0000 803f 0000 803f 0000 803f
00000220: 0000 803f 0000 803f 0000 803f 0000 803f
00000230: 0000 803f 0000 803f 0000 803f 0000 803f
00000240: 0000 803f 0000 803f 0000 803f 0000 803f
00000250: 0000 803f 0000 803f 0000 803f 0000 803f
00000260: 0000 803f 0000 803f 0000 803f 0000 803f
00000270: 0000 803f 0000 803f 0000 803f 0000 803f
00000280: 0000 803f 0000 803f 0000 803f 0000 803f
00000290: 0000 803f 0000 803f 0000 803f 0000 803f
000002a0: 0000 803f 0000 803f 0000 803f 0000 803f
000002b0: 0000 803f 0000 803f 0000 803f 0000 803f
000002c0: 0000 803f 0000 803f 0000 803f 0000 803f
000002d0: 0000 803f 0000 803f 0000 803f 0000 803f
000002e0: 0000 803f 0000 803f 0000 803f 0000 803f
000002f0: 0000 803f 0000 803f 0000 803f 0000 803f
00000300: 0000 803f 0000 803f 0000 803f 0000 803f
00000310: 0000 803f 0000 803f 0000 803f 0000 803f
1.0 1.0 1.0 1.0 1.0 1.0 1.0 1.0
1.0 1.0 1.0 1.0 1.0 1.0 1.0 1.0
1.0 1.0 1.0 1.0 1.0 1.0 1.0 1.0
1.0 1.0 1.0 1.0 1.0 1.0 1.0 1.0
1.0 1.0 1.0 1.0 1.0 1.0 1.0 1.0
1.0 1.0 1.0 1.0 1.0 1.0 1.0 1.0
1.0 1.0 1.0 1.0 1.0 1.0 1.0 1.0
1.0 1.0 1.0 1.0 1.0 1.0 1.0 1.0
1.0 1.0 1.0 1.0 1.0 1.0 1.0 1.0
1.0 1.0 1.0 1.0 1.0 1.0 1.0 1.0
1.0 1.0 1.0 1.0 1.0 1.0 1.0 1.0
1.0 1.0 1.0 1.0 1.0 1.0 1.0 1.0
1.0 1.0 1.0 1.0 1.0 1.0 1.0 1.0
1.0 1.0 1.0 1.0 1.0 1.0 1.0 1.0
1.0 1.0 1.0 1.0 1.0 1.0 1.0 1.0
1.0 1.0 1.0 1.0 1.0 1.0 1.0 1.0
1.0 1.0 1.0 1.0 1.0 1.0 1.0 1.0
1.0 1.0 1.0 1.0 1.0 1.0 1.0 1.0
1.0 1.0 1.0 1.0 1.0 1.0 1.0 1.0
1.0 1.0 1.0 1.0 1.0 1.0 1.0 1.0
1.0 1.0 1.0 1.0 1.0 1.0 1.0 1.0
1.0 1.0 1.0 1.0 1.0 1.0 1.0 1.0
1.0 1.0 1.0 1.0 1.0 1.0 1.0 1.0
1.0 1.0 1.0 1.0 1.0 1.0 1.0 1.0
1.0 1.0 1.0 1.0 1.0 1.0 1.0 1.0

lstm.weight_ih_l0 f4 [400, 36]
00000000: 3c71 a634 5484 e633 42da 89b3 93a5 8eb4
00000010: d65c 81b2 6bbe 6ab4 9c50 9d33 0075 ef31
00000020: 9073 67b3 3264 0435 3838 3a34 e86a 44b4
00000030: ea7a 83b4 9d7f 2eb4 d02c b933 3536 4cb4
00000040: fef4 db34 321f c6b5 dce6 74b5 d8d5 1234
00000050: 4093 6334 d239 0333 7788 2034 380e 94b4
00000060: 3c18 d333 d241 b0b3 68d6 b0b4 e365 92b4
00000070: e994 04b4 5c38 6f35 ce72 1034 c2ca c9b3
00000080: 1c81 0835 8ce1 1b34 90c1 ecb3 32c3 0135
00000090: f142 9ab7 7624 d636 3c31 7637 3e5b 6d38
000000a0: 0cd1 8236 13f8 f8b7 980a e0b6 fb68 0737
000000b0: 63ef c938 7539 7d38 1ac2 0cb7 e009 4b39
000000c0: 5ebc 4b37 9ae2 8937 56ed 52b7 f099 83b7
000000d0: 633f a538 7ed2 aa38 038e 2038 7069 ecb7
000000e0: 11f4 95b7 0488 1b38 f8bd 3fb7 2a40 d737
000000f0: ecbe 5cb7 de37 bf37 d52a 75b7 f049 4ab7
00000100: 2ed2 4738 2e7f bdb6 4ced eab7 02ed bb38
00000110: ba5c 8fb6 7cb0 df36 f3d8 2c38 89d9 1b39
00000120: e645 f938 0e01 a838 2899 fe38 b86c 9537
00000130: 32e7 5bb6 8c06 8636 a930 b9b8 0e5f 8db7
00000140: 5cc0 5d39 a236 74b9 58d4 a236 2abd a939
00000150: ea55 0f39 d6c8 d337 0efd 5db8 d0f6 4ab6
00000160: 2cd2 b939 4fa7 6f38 08f0 5339 5a39 c8b8
00000170: 3c44 b3b8 59ea d938 dd40 1f39 9028 2f39
00000180: 6262 47b9 77bc 91b8 e116 1bb8 a001 d737
00000190: 4215 8139 0a37 5239 ffb6 af38 7f2a 3b39
000001a0: 87c2 5638 f1c5 90b7 376a 2239 0220 da39
000001b0: 78b4 de39 16a7 af39 220a f639 79fd b53a
000001c0: 7a81 15b9 9650 1f3a 1f34 2d3a a585 2839
000001d0: 231c 8f39 2e11 9839 f3b8 9ab8 3a23 593b
000001e0: ba6f 3c3a 4b67 6739 0de2 0b39 266b ce39
000001f0: 07c0 903a fc22 d5b9 4384 7f3a 2562 6fba
00000200: 75d7 9139 024b 223a bcad afba 2b5a 7b3a
00000210: ffb2 a33a bc32 db39 2840 bb38 fbe4 663a
00000220: 0544 1f3a c238 9e3a 4bf1 9a39 b598 69ba
00000230: 7289 bb39 994c adb9 48f9 9d3a 8eba 84ba
00000240: c16d 6039 3816 2c39 0cdf 7339 c3ab 3639
00000250: 684a c636 08cc 94b8 90c8 a338 a8a7 9a39
00000260: 25f1 c439 6d52 6239 d246 a038 d143 b039
00000270: c96c bf38 8c4c b3b8 d6eb ca36 983e 9439
00000280: 88de 0d3a 3485 a639 7011 9238 3ec4 7bb8
00000290: ea62 c836 398d 6739 b89a af38 cee0 1339
000002a0: f596 56b9 f1fd c0b8 a476 23b9 5eeb aa39
000002b0: 300f 8938 c680 02b9 c9c7 be38 a45d 4eb8
000002c0: 358e 9438 0019 f634 103e 7f39 b73d 063a
000002d0: 4337 97b5 aae7 73b6 5fdf 06b5 c6a6 39b6
000002e0: 12ac ab34 0c1d eeb6 c7f7 aa36 0c57 57b5
000002f0: 102e 5235 58a7 1d35 9a44 9e35 ac83 2536
00000300: e899 9d36 1e52 2b35 2af4 bbb5 64df 90b6
00000310: 2471 5835 875a bdb6 8096 42b7 3713 39b6
00000320: 7ae8 5eb6 3e2a 8236 879f 55b6 6c79 d7b6
00000330: 3c3e c136 a265 6bb6 d317 bd35 acbd 6c35
00000340: d0e5 6eb6 bc16 da37 226b 6735 953a f135
00000350: ca82 cdb6 7f69 d0b5 0a37 0636 1209 3a35
00000360: e8ae 8db6 6206 a135 cca7 f134 e579 2136
00000370: 46d3 8634 2b26 7835 f082 5735 e61d 1a36
00000380: c352 4b37 3a7f 2036 157f cf35 9eb2 6737
00000390: 063c c835 8332 6136 fe58 8fb5 3851 6fb5
000003a0: cd09 7e36 6ea7 0237 7ecc a536 a26f 1d36
000003b0: f9fa bdb4 8889 d535 a0e5 0b36 5cbb 0136
000003c0: 59dd 8636 598c af36 a9b9 a4b5 d4d5 22b6
000003d0: ccf3 5636 1a3a d437 30d1 23b7 85cf d636
000003e0: cc28 ed35 8232 04b5 df19 cf36 10a6 3337
000003f0: 1eb3 f5b7 9efc 81b7 a525 a6b6 dea8 9c37
3.1002298e-07 1.073428e-07 -6.4192605e-08 -2.6570032e-07 -1.5059793e-08 -2.1862222e-07 7.325545e-08 6.969117e-09
-5.3888982e-08 4.9319635e-07 1.7343052e-07 -1.8292815e-07 -2.4490083e-07 -1.6251438e-07 8.622885e-08 -1.9018701e-07
4.0970184e-07 -1.4761229e-06 -9.123303e-07 1.3675105e-07 2.1194592e-07 3.05534e-08 1.4950807e-07 -2.7577494e-07
9.8298614e-08 -8.207611e-08 -3.2938556e-07 -2.7268752e-07 -1.2347631e-07 8.911645e-07 1.3452811e-07 -9.396673e-08
5.0851827e-07 1.4517553e-07 -1.1024815e-07 4.834029e-07 -1.8389403e-05 6.3819416e-06 1.4674206e-05 5.659018e-05
3.898638e-06 -2.9679422e-05 -6.6769535e-06 8.07107e-06 9.629016e-05 6.037341e-05 -8.389843e-06 0.00019363267
1.21436005e-05 1.6437192e-05 -1.25722345e-05 -1.56881e-05 7.87962e-05 8.145439e-05 3.827923e-05 -2.818249e-05
-1.7875836e-05 3.7081554e-05 -1.1428718e-05 2.5659876e-05 -1.3157474e-05 2.279499e-05 -1.4613111e-05 -1.2057353e-05
4.7641042e-05 -5.6474446e-06 -2.8005474e-05 8.961001e-05 -4.272527e-06 6.6664634e-06 4.1210045e-05 0.0001486299
0.00011886265 8.011061e-05 0.000121401914 1.781281e-05 -3.2768116e-06 3.9942734e-06 -8.830551e-05 -1.6852773e-05
0.00021147862 -0.00023290006 4.8526963e-06 0.0003237513 0.00013669548 2.5246682e-05 -5.292618e-05 -3.024401e-06
0.0003544254 5.713786e-05 0.00020211947 -9.547426e-05 -8.548095e-05 0.00010391017 0.00015187585 0.00016704411
-0.0001901477 -6.949243e-05 -3.6976187e-05 2.5630754e-05 0.00024620636 0.00020047664 8.378736e-05 0.00017849541
5.1202744e-05 -1.7258311e-05 0.00015489092 0.00041604048 0.000424776 0.0003350309 0.00046928326 0.0013884745
-0.00014257981 0.0006077377 0.0006607193 0.00016071515 0.0002729605 0.000290045 -7.377742e-05 0.003313257
0.00071882794 0.00022068356 0.00013340283 0.00039371214 0.0011043557 -0.0004065259 0.00097471866 -0.0009131751
0.00027817083 0.00061909866 -0.0013403217 0.0009588326 0.0012489258 0.00041808735 8.928805e-05 0.00088079245
0.00060755044 0.0012071359 0.00029552946 -0.0008911 0.00035769824 -0.000330542 0.0012052441 -0.0010126398
0.00021403191 0.00016411475 0.00023257377 0.00017420859 5.909522e-06 -7.095194e-05 7.809803e-05 0.00029498083
0.000375637 0.00021583746 7.642586e-05 0.00033619863 9.1278525e-05 -8.549643e-05 6.047524e-06 0.00028275396
0.0005411883 0.0003176123 6.9650705e-05 -6.0025828e-05 5.9719796e-06 0.00022082486 8.373469e-05 0.00014102759
-0.00020464866 -9.202574e-05 -0.00015589088 0.0003260029 6.535498e-05 -0.00012445738 9.097119e-05 -4.9201437e-05
7.083678e-05 4.583926e-07 0.00024341815 0.00051208906 -1.126646e-06 -3.6344668e-06 -5.024394e-07 -2.7664223e-06
3.197643e-07 -7.0963342e-06 5.09524e-06 -8.022041e-07 7.8298126e-07 5.8730575e-07 1.1791883e-06 2.466356e-06
4.6968817e-06 6.382196e-07 -1.4003647e-06 -4.3175405e-06 8.063091e-07 -5.6431777e-06 -1.1598342e-05 -2.7578333e-06
-3.3215897e-06 3.8792195e-06 -3.183233e-06 -6.4216347e-06 5.7590933e-06 -3.5076887e-06 1.4088531e-06 8.819286e-07
-3.5598532e-06 2.5998212e-05 8.6210105e-07 1.7972949e-06 -6.124702e-06 -1.5527911e-06 1.9999593e-06 6.93036e-07
-4.222489e-06 1.1997292e-06 4.5011836e-07 2.4061821e-06 2.5113167e-07 9.244274e-07 8.028428e-07 2.2965191e-06
1.2119012e-05 2.3915914e-06 1.5459688e-06 1.38102605e-05 1.491863e-06 3.3557014e-06 -1.068023e-06 -8.9152627e-07
3.7854654e-06 7.787587e-06 4.941189e-06 2.3459802e-06 -3.53866e-07 1.5909764e-06 2.0846273e-06 1.9331555e-06
4.0192795e-06 5.231745e-06 -1.2272986e-06 -2.4264345e-06 3.2030393e-06 2.5299425e-05 -9.764262e-06 6.4018554e-06
1.766975e-06 -4.924733e-07 6.1720925e-06 1.0707896e-05 -2.9289684e-05 -1.5495632e-05 -4.951568e-06 1.8675284e-05

lstm.weight_hh_l0 f4 [400, 100]
00000000: 56ea 1f32 d695 83b3 8067 0034 58b0 9231
00000010: 9a4e da32 fc63 2834 64a8 84b2 c6e4 93b2
00000020: ca22 79b3 3a0b 28b4 0dd1 88b3 7c29 2633
00000030: d35a 8a31 b625 bc31 1039 53ad 53cf c432
00000040: e6fb 85b3 a26f 97b1 c56e a733 4cf7 2bb1
00000050: 2f18 8fb2 cee0 12b0 f6f0 3c2e 4ab8 1033
00000060: a5c6 80b3 f491 37b2 4e96 652d a00c 17b3
00000070: 4cbd cdb2 d44c d032 40e3 09b4 41ae 0532
00000080: 2466 11b3 35e0 a034 ff1b eb30 527b ddb3
00000090: 8cdf 0132 5456 cd32 7cec 85b2 a45d 2a33
000000a0: 6da1 a6b1 955a 1f33 1659 0f35 28d2 82b0
000000b0: 2c9c 09b2 14d9 5fac c7db c933 0768 db33
000000c0: 0009 7bb2 9a38 b831 e2e3 dd2e 1386 9d30
000000d0: 6d2b 85ac 1e74 93b4 fe5e 65b3 8330 e0b2
000000e0: acd5 57b0 5c5b b5b2 b4e3 a332 1575 f2b3
000000f0: c0eb 94b2 bade 17b4 64b4 ceb4 4f0c 3533
00000100: acd7 9134 86b4 27b0 0d4a dc32 e4f7 3633
00000110: 513f bab3 cf56 b6b0 7ffb 5334 79a4 34af
00000120: 7757 ff31 b940 bd32 3461 74b3 1487 11b2
00000130: 2d6d 59b2 c01d 8832 0a9e 1134 96d2 58b1
00000140: 4821 f034 d816 37b3 9405 652e c040 a033
00000150: 59d3 bab0 9be9 89b3 5eb4 4eb4 73ff cdb1
00000160: 0b9e 15b3 ee6c 8bb3 100f 89b0 8836 5d34
00000170: 3e14 90b3 2835 30b3 82ec 20b3 4d79 9633
00000180: f531 0b2e 2760 4db2 489f 5ab3 3094 8ab1
00000190: 403f 5b31 b65b e0b5 9444 beb5 d29b e136
000001a0: a2a4 0437 fc26 9f34 7291 05b5 5c81 aeb5
000001b0: 1c54 feb5 bf4f be35 e4df f0b6 5845 cf33
000001c0: 54c4 2a33 a0b0 8732 ae0a 0c33 db96 0eb5
000001d0: 3e05 a5b6 e0f6 d933 f6e0 2e37 55b7 9332
000001e0: 9608 d7b3 86c1 0433 5b67 512f e209 de34
000001f0: e222 c7b6 0e61 9eb5 bd2c 2f2e 54d5 a235
00000200: 35de 86b7 ca3f 03b5 297e c335 cf15 2734
00000210: c83e f834 f478 8c36 5674 5db2 739e db36
00000220: 492c 99b4 8b33 30b5 281f a3b5 c80f 1c36
00000230: e665 adb3 e061 4eb6 a279 0836 009a 0ab6
00000240: bcc2 43b5 925f 2a2f 9436 9d36 07a7 da35
00000250: ba8d 2935 8080 e92f e498 8030 ef42 bab3
00000260: e540 e2ae 38a1 9936 c80b 50b5 dd05 e134
00000270: 586e 88b1 7461 90b5 52cd b134 1262 cfb6
00000280: 4ae3 3735 ba61 5cb7 aa4f 64b6 25f6 b337
00000290: fc5d f235 740c 9133 0653 aeb3 f49d 2234
000002a0: 6e15 9335 9c1f 2332 3bf0 1437 a066 eab2
000002b0: cbc0 3d34 91b8 b335 877a c835 7bdb 1ab5
000002c0: d65e 10b5 46da 32b5 fea4 9036 ae54 4334
000002d0: 4417 a436 a409 7435 a84d f92f e0ba 0d37
000002e0: e29a a7b2 48af 0435 352d 0537 5b52 0334
000002f0: a859 c1b4 efb0 8bb6 9617 9633 494b 3b36
00000300: 2f0d f4b5 1af8 2a35 9848 b036 6e1c 9b36
00000310: 6cf3 1d2f 90da fd34 533b 1637 b0fb 1d35
00000320: e841 ae32 6cf2 eab6 1618 1537 4cb5 ff37
00000330: 1ab6 c637 4117 c0b6 e1e0 1636 2665 9835
00000340: 2a12 85b6 3636 c636 caf1 9fb7 d084 8e36
00000350: f87b fab4 5dba a8b5 bca7 7a31 51a9 5eb6
00000360: c210 e335 436c 7fb4 1c5c 9237 502f c931
00000370: a57b 6735 7732 9533 2836 9c31 6602 7736
00000380: c83f 4537 c945 93b5 4e49 48b0 a052 f2b6
00000390: 95d8 d137 0d5e 2d36 6df8 d5b6 b640 9eb5
000003a0: 1c46 35b6 5a58 33b7 b399 c1b3 5502 6d37
000003b0: 3811 da35 7c9b 1eb7 e66a a5b6 7aa6 5f36
000003c0: 783f 0632 f122 05b6 adb5 a637 1206 be35
000003d0: 7ef1 9336 3250 982f 029c 9537 fbf1 fbb5
000003e0: f032 ea36 473f 73b5 d07d 09b0 3338 59b4
000003f0: e038 1230 fa97 9b37 3a07 26b7 eecc 77b5
9.3083e-09 -6.127418e-08 1.1958582e-07 4.269207e-09 2.5414284e-08 1.5682593e-07 -1.5443398e-08 -1.7217086e-08
-5.800647e-08 -1.5650303e-07 -6.3710196e-08 3.8687617e-08 4.026654e-09 5.4758074e-09 -1.2006632e-11 2.2911683e-08
-6.239115e-08 -4.4073696e-09 7.7966924e-08 -2.5024347e-09 -1.6658388e-08 -5.343396e-10 4.2960267e-11 3.3695223e-08
-5.996598e-08 -1.0685188e-08 1.3050517e-11 -3.516891e-08 -2.3951223e-08 2.4249324e-08 -1.2841792e-07 7.78124e-09
-3.385334e-08 2.9965454e-07 1.7106457e-09 -1.0313546e-07 7.559617e-09 2.3904398e-08 -1.5590778e-08 3.9666375e-08
-4.849588e-09 3.7102456e-08 5.340129e-07 -9.518475e-10 -8.009959e-09 -3.1810709e-12 9.399769e-08 1.0216905e-07
-1.4612169e-08 5.3615397e-09 1.00903966e-10 1.146136e-09 -3.7849086e-12 -2.746537e-07 -5.3404612e-08 -2.6099093e-08
-7.852019e-10 -2.1112719e-08 1.9079245e-08 -1.12903e-07 -1.7336674e-08 -1.4143998e-07 -3.8501742e-07 4.215354e-08
2.7165277e-07 -6.1010785e-10 2.5645045e-08 4.2600632e-08 -8.672817e-08 -1.3266915e-09 1.97424e-07 -1.6429337e-10
7.4314204e-09 2.2031928e-08 -5.6899083e-08 -8.470824e-09 -1.2655886e-08 1.5846013e-08 1.3561672e-07 -3.1551841e-09
4.47277e-07 -4.2628784e-08 5.2073526e-11 7.4623586e-08 -1.359335e-09 -6.422052e-08 -1.9250862e-07 -5.9953265e-09
-3.4835505e-08 -6.492506e-08 -9.972343e-10 2.0602067e-07 -6.7092046e-08 -4.102654e-08 -3.7468006e-08 7.006984e-08
3.164931e-11 -1.1954433e-08 -5.0901946e-08 -4.0331756e-09 3.1904648e-09 -1.6715992e-06 -1.4176062e-06 6.7236624e-06
7.906145e-06 2.9644423e-07 -4.975801e-07 -1.3001659e-06 -1.8948954e-06 1.4179312e-06 -7.1786217e-06 9.651802e-08
3.975977e-08 1.5796388e-08 3.2606003e-08 -5.3118646e-07 -4.9179935e-06 1.0149756e-07 1.0423586e-05 1.7196422e-08
-1.00132795e-07 3.0909654e-08 1.9045159e-10 4.1357913e-07 -5.934723e-06 -1.1800164e-06 3.983013e-11 1.2132027e-06
-1.6077518e-05 -4.889413e-07 1.456535e-06 1.5561021e-07 4.623928e-07 4.186406e-06 -1.2890345e-08 6.5451545e-06
-2.8530692e-07 -6.5640114e-07 -1.2153514e-06 2.3254997e-06 -8.0744755e-08 -3.0753363e-06 2.0336379e-06 -2.0653242e-06
-7.2926537e-07 1.5495363e-10 4.6853183e-06 1.6290877e-06 6.3163645e-07 4.2473758e-10 9.35668e-10 -8.673475e-08
-1.0288818e-10 4.5785237e-06 -7.750318e-07 4.1913782e-07 -3.9706656e-09 -1.0757199e-06 3.311821e-07 -6.1804976e-06
6.850356e-07 -1.3135776e-05 -3.4021018e-06 2.1453083e-05 1.8057758e-06 6.754354e-08 -8.117608e-08 1.5144889e-07
1.095859e-06 9.495036e-09 8.87742e-06 -2.7287854e-08 1.7672134e-07 1.3390255e-06 1.4936821e-06 -5.7688857e-07
-5.3782185e-07 -6.6627797e-07 4.310742e-06 1.8191596e-07 4.8902893e-06 9.091111e-07 4.5348014e-10 8.447765e-06
-1.9511791e-08 4.94289e-07 7.937943e-06 1.2230286e-07 -3.6014285e-07 -4.1631206e-06 6.9892096e-08 2.7908993e-06
-1.8183254e-06 6.369097e-07 5.2536598e-06 4.6226696e-06 1.4365548e-10 4.7283947e-07 8.954509e-06 5.885331e-07
2.0286237e-08 -7.001965e-06 8.8867e-06 3.0482792e-05 2.3688237e-05 -5.724753e-06 2.2482639e-06 1.1354321e-06
-3.9658235e-06 5.907171e-06 -1.9066869e-05 4.247391e-06 -4.6656328e-07 -1.2571214e-06 3.6475134e-09 -3.3179133e-06
1.6917695e-06 -2.3788111e-07 1.7447448e-05 5.8552487e-09 8.623413e-07 6.947533e-08 4.5463544e-09 3.6807264e-06
1.1756965e-05 -1.0972664e-06 -7.286375e-10 -7.221781e-06 2.5015595e-05 2.5833754e-06 -6.3768152e-06 -1.1790751e-06
-2.701191e-06 -1.0689802e-05 -9.0152206e-08 1.4126844e-05 1.6247277e-06 -9.453735e-06 -4.929828e-06 3.3326492e-06
7.814258e-09 -1.9838883e-06 1.9873341e-05 1.415787e-06 4.409055e-06 2.770562e-10 1.7834831e-05 -1.8771383e-06
6.9796733e-06 -9.0616635e-07 -5.00191e-10 -2.0230145e-07 5.3195315e-10 1.854821e-05 -9.896054e-06 -9.231288e-07

lstm.bias_ih_l0 f4 [400]
00000000: 1a19 75b5 5072 34b9 b592 3cba c4df 69bb
00000010: 013e baba 39fe 1bb8 c8b8 78b5 7408 32b9
00000020: 88d7 2db9 e088 89b9 f439 fdba 11c1 ddb8
00000030: 3dbc c5b2 7381 39b5 a101 32b3 bc89 c6b7
00000040: 3724 91ba de69 eeb4 001a 04bb d64f 0eb3
00000050: cd1d 5336 21f8 59b3 6aff beac 8095 dbb8
00000060: 796d 2eba 4ed5 33b5 da1a 4a2a a7c8 40ba
00000070: 7a49 debb e421 fcb8 56c4 c0b9 0213 9cb6
00000080: 7437 e9b7 f16c 00bb d08a a2b2 b1f0 5aba
00000090: 3b9a 9bb6 d984 bbb8 e707 82b6 6196 89b9
000000a0: ea6f beb5 fe95 93b7 5e00 45bb 0018 d7b8
000000b0: 8ae7 0eb8 cdc2 192b 4f1c 98b9 ce5e 84b8
000000c0: 4add 27b8 c013 14b4 9feb 44b0 c0be f7b3
000000d0: 6159 d62a 4951 6bba b76a e3b9 b4af 25b7
000000e0: 6332 802f 809d b2b6 0789 a137 8382 11bb
000000f0: 474e 21b7 585b 85bb 7538 16bb abed 46bc
00000100: f17c 82ba c48a 26b4 84dd 0436 bba6 30b6
00000110: f8cd 34b9 bc12 6ab3 48f1 0abb 490f cdb2
00000120: eed4 2bb5 f862 8fb8 a1ea d1b8 a459 33b4
00000130: 54a1 4db9 18eb 67b8 d68c cdba a0e8 8033
00000140: ef4d ccbb 499b b4b6 6601 f6aa 0e36 9cbb
00000150: c0e2 82b2 f068 1cb9 c0d6 ffbb 345f ceb5
00000160: 5c6d 42b9 5efb 0bb9 2ac8 50b2 45f6 b7b9
00000170: ecb9 2eb8 e0ca 6a37 9b17 9aba 6e3d a4ba
00000180: 2653 47ad aba3 a0b7 ef38 7eba 5564 2d36
00000190: 6cb9 e1b4 2247 18b9 1baf 49ba e650 61bb
000001a0: 0f6a c5ba d6f9 0a37 a0c5 9a37 82ee 24b8
000001b0: 0baa 03b9 4d54 19b9 c5d5 d0ba 22b5 6bb8
000001c0: a7ef 18b3 a863 8ab5 1f86 22b3 169b 10b8
000001d0: d887 3638 9fdb 9a34 e80d 97b9 2846 0db3
000001e0: 3a18 21b6 4024 1eb3 0b7c 78ad 722b 87b7
000001f0: 7afa 5eba 701b 21b7 66a8 a6aa 87d0 beb9
00000200: b531 9ebb 21ae 2838 4fb9 1039 2d7a 99b5
00000210: 8499 e7b7 df38 60ba 7a81 d0b1 780f 73ba
00000220: e443 4bb6 8fc7 53b8 0734 07b7 926f 8cb8
00000230: b750 b3b5 d01c 3638 932f 3abb b4cd 00b8
00000240: c9c9 1539 b130 102b 8eb5 03ba 38fe 0ab7
00000250: 6a91 c8b7 4620 66b3 28f6 3ab0 fea6 45b4
00000260: b6b2 21ab 88cb 58ba 7873 6fb9 01d8 14b7
00000270: 8e79 9b2f 49be 4238 c9fe 3fb8 c0c0 b8ba
00000280: 2a1f dbb6 ffe8 7ebb 00f5 b9ba 2d93 37bc
00000290: 4c96 a4ba 86ba 09b4 73e5 0337 efe2 6eb6
000002a0: 0ae4 4cb8 6e49 cbb2 bbb6 12bb d0b7 8eb1
000002b0: 52a4 ccb3 4e4c 35b8 e1af 0cb9 b886 c6b5
000002c0: 4259 0539 0782 1538 6199 cfba be40 4e35
000002d0: 08b4 543a cbbe 1837 8a22 222b b34d 87bb
000002e0: 910a 6f34 2a1c c3b8 8fc8 37bb 2b03 0d35
000002f0: a87e 9fb8 93a5 a6b8 5006 5eb1 dd18 8cb8
00000300: f114 56b8 76bb 47b9 afb5 56ba a8f5 3aba
00000310: cde2 79ad b750 afb7 8dba 29ba b0f4 d7b5
00000320: d7f1 83b9 304b 8e3b c2f2 feba b0ca 443a
00000330: 7831 763c ca2c f039 1b0c bd3a 1323 6c3b
00000340: 5ebb 2d3a 1502 8e3b 0c94 4d3b 805a 633b
00000350: e765 27b9 1492 35ba 4b59 1237 4ce2 1c38
00000360: 6ceb da3b 14ce 63b9 201d e03c d25b beb6
00000370: 647e 80b9 9b23 d637 6841 e634 951b 15bb
00000380: 5f7a 65bc 6d49 91ba cb80 8bb3 bdfb 733b
00000390: e516 d9ba e46f 3dbb 702a b63b 35fe 79ba
000003a0: 7954 ec3a 2beb 75bc 0d0f 30b8 c07b 30b9
000003b0: db59 463a 3816 e039 58a9 463a 38f4 6dbb
000003c0: a42f a238 2f07 53bb 9de7 e03b 6e76 323b
000003d0: 2e0b 583b dddf 1f34 8748 6c3b 02d3 da39
000003e0: d0a8 c2b7 71f5 6ab9 b27f 3537 e02f 13b9
000003f0: aa0c f833 8168 d13b a31a 8c3b 9f87 81ba
-9.130614e-07 -0.00017208722 -0.0007193492 -0.0035686353 -0.0014209152 -3.7191643e-05 -9.265609e-07 -0.00016978552
-0.00016578857 -0.00026232656 -0.001931964 -0.000105740626 -2.301942e-08 -6.9106244e-07 -4.1445336e-08 -2.3667577e-05
-0.0011073415 -4.4407983e-07 -0.0020157099 -3.313456e-08 3.1458796e-06 -5.074992e-08 -5.4284814e-12 -0.0001047058
-0.0006653886 -6.6993096e-07 1.795052e-13 -0.0007354118 -0.0067836614 -0.00012022609 -0.00036767375 -4.651375e-06
-2.7801587e-05 -0.0019596184 -1.8922407e-08 -0.0008351906 -4.6373148e-06 -8.9416e-05 -3.875222e-06 -0.00026242717
-1.4188674e-06 -1.7593611e-05 -0.0030060033 -0.00010256469 -3.4071076e-05 5.462686e-13 -0.0002901279 -6.311909e-05
-4.0021994e-05 -1.3790759e-07 -7.163922e-10 -1.1536531e-07 3.8076055e-13 -0.0008976651 -0.00043376323 -9.8756755e-06
2.3318866e-10 -5.323149e-06 1.9256504e-05 -0.0022203035 -9.614573e-06 -0.004069727 -0.0022921835 -0.012141625
-0.0009955448 -1.5510437e-07 1.9798472e-06 -2.6323094e-06 -0.00017242867 -5.449941e-08 -0.0021200944 -2.3872092e-08
-6.401232e-07 -6.837206e-05 -0.000100096 -1.6703285e-07 -0.00019610423 -5.529364e-05 -0.0015682231 6.002779e-08
-0.0062348763 -5.3824956e-06 -4.3699349e-13 -0.004767186 -1.5237106e-08 -0.00014916412 -0.0078075826 -1.5375904e-06
-0.00018542021 -0.00013349715 -1.21527055e-08 -0.00035087965 -4.1657986e-05 1.3994722e-05 -0.0011756303 -0.0012530515
-1.1330303e-11 -1.91497e-05 -0.0009697815 2.583741e-06 -4.2044428e-07 -0.00014522349 -0.0007693634 -0.0034380495
-0.0015061515 8.28361e-06 1.8450257e-05 -3.9322775e-05 -0.0001255648 -0.00014622622 -0.0015932849 -5.619706e-05
-3.560822e-08 -1.0310805e-06 -3.7840547e-08 -3.447671e-05 4.3518696e-05 2.884453e-07 -0.00028811325 -3.2892927e-08
-2.4004971e-06 -3.682021e-08 -1.4124711e-11 -1.6113485e-05 -0.0008505952 -9.602736e-06 -2.9604373e-13 -0.0003639499
-0.004827703 4.021649e-05 0.00013801943 -1.1434946e-06 -2.7608832e-05 -0.00085533963 -6.0683165e-09 -0.00092720194
-3.0288875e-06 -5.0492174e-05 -8.058741e-06 -6.696502e-05 -1.336003e-06 4.3419015e-05 -0.0028409704 -3.0709154e-05
0.00014284918 5.122665e-13 -0.0005024307 -8.284631e-06 -2.3909572e-05 -5.35804e-08 -6.8016215e-10 -1.8407806e-07
-5.74467e-13 -0.00082700746 -0.00022835832 -8.87178e-06 2.8280706e-10 4.643042e-05 -4.5775236e-05 -0.001409553
-6.5303366e-06 -0.00388962 -0.0014187396 -0.011204523 -0.0012556999 -1.2826976e-07 7.861631e-06 -3.5596856e-06
-4.8849768e-05 -2.3665702e-08 -0.0022386748 -4.153641e-09 -9.52938e-08 -4.3224827e-05 -0.0001341696 -1.4791358e-06
0.0001271712 3.5645466e-05 -0.0015838557 7.683519e-07 0.0008113985 9.1043285e-06 5.7601894e-13 -0.0041291355
2.2262454e-07 -9.3035706e-05 -0.0028043126 5.2531203e-07 -7.6053024e-05 -7.9463374e-05 -3.230884e-09 -6.680351e-05
-5.104108e-05 -0.00019047954 -0.0008190525 -0.00071319425 -1.4204371e-11 -2.0899211e-05 -0.00064746366 -1.6089962e-06
-0.00025166452 0.004342459 -0.001945101 0.00075070094 0.015026443 0.00045809738 0.0014423163 0.0036031648
0.0006627346 0.0043337443 0.003136876 0.0034691393 -0.00015964323 -0.00069263694 8.723068e-06 3.7404054e-05
0.0066808965 -0.00021725177 0.027357638 -5.6731305e-06 -0.0002450823 2.5527368e-05 4.2888428e-07 -0.0022752036
-0.014006226 -0.0011084505 -6.496119e-08 0.0037228905 -0.0016562609 -0.0028905803 0.005559258 -0.0009536476
0.0018030546 -0.015009682 -4.1975687e-05 -0.00016830768 0.000756649 0.00042741164 0.0007578335 -0.0036308896
7.733636e-05 -0.0032200327 0.006863548 0.0027231234 0.0032965648 1.488947e-07 0.0036053972 0.00041737413
-2.3205212e-05 -0.00022407413 1.0818172e-05 -0.00014036847 1.15507035e-07 0.0063906317 0.0042756363 -0.0009882337

lstm.bias_hh_l0 f4 [400]
00000000: 5310 75b5 6575 34b9 af92 3cba e5de 69bb
00000010: 093f baba d8fe 1bb8 d021 79b5 fa07 32b9
00000020: 60d8 2db9 a28c 89b9 9238 fdba 84c2 ddb8
00000030: 43bc c5b2 6e81 39b5 d801 32b3 ba89 c6b7
00000040: b223 91ba 6c6f eeb4 aa18 04bb 974e 0eb3
00000050: 7319 5336 c7f7 59b3 acf9 beac be99 dbb8
00000060: c06c 2eba f463 40b5 9d09 4a2a bfc9 40ba
00000070: a649 debb e22a fcb8 7eaf c0b9 3013 9cb6
00000080: 1d37 e9b7 a56d 00bb b18b a2b2 5fe0 5aba
00000090: f999 9bb6 8d84 bbb8 7dea 82b6 1792 89b9
000000a0: 1970 beb5 889a 93b7 b1fe 44bb 381c d7b8
000000b0: 3ee5 0eb8 9ac1 192b 412d 98b9 085b 84b8
000000c0: 7cde 27b8 a32a 14b4 4ffc 44b0 57c0 f7b3
000000d0: 7856 d62a 5d4c 6bba 0c6b e3b9 29ae 25b7
000000e0: 2f31 802f 286b b3b6 5e66 a237 7283 11bb
000000f0: 5b4e 21b7 4454 85bb b536 16bb 80ed 46bc
00000100: 827e 82ba 738a 26b4 1d46 0536 379b 30b6
00000110: c8cc 34b9 fb15 6ab3 78f0 0abb 700f cdb2
00000120: 45d1 2bb5 9a62 8fb8 73f0 d1b8 7c28 34b4
00000130: 18a4 4db9 3eed 67b8 1e8f cdba dec9 8033
00000140: bd66 ccbb f8b0 b4b6 0e00 f6aa f338 9cbb
00000150: 86ce 82b2 4369 1cb9 86e0 ffbb b45e ceb5
00000160: f26b 42b9 a732 0cb9 cabe 50b2 d8f5 b7b9
00000170: 0dae 2eb8 e859 6b37 b317 9aba d83d a4ba
00000180: 0654 47ad 4996 a0b7 e837 7eba f06d 2d36
00000190: 7ea4 e1b4 4747 18b9 beae 49ba f850 61bb
000001a0: 616a c5ba 44f2 0a37 78c6 9a37 e1f6 24b8
000001b0: 43b5 03b9 7354 19b9 cfd5 d0ba 15b5 6bb8
000001c0: acef 18b3 e763 8ab5 1886 22b3 019b 10b8
000001d0: 2883 3738 eedb 9a34 2c56 97b9 3e46 0db3
000001e0: 7a17 21b6 a827 1eb3 8b78 78ad 0c1e 87b7
000001f0: 61fd 5eba cd22 21b7 33a9 a6aa 04d7 beb9
00000200: 0432 9ebb c698 2838 9ba5 1039 137a 99b5
00000210: 9699 e7b7 4034 60ba 7c81 d0b1 6a1a 73ba
00000220: 8843 4bb6 08c3 53b8 eb57 07b7 286d 8cb8
00000230: a251 b3b5 1a3f 3638 f32c 3abb aac5 00b8
00000240: 80ca 1539 6330 102b 5eb5 03ba fabe 0ab7
00000250: e192 c8b7 3b31 66b3 e8fe 3ab0 93a6 45b4
00000260: cab2 21ab 47cc 58ba 8662 6fb9 99d9 14b7
00000270: b77d 9b2f 9a97 4238 d0fd 3fb8 b1be b8ba
00000280: e01e dbb6 72df 7ebb 2e46 baba a892 37bc
00000290: 8f96 a4ba 82ba 09b4 ade0 0337 eee2 6eb6
000002a0: e9e0 4cb8 6048 cbb2 b0b5 12bb 94b6 8eb1
000002b0: 3a9d ccb3 6f45 35b8 abb0 0cb9 79d2 c7b5
000002c0: 9a51 0539 cf81 1538 6e99 cfba 5a2e 4e35
000002d0: f86c 553a f88b 1837 561c 222b d846 87bb
000002e0: 8d0d 6f34 e421 c3b8 6fe1 37bb fc04 0d35
000002f0: 9c7e 9fb8 7aa1 a6b8 70fd 5db1 bd19 8cb8
00000300: ae13 56b8 02aa 47b9 89b5 56ba 64f4 3aba
00000310: 4de2 79ad 1a58 afb7 fcb0 29ba c7f2 d7b5
00000320: cff1 83b9 3d4b 8e3b 5cf5 feba 6ccb 443a
00000330: df31 763c 342d f039 180c bd3a 5223 6c3b
00000340: 52bb 2d3a 2b01 8e3b dc94 4d3b 6d5a 633b
00000350: ec65 27b9 a591 35ba 2a59 1237 44e2 1c38
00000360: 85eb da3b 09ce 63b9 401a e03c 305c beb6
00000370: 547e 80b9 dd23 d637 5d41 e634 8a1b 15bb
00000380: 347a 65bc 7249 91ba 5280 8bb3 05fa 733b
00000390: 5417 d9ba e86f 3dbb a428 b63b 15fe 79ba
000003a0: 9a54 ec3a 3eeb 75bc 0c0f 30b8 1079 30b9
000003b0: 035a 463a 3b16 e039 a4a9 463a bef3 6dbb
000003c0: b82f a238 5707 53bb 1de7 e03b 4c76 323b
000003d0: 540b 583b b6df 1f34 9e48 6c3b 1ed3 da39
000003e0: 30a7 c2b7 5cf5 6ab9 d07e 3537 7b2f 13b9
000003f0: 7b0f f833 0467 d13b 551a 8c3b 6e87 81ba
-9.129337e-07 -0.0001720987 -0.00071934884 -0.0035685834 -0.001420946 -3.719222e-05 -9.280893e-07 -0.00016978374
-0.00016579172 -0.00026235456 -0.0019319227 -0.000105743326 -2.301943e-08 -6.9106216e-07 -4.144553e-08 -2.3667573e-05
-0.001107326 -4.4412025e-07 -0.0020156302 -3.313343e-08 3.1456264e-06 -5.0749602e-08 -5.427844e-12 -0.000104713705
-0.0006653778 -7.1671025e-07 1.794454e-13 -0.0007354281 -0.006783682 -0.00012024284 -0.00036751846 -4.651396e-06
-2.7801429e-05 -0.0019596603 -1.8922806e-08 -0.0008349474 -4.6372847e-06 -8.9415444e-05 -3.9016e-06 -0.00026239522
-1.4188728e-06 -1.7595725e-05 -0.0030059034 -0.00010257255 -3.4068937e-05 5.4625195e-13 -0.00029025416 -6.3112064e-05
-4.0023107e-05 -1.3799085e-07 -7.1662937e-10 -1.153682e-07 3.8074036e-13 -0.00089759176 -0.0004337657 -9.875316e-06
2.3318011e-10 -5.3470903e-06 1.9359573e-05 -0.0022203592 -9.614591e-06 -0.004068883 -0.0022920792 -0.012141585
-0.0009955915 -1.5510322e-07 1.9859356e-06 -2.631639e-06 -0.00017242425 -5.450236e-08 -0.002120046 -2.3872161e-08
-6.400699e-07 -6.837137e-05 -0.00010010684 -1.6778534e-07 -0.00019611453 -5.529564e-05 -0.0015682911 5.997184e-08
-0.0062378333 -5.38502e-06 -4.3698416e-13 -0.004767531 -1.5227908e-08 -0.00014916532 -0.0078087477 -1.5375758e-06
-0.00018541495 -0.0001337031 -1.2150574e-08 -0.00035087648 -4.164693e-05 1.4028024e-05 -0.001175633 -0.0012530638
-1.1330497e-11 -1.9143468e-05 -0.0009697662 2.5843e-06 -4.20292e-07 -0.00014522402 -0.000769358 -0.0034380537
-0.0015061611 8.281848e-06 1.845065e-05 -3.933057e-05 -0.00012560659 -0.00014622677 -0.001593286 -5.6197012e-05
-3.5608238e-08 -1.0310877e-06 -3.7840522e-08 -3.4476634e-05 4.375275e-05 2.8844755e-07 -0.00028865167 -3.2893006e-08
-2.4004535e-06 -3.682331e-08 -1.4123934e-11 -1.6107246e-05 -0.00085063843 -9.6044505e-06 -2.960493e-13 -0.00036399823
-0.0048277397 4.0196603e-05 0.00013794603 -1.1434917e-06 -2.7608865e-05 -0.0008552708 -6.0683174e-09 -0.00092736504
-3.0288666e-06 -5.0487957e-05 -8.067097e-06 -6.696052e-05 -1.3360298e-06 4.345095e-05 -0.002840814 -3.0701667e-05
0.00014285184 5.1226227e-13 -0.0005024279 -8.269906e-06 -2.3910254e-05 -5.3595823e-08 -6.802865e-10 -1.8407654e-07
-5.744681e-13 -0.0008270186 -0.00022829519 -8.872151e-06 2.8283662e-10 4.6394394e-05 -4.577433e-05 -0.0014094916
-6.530303e-06 -0.0038890508 -0.0014211589 -0.011204399 -0.0012557077 -1.282697e-07 7.86052e-06 -3.5596854e-06
-4.8846854e-05 -2.3665223e-08 -0.0022386126 -4.1535007e-09 -9.5280896e-08 -4.3218428e-05 -0.00013417254 -1.4887911e-06
0.00012714267 3.5645262e-05 -0.0015838572 7.680843e-07 0.0008141543 9.092495e-06 5.7593286e-13 -0.0041283183
2.2263539e-07 -9.304637e-05 -0.0028057953 5.2533846e-07 -7.605294e-05 -7.945574e-05 -3.2303795e-09 -6.680514e-05
-5.1039904e-05 -0.00019041452 -0.0008190503 -0.0007131754 -1.420426e-11 -2.0902651e-05 -0.0006473211 -1.6089406e-06
-0.00025166429 0.004342465 -0.0019451785 0.0007507119 0.015026539 0.00045810046 0.001442316 0.0036031795
0.0006627339 0.0043336353 0.0031369245 0.003469135 -0.0001596433 -0.0006926305 8.723038e-06 3.7404025e-05
0.006680908 -0.00021725161 0.027356267 -5.6731733e-06 -0.00024508184 2.5527488e-05 4.2888396e-07 -0.002275201
-0.014006186 -0.001108451 -6.496033e-08 0.003722788 -0.0016562738 -0.0028905813 0.005559044 -0.00095364574
0.0018030584 -0.015009699 -4.1975683e-05 -0.00016829767 0.00075665134 0.00042741172 0.0007578379 -0.0036308612
7.73365e-05 -0.003220042 0.0068634884 0.0027231155 0.0032965736 1.4889415e-07 0.0036054025 0.00041737495
-2.3204455e-05 -0.00022407382 1.08179665e-05 -0.000140367 1.1551216e-07 0.0063904542 0.0042756 -0.000988228

lstm.weight_ih_l0_reverse f4 [400, 36]
00000000: dba8 053c 8fcd 05bb aad5 50bb 788c 2c3b
00000010: b283 59bb b3f0 20bc 8c4b 32bc 8c80 533c
00000020: d402 213b 9a07 db3b 5423 84bc 4430 2ebc
00000030: fe65 023d a8a1 28bd fd2b 1e3b 2a18 6e3c
00000040: 01ce 843b 6a53 6b3c cb79 a53b 2ad3 613a
00000050: ee29 7fbd 9480 95bc 586b 41bc 1232 30bc
00000060: ecd7 09bb 5a60 c4bc a00d 9cba 2a1f 40bc
00000070: da4c 933c 5276 3e3b 7c11 e7ba faeb 8c3c
00000080: f21c 213c 0017 7639 4b6a 8fbc 3b84 323c
00000090: 976c 863d 6e89 e2bc 52d7 013d 1c00 253c
000000a0: 77ee 50bb dc7e 22bc bb70 0a3d a14c 703d
000000b0: 80ae 9cb8 fc22 053c c876 773c 7aa4 e63c
000000c0: 026e 95bc 764f 073c 6a10 2a3d c7dc b23c
000000d0: 4d10 803c fc9d 4ebc bdf3 bb3b 3532 c43d
000000e0: 79fc 45bc 948e cebc 40ff a23c 60f1 333a
000000f0: 28cf 4d3c 4cbb 9dbc 2bc9 383c 4036 2bbd
00000100: c213 8c3c 4aa2 dcbc 1bb4 a73d a56c 0f3d
00000110: d419 903b 71ac 4cbd df1d 503c b3cf 913c
00000120: 1d61 b5bb 546e a9bb 7225 d33b 676a 083c
00000130: a16e 2abc 38d0 55bb 9121 5bbb 4567 13bc
00000140: f6f1 e5bb 1164 a13c 9229 9f3a 800c f93a
00000150: 962f f83b 2896 47bc d10b 9aba 5813 253c
00000160: 9c1a e03b 5767 233c c68e 9fbc fe39 74bc
00000170: 3875 cd3b c027 d838 5c32 cdbc 3c1e 0dbb
00000180: fbc3 d33a e246 903c 267b 45bb ed23 f23a
00000190: 9ac2 983b 1e4e acbc 2281 92bc 8ed5 1cbc
000001a0: 9798 773c e403 9d38 5267 c33a a512 90bb
000001b0: 700b eabb 238f e7bb 501d 14bd ab5e 25bc
000001c0: a445 d03b e5c3 9fbb de29 41bc 2532 0c3c
000001d0: 78ea 0abc 345a e73b ab81 6b3a 2bbd 0abb
000001e0: 5c66 85b8 c0bc 63bc bb9a 8ebc 243a 8c3a
000001f0: 81ca 65bb c69a 30bb 35c2 1e3d f72b 743c
00000200: 19c4 393c 605c b9bc ee5a 51bc ad58 09bd
00000210: 2fb6 b4bb bb08 88bc b7f3 3ebc a83a 3fbb
00000220: 1fff c6bb b146 fcbc 58c5 403a a078 553b
00000230: aebc fabb 5049 8d3b 2cea 3bbc 20ca cb3a
00000240: f93a 373d 60cf 1fbc f493 0ebc 6e9c e6bb
00000250: 4334 25bc a3f9 803c 3586 bebc d64a 153d
00000260: 571e a83a 938b 4abc f5d3 d23c c72f af3c
00000270: 4afe b33c a7df c4bd 28ce d6bb e2ab d33b
00000280: 5b70 ce3c 10fa 8dbc e027 5e3a 24be 1a3c
00000290: 4abb 52bd af25 debc 9767 183d d59e 923c
000002a0: 885d ca3b 73e9 e1bd ee28 ffba f876 86bb
000002b0: 16fb bb3c 2853 13bd 6eac 033d eca5 043c
000002c0: 3ef4 21bc b020 923c c452 37bb 1f6c 9b3c
000002d0: a0b6 d23d 567b 3e3c 605e 4b3a fcd2 803b
000002e0: a97b c03c 2f27 8cbd f7b5 f4bc 425b 0bbc
000002f0: 3081 37be 22ab 963c f87c 313c 2c5c 993c
00000300: 49ef 9b3d 5a54 193e dc4a 78bd 63eb 4d3d
00000310: e627 90bd 8c98 d6bc 790f 703d 304f 85bd
00000320: 1486 9bbc 5d5f 90bd 5798 953d 8f9d bfbd
00000330: 3fdf b33d 37d4 d63d 27cc 313c 364e 1abe
00000340: 5350 a5bc a84f 7abe cec3 04bc 8e5f 9bbd
00000350: 0408 b6bd 427f a83d c274 13bd 11ce a43d
00000360: 70eb 8cbc 1831 39bc 78bc 36bc e7da 13bc
00000370: 0c1b 413b 66c6 bcba 6922 25bb bf14 01bc
00000380: 7032 c7bc d42e cfbb 4dd6 c13b f6de 473b
00000390: 0a93 94bb bc93 60bc 99d2 ef3a bb84 7d3b
000003a0: 4f2a bb3b 76e9 a33b 00a7 eb3b 7976 cc3a
000003b0: 8e66 50bc 805a 10bc 5cbe 1ebc 766c 8fbb
000003c0: da90 b6b9 5623 61bc c12f dfbb 43f0 f3bb
000003d0: e9ab 6c3c 3a56 683b 0193 b0bb fdf1 22bc
000003e0: 2df7 ba3b c487 abba e099 c2b9 2ec6 fdbb
000003f0: b64a 273d d1d8 f43b f7de cabc c67f c3bc
0.008157934 -0.0020416712 -0.0031865635 0.0026328843 -0.0033190069 -0.009823012 -0.01088227 0.012909066
0.0024568336 0.006684256 -0.016130127 -0.010631625 0.03183555 -0.041169792 0.0024135106 0.014532128
0.004052878 0.014363149 0.0050499192 0.0008614535 -0.062295847 -0.018249787 -0.011805378 -0.010754125
-0.002103324 -0.023971725 -0.0011905916 -0.01172618 0.017980982 0.0029062224 -0.0017629112 0.017202366
0.009833561 0.00023468956 -0.01750674 0.010895784 0.065636806 -0.027653422 0.031699486 0.010070827
-0.0031880417 -0.009917941 0.033798914 0.05866683 -7.471163e-05 0.008126017 0.015104003 0.0281546
-0.018240932 0.008258691 0.04151956 0.02183379 0.015632773 -0.012610909 0.005735843 0.09579889
-0.01208412 -0.02521447 0.019897103 0.0006864276 0.012561597 -0.01925435 0.011278431 -0.041799784
0.017099265 -0.026932854 0.08188649 0.03501572 0.00439761 -0.04996914 0.012702434 0.017799234
-0.0055352584 -0.005170623 0.006443673 0.00832615 -0.010402353 -0.0032625329 -0.0033436755 -0.008996789
-0.0070173694 0.019701036 0.0012143126 0.0019000918 0.007574032 -0.012181796 -0.0011752789 0.010075413
0.0068391096 0.009973369 -0.01947726 -0.014906405 0.006270077 0.000103070866 -0.025048427 -0.0021532914
0.0016156429 0.017611925 -0.0030133217 0.0018473841 0.00466187 -0.021033343 -0.017883841 -0.0095724
0.015112064 7.487068e-05 0.0014908111 -0.004396754 -0.0071424767 -0.007066624 -0.036160767 -0.010093371
0.006355958 -0.0048756474 -0.011789767 0.008556877 -0.008478753 0.0070603136 0.00089838606 -0.0021169882
-6.361e-05 -0.013899982 -0.017407766 0.001069848 -0.0035063329 -0.002694772 0.03875943 0.01490306
0.011338257 -0.022627056 -0.012778027 -0.033531833 -0.005514882 -0.016605726 -0.011654786 -0.002917925
-0.0060728933 -0.030795427 0.0007353625 0.0032573119 -0.007651887 0.004311718 -0.011469405 0.0015547909
0.044733975 -0.009754032 -0.008702267 -0.007037691 -0.010083261 0.015744036 -0.023257354 0.036448322
0.0012826425 -0.012362379 0.025735835 0.021385087 0.02197184 -0.09612971 -0.0065553375 0.006459699
0.02520006 -0.017331153 0.000847457 0.009444747 -0.051448144 -0.027117578 0.037208166 0.017898003
0.0061757006 -0.11030855 -0.0019467154 -0.0041035376 0.022946876 -0.035967976 0.032146864 0.0080961995
-0.009884892 0.017837852 -0.0027972916 0.018972455 0.10288739 0.011626085 0.00077578984 0.0039314013
0.023496466 -0.06843411 -0.029871924 -0.008505644 -0.17920375 0.01839215 0.0108330175 0.018720709
0.076139994 0.14973584 -0.060618266 0.05027331 -0.0703886 -0.026195787 0.058608506 -0.065092444
-0.018984832 -0.07049439 0.07304447 -0.09356224 0.08782815 0.104896955 0.010851896 -0.15068898
-0.020179903 -0.24444449 -0.008103324 -0.07586585 -0.088882476 0.082273975 -0.03600002 0.080471165
-0.01720211 -0.011303209 -0.011153333 -0.009024358 0.0029465584 -0.0014402389 -0.0025197512 -0.007878481
-0.024316043 -0.006322721 0.005915439 0.0030497885 -0.00453413 -0.013707098 0.0018297016 0.003868385
0.0057118307 0.005002196 0.007191539 0.0015599272 -0.012719763 -0.008810639 -0.00968894 -0.004376943
-0.00034821668 -0.013741335 -0.0068111126 -0.007444413 0.014445283 0.0035451786 -0.005388618 -0.00994539
0.005705735 -0.0013086726 -0.0003711721 -0.007744572 0.040842734 0.0074721356 -0.024764521 -0.023864638
