Python scripts/saved_models/M1.xes.model.pt (torch, 281086 bytes, 12 tensors)

batchnorm.weight f4 [100]
1.0 1.0 1.0 1.0 1.0 1.0 1.0 1.0
1.0 1.0 1.0 1.0 1.0 1.0 1.0 1.0
1.0 1.0 1.0 1.0 1.0 1.0 1.0 1.0
1.0 1.0 1.0 1.0 1.0 1.0 1.0 1.0
1.0 1.0 1.0 1.0 1.0 1.0 1.0 1.0
1.0 1.0 1.0 1.0 1.0 1.0 1.0 1.0
1.0 1.0 1.0 1.0 1.0 1.0 1.0 1.0
1.0 1.0 1.0 1.0 1.0 1.0 1.0 1.0
1.0 1.0 1.0 1.0 1.0 1.0 1.0 1.0
1.0 1.0 1.0 1.0 1.0 1.0 1.0 1.0
1.0 1.0 1.0 1.0 1.0 1.0 1.0 1.0
1.0 1.0 1.0 1.0 1.0 1.0 1.0 1.0
1.0 1.0 1.0 1.0
00000000: 0000 803f 0000 803f 0000 803f 0000 803f
00000010: 0000 803f 0000 803f 0000 803f 0000 803f
00000020: 0000 803f 0000 803f 0000 803f 0000 803f
00000030: 0000 803f 0000 803f 0000 803f 0000 803f
00000040: 0000 803f 0000 803f 0000 803f 0000 803f
00000050: 0000 803f 0000 803f 0000 803f 0000 803f
00000060: 0000 803f 0000 803f 0000 803f 0000 803f
00000070: 0000 803f 0000 803f 0000 803f 0000 803f
00000080: 0000 803f 0000 803f 0000 803f 0000 803f
00000090: 0000 803f 0000 803f 0000 803f 0000 803f
000000a0: 0000 803f 0000 803f 0000 803f 0000 803f
000000b0: 0000 803f 0000 803f 0000 803f 0000 803f
000000c0: 0000 803f 0000 803f 0000 803f 0000 803f
000000d0: 0000 803f 0000 803f 0000 803f 0000 803f
000000e0: 0000 803f 0000 803f 0000 803f 0000 803f
000000f0: 0000 803f 0000 803f 0000 803f 0000 803f
00000100: 0000 803f 0000 803f 0000 803f 0000 803f
00000110: 0000 803f 0000 803f 0000 803f 0000 803f
00000120: 0000 803f 0000 803f 0000 803f 0000 803f
00000130: 0000 803f 0000 803f 0000 803f 0000 803f
00000140: 0000 803f 0000 803f 0000 803f 0000 803f
00000150: 0000 803f 0000 803f 0000 803f 0000 803f
00000160: 0000 803f 0000 803f 0000 803f 0000 803f
00000170: 0000 803f 0000 803f 0000 803f 0000 803f
00000180: 0000 803f 0000 803f 0000 803f 0000 803f

batchnorm.bias f4 [100]
0.0 0.0 0.0 0.0 0.0 0.0 0.0 0.0
0.0 0.0 0.0 0.0 0.0 0.0 0.0 0.0
0.0 0.0 0.0 0.0 0.0 0.0 0.0 0.0
0.0 0.0 0.0 0.0 0.0 0.0 0.0 0.0
0.0 0.0 0.0 0.0 0.0 0.0 0.0 0.0
0.0 0.0 0.0 0.0 0.0 0.0 0.0 0.0
0.0 0.0 0.0 0.0 0.0 0.0 0.0 0.0
0.0 0.0 0.0 0.0 0.0 0.0 0.0 0.0
0.0 0.0 0.0 0.0 0.0 0.0 0.0 0.0
0.0 0.0 0.0 0.0 0.0 0.0 0.0 0.0
0.0 0.0 0.0 0.0 0.0 0.0 0.0 0.0
0.0 0.0 0.0 0.0 0.0 0.0 0.0 0.0
0.0 0.0 0.0 0.0
00000000: 0000 0000 0000 0000 0000 0000 0000 0000
00000010: 0000 0000 0000 0000 0000 0000 0000 0000
00000020: 0000 0000 0000 0000 0000 0000 0000 0000
00000030: 0000 0000 0000 0000 0000 0000 0000 0000
00000040: 0000 0000 0000 0000 0000 0000 0000 0000
00000050: 0000 0000 0000 0000 0000 0000 0000 0000
00000060: 0000 0000 0000 0000 0000 0000 0000 0000
00000070: 0000 0000 0000 0000 0000 0000 0000 0000
00000080: 0000 0000 0000 0000 0000 0000 0000 0000
00000090: 0000 0000 0000 0000 0000 0000 0000 0000
000000a0: 0000 0000 0000 0000 0000 0000 0000 0000
000000b0: 0000 0000 0000 0000 0000 0000 0000 0000
000000c0: 0000 0000 0000 0000 0000 0000 0000 0000
000000d0: 0000 0000 0000 0000 0000 0000 0000 0000
000000e0: 0000 0000 0000 0000 0000 0000 0000 0000
000000f0: 0000 0000 0000 0000 0000 0000 0000 0000
00000100: 0000 0000 0000 0000 0000 0000 0000 0000
00000110: 0000 0000 0000 0000 0000 0000 0000 0000
00000120: 0000 0000 0000 0000 0000 0000 0000 0000
00000130: 0000 0000 0000 0000 0000 0000 0000 0000
00000140: 0000 0000 0000 0000 0000 0000 0000 0000
00000150: 0000 0000 0000 0000 0000 0000 0000 0000
00000160: 0000 0000 0000 0000 0000 0000 0000 0000
00000170: 0000 0000 0000 0000 0000 0000 0000 0000
00000180: 0000 0000 0000 0000 0000 0000 0000 0000

batchnorm.running_mean f4 [100]
0.0 0.0 0.0 0.0 0.0 0.0 0.0 0.0
0.0 0.0 0.0 0.0 0.0 0.0 0.0 0.0
0.0 0.0 0.0 0.0 0.0 0.0 0.0 0.0
0.0 0.0 0.0 0.0 0.0 0.0 0.0 0.0
0.0 0.0 0.0 0.0 0.0 0.0 0.0 0.0
0.0 0.0 0.0 0.0 0.0 0.0 0.0 0.0
0.0 0.0 0.0 0.0 0.0 0.0 0.0 0.0
0.0 0.0 0.0 0.0 0.0 0.0 0.0 0.0
0.0 0.0 0.0 0.0 0.0 0.0 0.0 0.0
0.0 0.0 0.0 0.0 0.0 0.0 0.0 0.0
0.0 0.0 0.0 0.0 0.0 0.0 0.0 0.0
0.0 0.0 0.0 0.0 0.0 0.0 0.0 0.0
0.0 0.0 0.0 0.0
00000000: 0000 0000 0000 0000 0000 0000 0000 0000
00000010: 0000 0000 0000 0000 0000 0000 0000 0000
00000020: 0000 0000 0000 0000 0000 0000 0000 0000
00000030: 0000 0000 0000 0000 0000 0000 0000 0000
00000040: 0000 0000 0000 0000 0000 0000 0000 0000
00000050: 0000 0000 0000 0000 0000 0000 0000 0000
00000060: 0000 0000 0000 0000 0000 0000 0000 0000
00000070: 0000 0000 0000 0000 0000 0000 0000 0000
00000080: 0000 0000 0000 0000 0000 0000 0000 0000
00000090: 0000 0000 0000 0000 0000 0000 0000 0000
000000a0: 0000 0000 0000 0000 0000 0000 0000 0000
000000b0: 0000 0000 0000 0000 0000 0000 0000 0000
000000c0: 0000 0000 0000 0000 0000 0000 0000 0000
000000d0: 0000 0000 0000 0000 0000 0000 0000 0000
000000e0: 0000 0000 0000 0000 0000 0000 0000 0000
000000f0: 0000 0000 0000 0000 0000 0000 0000 0000
00000100: 0000 0000 0000 0000 0000 0000 0000 0000
00000110: 0000 0000 0000 0000 0000 0000 0000 0000
00000120: 0000 0000 0000 0000 0000 0000 0000 0000
00000130: 0000 0000 0000 0000 0000 0000 0000 0000
00000140: 0000 0000 0000 0000 0000 0000 0000 0000
00000150: 0000 0000 0000 0000 0000 0000 0000 0000
00000160: 0000 0000 0000 0000 0000 0000 0000 0000
00000170: 0000 0000 0000 0000 0000 0000 0000 0000
00000180: 0000 0000 0000 0000 0000 0000 0000 0000

batchnorm.running_var f4 [100]
1.0 1.0 1.0 1.0 1.0 1.0 1.0 1.0
1.0 1.0 1.0 1.0 1.0 1.0 1.0 1.0
1.0 1.0 1.0 1.0 1.0 1.0 1.0 1.0
1.0 1.0 1.0 1.0 1.0 1.0 1.0 1.0
1.0 1.0 1.0 1.0 1.0 1.0 1.0 1.0
1.0 1.0 1.0 1.0 1.0 1.0 1.0 1.0
1.0 1.0 1.0 1.0 1.0 1.0 1.0 1.0
1.0 1.0 1.0 1.0 1.0 1.0 1.0 1.0
1.0 1.0 1.0 1.0 1.0 1.0 1.0 1.0
1.0 1.0 1.0 1.0 1.0 1.0 1.0 1.0
1.0 1.0 1.0 1.0 1.0 1.0 1.0 1.0
1.0 1.0 1.0 1.0 1.0 1.0 1.0 1.0
1.0 1.0 1.0 1.0
00000000: 0000 803f 0000 803f 0000 803f 0000 803f
00000010: 0000 803f 0000 803f 0000 803f 0000 803f
00000020: 0000 803f 0000 803f 0000 803f 0000 803f
00000030: 0000 803f 0000 803f 0000 803f 0000 803f
00000040: 0000 803f 0000 803f 0000 803f 0000 803f
00000050: 0000 803f 0000 803f 0000 803f 0000 803f
00000060: 0000 803f 0000 803f 0000 803f 0000 803f
00000070: 0000 803f 0000 803f 0000 803f 0000 803f
00000080: 0000 803f 0000 803f 0000 803f 0000 803f
00000090: 0000 803f 0000 803f 0000 803f 0000 803f
000000a0: 0000 803f 0000 803f 0000 803f 0000 803f
000000b0: 0000 803f 0000 803f 0000 803f 0000 803f
000000c0: 0000 803f 0000 803f 0000 803f 0000 803f
000000d0: 0000 803f 0000 803f 0000 803f 0000 803f
000000e0: 0000 803f 0000 803f 0000 803f 0000 803f
000000f0: 0000 803f 0000 803f 0000 803f 0000 803f
00000100: 0000 803f 0000 803f 0000 803f 0000 803f
00000110: 0000 803f 0000 803f 0000 803f 0000 803f
00000120: 0000 803f 0000 803f 0000 803f 0000 803f
00000130: 0000 803f 0000 803f 0000 803f 0000 803f
00000140: 0000 803f 0000 803f 0000 803f 0000 803f
00000150: 0000 803f 0000 803f 0000 803f 0000 803f
00000160: 0000 803f 0000 803f 0000 803f 0000 803f
00000170: 0000 803f 0000 803f 0000 803f 0000 803f
00000180: 0000 803f 0000 803f 0000 803f 0000 803f

lstm.weight_ih_l0 f4 [400, 36]
-0.007697181 -0.03609885 0.05433868 0.04632304 -0.0024962875 -0.025505127 0.01128108 -0.02110556
0.24151088 0.06401338 -0.03216518 -0.021033602 0.018014362 0.38873857 0.0004436301 0.3389771
0.16696759 0.088246375 -0.17185442 0.0055691027 0.012427354 0.00852116 0.0015125123 0.01745152
-0.04716765 -0.14217216 0.00019618729 -0.033251394 -0.09067958 -0.3318214 0.008496585 -0.2389517
-0.0004974856 -0.0073919636 -0.049425658 0.00052361214 0.75740385 0.2356604 0.05351336 -0.9542914
0.32837296 -0.4114677 -0.46676132 0.7714362 0.48673382 -0.5068972 0.16195247 -0.15119793
-1.001425 0.510225 0.015128339 -0.121934816 -0.6154424 1.5354916 0.75323516 1.0530757
0.61513776 -0.3563193 -0.3979678 -0.15541118 -0.3509267 -0.9129925 -0.080517955 -0.20214462
0.5810587 -1.3724115 0.43427378 0.6364142 1.3229663 0.14227211 -0.09212923 0.09393609
0.011130317 -0.0032099662 -0.0032397446 -0.07760413 -0.015611253 -0.009299406 0.06703298 0.03367696
0.035731744 0.017361848 0.023623357 -0.026777089 -0.02367485 -0.0013672356 0.01938418 -0.059754882
-0.019707438 -0.023506753 -0.0040425407 0.046713874 0.009996309 0.00065452687 0.092773296 -0.0029349702
-0.06696983 -0.012284686 0.074406624 0.00022690353 0.15041357 -0.1194632 -0.028114095 -0.061146047
-0.010843367 -0.048116717 -0.008368506 -0.020486388 -0.8862222 -1.7171835 0.45608073 -1.9844004
-0.19068202 1.9557062 0.111484386 -0.090835296 -0.48731607 -0.5459099 -0.78083944 -0.11722957
-0.09654363 -1.3311378 0.0025640912 3.0834591 0.61502373 0.93295497 0.59411645 1.2933978
0.13196787 0.5759656 1.5931283 -0.39791456 -0.041298054 -0.47566968 0.4827473 2.4441466
-1.1409678 -0.9262833 0.09940555 -0.94486654 -0.4886381 0.0915633 0.7828142 0.46296406
-0.06117517 -0.033928487 -0.055111326 -0.08279264 0.007982754 -0.07768288 -0.020825893 -0.05892215
0.12541726 -0.008911828 -0.10418301 -0.03258028 -0.09858873 -0.05746543 -0.07221671 -0.18352744
-0.1580258 -0.26231378 -0.19728665 -0.13271561 -0.04034197 -0.052069552 -0.16975386 -0.16730921
-0.058375526 -0.14516006 -0.17649777 -0.03388096 -0.21170688 -0.24531163 -0.004818732 -0.1602931
-0.081511326 -0.11765223 -0.06848276 -0.020725384 0.17315468 0.10353528 0.6026295 -0.50381017
-0.07241985 -0.0022516898 -0.85673696 -0.21625128 0.6336008 1.4381564 -0.076767474 0.28500876
0.0009657433 0.2468442 -0.062154643 -0.16729209 -0.524624 -0.24572058 -0.49529925 1.7653985
-0.17876308 -0.49926892 0.284896 -0.53625864 -0.53389597 0.018262058 0.0917069 -0.2606007
0.3329901 -0.19470909 0.649561 -0.5825327 -0.32506362 -0.2584698 -0.123686776 -0.15316342
-0.10072121 -0.11948792 -0.043404218 -0.07426817 -0.043765694 -0.021208014 0.07774768 -0.04744851
-0.020877996 0.13782535 -0.11673928 0.01504095 -0.11703106 -0.058084857 -0.04680771 -0.06575583
-0.08588111 -0.018802607 -0.19192164 -0.037280243 -0.031845182 0.0027770444 -0.023602312 -0.08222631
-0.06186041 -0.07983315 -0.039603215 -0.120100945 -0.038582385 -0.16145034 0.27300376 -0.06694421
-0.07270825 -0.07676346 -0.118826814 -0.030540582 -0.047310233 0.0068639247 -0.038038358 0.008834324
00000000: a238 fcbb 63dc 13bd 3c92 5e3d 3abd 3d3d
00000010: c198 23bb 21f0 d0bc 47d4 383c 91e5 acbc
00000020: a14e 773e 7219 833d a3bf 03bd a94e acbc
00000030: db92 933c be08 c73e 0697 e839 688e ad3e
00000040: 8df9 2a3e 84ba b43d 9bfa 2fbe 057d b63b
00000050: 1a9c 4b3c 569c 0b3c 7e3f c63a 7df6 8e3c
00000060: de32 41bd 9495 11be a0b7 4d39 9d32 08bd
00000070: 37b6 b9bd 7fe4 a9be 4335 0b3c c1af 74be
00000080: b269 02ba 4938 f2bb 8f72 4abd 0443 093a
00000090: 38e5 413f f650 713e d330 5b3d 714c 74bf
000000a0: 8020 a83e e5ab d2be 57fb eebe d87c 453f
000000b0: 2d35 f93e 04c4 01bf ded6 253e a1d3 1abe
000000c0: b22e 80bf 1b9e 023f dadc 773c f6b8 f9bd
000000d0: a28d 1dbf fd8a c43f 05d4 403f 2fcb 863f
000000e0: ab79 1d3f 7c6f b6be 6fc2 cbbe 1c24 1fbe
000000f0: aaac b3be e0b9 69bf 99e6 a4bd 00ff 4ebe
00000100: 43c0 143f 2eab afbf 2259 de3e 0aec 223f
00000110: f656 a93f c8af 113e 40ae bcbd 9161 c03d
00000120: ef5b 363c 4c5e 52bb e551 54bb eaee 9ebd
00000130: 57c6 7fbc 895c 18bc 9648 893d daf0 093d
00000140: 735b 123d 6f3a 8e3c c585 c13c a05b dbbc
00000150: c2f1 c1bc d034 b3ba 92cb 9e3c 89c1 74bd
00000160: 7e71 a1bc 3c91 c0bc 4a77 84bb 0c57 3f3d
00000170: 8fc7 233c 8e94 2b3a edff bd3d a158 40bb
00000180: 7a27 89bd b545 49bc 8062 983d f4ec 6d39
00000190: 0406 1a3e 1fa9 f4bd 884f e6bc 4774 7abd
000001a0: 61a8 31bc 0916 45bd 0f1c 09bc 12d3 a7bc
000001b0: 75df 62bf abcc dbbf 6a83 e93e d500 febf
000001c0: 2642 43be 9554 fa3f ed51 e43d db07 babd
000001d0: 7e81 f9be c0c0 0bbf 18e5 47bf 0f16 f0bd
000001e0: abb8 c5bd b962 aabf 500a 283b 6557 4540
000001f0: 3272 1d3f 23d6 6e3f 0418 183f 0f8e a53f
00000200: 9622 073e 7b72 133f a1eb cb3f 75bb cbbe
00000210: 2628 29bd fa8a f3be a72a f73e e66c 1c40
00000220: 3c0b 92bf e720 6dbf 2395 cb3d c6e2 71bf
00000230: c62e fabe 8a85 bb3d 8366 483f a009 ed3e
00000240: d192 7abd 99f8 0abd 6abc 61bd 308f a9bd
00000250: 19ca 023c 3418 9fbd 109b aabc 5a58 71bd
00000260: 626d 003e ea02 12bc e75d d5bd e672 05bd
00000270: e3e8 c9bd df60 6bbd 5be6 93bd 9eee 3bbe
00000280: 84d1 21be fe4d 86be 8305 4abe 9ae6 07be
00000290: 9f3d 25bd e246 55bd f5d3 2dbe 1b53 2bbe
000002a0: 2d1b 6fbd d7a4 14be d5bb 34be c3c6 0abd
000002b0: b0c9 58be f932 7bbe 74e6 9dbb e023 24be
000002c0: 69ef a6bd a7f3 f0bd b040 8cbd 48c8 a9bc
000002d0: 764f 313e 4e0a d43d ed45 1a3f b4f9 00bf
000002e0: dc50 94bd 1691 13bb 1d53 5bbf fa70 5dbe
000002f0: a933 223f 8215 b83f 4438 9dbd abec 913e
00000300: f029 7d3a bac4 7c3e de95 7ebd 9e4e 2bbe
00000310: c24d 06bf 2d9e 7bbe dd97 fdbe 94f8 e13f
00000320: ab0d 37be 2da0 ffbe e3dd 913e 3f48 09bf
00000330: 68ad 08bf 509a 953c d4d0 bb3d 746d 85be
00000340: ae7d aa3e d261 47be a149 263f dd20 15bf
00000350: bd6e a6be 2756 84be 7e4f fdbd dfd6 1cbe
00000360: ec46 cebd 15b6 f4bd 9fc8 31bd e919 98bd
00000370: a843 33bd 6ebc adbc 2d3a 9f3d 5e59 42bd
00000380: 5508 abbc 1722 0d3e 0115 efbd 516e 763c
00000390: fbad efbd 63ea 6dbd 71b9 3fbd feaa 86bd
000003a0: 6fe2 afbd ed07 9abc 1b87 44be 2bb3 18bd
000003b0: 1870 02bd 13ff 353b a359 c1bc 4566 a8bd
000003c0: 5761 7dbd 907f a3bd fb36 22bd 7cf7 f5bd
000003d0: 9008 1ebd 3d53 25be 26c7 8b3e 0c1a 89bd
000003e0: 10e8 94bd 2936 9dbd 795b f3bd 3e30 fabc
000003f0: 60c8 41bd c6ea e03b 1cce 1bbd d7bd 103c

lstm.weight_hh_l0 f4 [400, 100]
-0.0648847 -0.01080149 -0.002704741 0.020506155 0.003149994 0.0077419183 -0.0053091017 -0.0029880179
-0.0019979808 -0.0025903548 0.0023070674 0.00900069 -0.074144915 -0.0017084994 0.0828274 -0.017202953
-0.0073694754 -0.038830504 0.0003130508 0.004778802 0.006762322 0.3582107 -0.044394646 -0.016327703
0.039469894 0.0025826541 0.0036861608 0.02498828 -0.007061766 -0.0074225673 0.0009503391 0.0004882281
-0.09692429 -0.44113004 -0.088937595 -0.005048538 0.16092797 -0.01085111 0.039560065 -0.0075794025
-0.033924095 -0.0068789716 -0.027205506 0.0028061166 -0.12057483 -0.324982 0.004368287 0.008413315
0.0025905191 -0.016343234 -0.20980798 -0.080642164 0.27706352 -0.007933286 -0.043264657 0.0038263486
-0.0002307313 -0.050843883 -5.5754586e-05 0.0061345925 -0.089049235 -0.08575227 -0.69059163 -0.04470348
0.0047883103 0.018400535 0.10249751 -0.06672686 -0.015483 -0.006898306 -0.0051262686 -0.0028100857
0.0004307404 0.0035539465 0.017696494 -0.14480563 0.010932944 -0.10862655 0.042163778 0.007592136
0.005263885 -0.028167762 -0.00028006197 0.016606497 0.02175769 0.006402217 0.12227574 -0.03111597
-0.010112994 0.0008039527 -0.053556718 -0.005115764 -0.17998488 0.002250939 0.0017257883 -0.065728985
-0.0029839799 0.06552771 -0.026495028 -0.0017435753 -0.012312712 0.16968077 0.04866086 0.24553397
-0.03381428 -0.049866945 -0.019060262 -0.0030944399 -0.035571758 -0.0064051533 0.020882241 -0.19911666
1.5170944 -0.03247157 0.38725713 0.18478712 0.66880995 -0.5497166 -0.15805961 0.030520216
0.013615591 -1.3925581 -0.09990247 1.0929494 0.18643552 -0.0055685416 -0.009759271 0.48017225
0.028038796 0.034992937 0.00033230396 -0.0058190715 0.14936653 0.17842369 -1.2557032 0.021191224
-0.9011606 -0.010553142 -0.13243166 -0.27066752 0.6901845 0.037364233 -0.015010389 0.014758713
-0.28661913 0.4712301 -0.01746319 0.065336145 -0.0037984801 0.11188276 -0.4047795 0.13019328
-1.6011101 -0.03680059 2.5948782 -0.00026684743 0.0027976925 -0.33253452 -0.011362366 -0.013699205
0.99465877 1.0004063 0.57955354 0.01634087 -0.018687729 -0.2586679 0.043923672 0.049061738
0.17581445 -0.031631876 -0.018808888 0.024900012 0.004844961 0.008425408 0.7206111 -0.26672822
-0.019242086 -1.0866863 -1.9789174 0.012260905 0.017564904 -0.8727307 -0.022353195 -0.13795325
0.2719683 -0.027349068 -0.05389144 -0.028090557 -1.4275565 -0.012430189 -0.7292666 -0.033369977
-0.15331908 0.024412705 0.0008049575 -0.61319137 -0.0077247163 -0.3243869 -0.670389 0.00951016
0.00056537805 -0.014526393 0.00056882825 -0.009945245 6.9725094e-05 0.000786865 -0.00037010462 -0.0014849592
-0.00074397447 -0.0006691214 0.00087175396 -0.002700604 0.03963587 -0.0014755607 0.028854594 -0.0027199925
0.00021357267 -0.005283663 -0.017960014 0.0015607377 0.0020390013 -0.06589764 -0.044638306 -0.0011758702
-0.048319183 0.0008734725 -0.00014048317 -0.008910538 -0.00012041367 9.736046e-05 0.0005327168 -0.00036380804
0.038645636 -0.0008958318 0.015885333 -0.00027595734 0.0075421035 -0.0011627126 0.004492498 0.028246181
-0.0011007827 0.00037788955 0.005985438 0.0008645138 0.026344068 -0.03126564 0.0022739961 0.0012442962
0.00052843784 0.0008942446 0.020200491 0.017786795 -0.004908244 -0.0022732173 0.02021328 0.0004822957
00000000: 45e2 84bd bcf8 30bc 0642 31bb 86fc a73c
00000010: 2170 4e3b ebaf fd3b f9f7 adbb 9fd2 43bb
00000020: 8ef0 02bb f1c2 29bb 2b32 173b a177 133c
00000030: 4ad9 97bd baef dfba 69a1 a93d 35ed 8cbc
00000040: a47b f1bb bc0c 1fbd f820 a439 7f97 9c3b
00000050: 7896 dd3b 6567 b73e 29d7 35bd adc1 85bc
00000060: 2fab 213d bf41 293b 8493 713b 39b4 cc3c
00000070: 6366 e7bb 0239 f3bb 2d20 793a def8 ff39
00000080: 3e80 c6bd ccdb e1be ea24 b6bd 356e a5bb
00000090: 4dca 243e dbc8 31bc bc09 223d a35c f8bb
000000a0: fef3 0abd ff68 e1bb 15de debc d3e6 373b
000000b0: f0ef f6bd 0a64 a6be d923 8f3b 00d8 093c
000000c0: b3c5 293b 3fe2 85bc e7d7 56be b827 a5bd
000000d0: 45db 8d3e 9dfa 01bc 4836 31bd 7ac3 7a3b
000000e0: 76f0 71b9 ad41 50bd 08da 69b8 b104 c93b
000000f0: 725f b6bd e39e afbd 9dca 30bf ff1a 37bd
00000100: 42e7 9c3b b8bc 963c 37ea d13d 18a8 88bd
00000110: 69ac 7dbc 2f0b e2bb 42fa a7bb 6a29 38bb
00000120: ffd4 e139 54e9 683b 3df8 903c ed47 14be
00000130: 1720 333c 9977 debd edb3 2c3d 74c7 f83b
00000140: ab7c ac3b 14c0 e6bc 48d5 92b9 590a 883c
00000150: 2f3d b23c b0c9 d13b b46b fa3d ebe6 febc
00000160: f9b0 25bc 5ac0 523a 4a5e 5bbd 24a2 a7bb
00000170: f54d 38be 7d84 133b d933 e23a eb9c 86bd
00000180: e08e 43bb 6433 863d 1a0c d9bc ae88 e4ba
00000190: 42bb 49bc ccc0 2d3e 9c50 473d 426d 7b3e
000001a0: d880 0abd 4841 4cbd 4424 9cbc 16cc 4abb
000001b0: b1b3 11bd 52e2 d1bb 3c11 ab3c 3de5 4bbe
000001c0: 2630 c23f e900 05bd 9146 c63e d638 3d3e
000001d0: 2137 2b3f 3aba 0cbf 61da 21be 8805 fa3c
000001e0: ee13 5f3c 583f b2bf ab99 ccbd c4e5 8b3f
000001f0: f4e8 3e3e 5078 b6bb 59e5 1fbc 23d9 f53e
00000200: 9eb1 e53c c154 0f3d 1539 ae39 e9ad bebb
00000210: 8af3 183e b3b4 363e e2ba a0bf 3899 ad3c
00000220: 76b2 66bf 16e7 2cbc 2a9c 07be ef94 8abe
00000230: eeaf 303f 3d0b 193d 22ee 75bc 87ce 713c
00000240: bebf 92be 1245 f13e f70e 8fbc f5ce 853d
00000250: ecef 78bb ca22 e53d 423f cfbe 6351 053e
00000260: 2df1 ccbf 37bc 16bd 7c12 2640 a8e7 8bb9
00000270: 7e59 373b f741 aabe 3829 3abc a172 60bc
00000280: f5a1 7e3f 500d 803f 9f5d 143f 4add 853c
00000290: 0217 99bc 1e70 84be 4fe9 333d f6f4 483d
000002a0: b408 343e 6d90 01bd 1915 9abc 1cfb cb3c
000002b0: 7bc2 9e3b b90a 0a3c f879 383f 9a90 88be
000002c0: 94a1 9dbc 8918 8bbf 2a4d fdbf f6e1 483c
000002d0: 46e4 8f3c 476b 5fbf 0c1e b7bc 9e43 0dbe
000002e0: 6e3f 8b3e 270b e0bc 45bd 5cbd 2b1e e6bc
000002f0: 2cba b6bf fea7 4bbc 37b1 3abf f5ae 08bd
00000300: adff 1cbe 27fd c73c c903 533a 1cfa 1cbf
00000310: 9e1f fdbb 0a16 a6be 9d9e 2bbf 81d0 1b3c
00000320: e135 143a 1c00 6ebc 6b1d 153a 62f1 22bc
00000330: 6039 9238 9e45 4e3a 9a0a c2b9 f6a2 c2ba
00000340: 4807 43ba fa67 2fba 6b86 643a 9efc 30bb
00000350: 3959 223d 9a67 c1ba 7860 ec3c e741 32bb
00000360: 7af2 5f39 9422 adbb e120 93bc ab91 cc3a
00000370: c4a0 053b 58f5 86bd a8d6 36bd a81f 9aba
00000380: 56ea 45bd bff9 643a aa4e 13b9 81fd 11bc
00000390: 9986 fcb8 002e cc38 05a6 0b3a 7dbd beb9
000003a0: e34a 1e3d 41d6 6aba f521 823c 5eae 90b9
000003b0: c023 f73b 2966 98ba ce35 933b 8964 e73c
000003c0: 2348 90ba 7a1f c639 7e21 c43b 8aa0 623a
000003d0: 84cf d73c 6610 00bd 5307 153b a717 a33a
000003e0: dd86 0a3a bd6b 6a3a 807b a53c 9db5 913c
000003f0: 56d5 a0bb 42fa 14bb 5296 a53c a2dc fc39

lstm.bias_ih_l0 f4 [400]
-0.9895205 -0.38347775 -0.8039216 -1.0116779 -1.1192344 -0.41204563 -0.9809611 -0.85957384
-0.8357957 -0.84952843 -0.8641109 -0.93474436 -0.9715138 -1.123905 -0.30560628 -0.9976769
-0.97203267 -0.41176522 -0.0934986 -0.9491308 -0.9078839 -1.2256186 -0.50656366 -1.1120862
-0.8247534 -0.9121019 -0.9022474 -0.56762016 -0.86569315 -0.8890021 -0.832243 -1.0881963
-0.82582223 -1.2887899 -1.2162905 -0.9020563 -1.0635625 -0.8693753 -0.87632835 -1.0309966
-0.431439 -0.9552994 -0.7402355 -0.8371949 -0.904348 -0.9213118 -0.88142246 -0.97046906
-0.9198415 -0.32333812 -1.260758 -1.1482656 -0.905643 -0.9021326 -0.7377939 -0.8181799
-0.9530403 -1.0000179 -0.911967 -0.8954049 -0.76537395 -1.2569269 -0.7319993 -1.3253912
-0.89006823 -1.1894995 -1.0282464 -0.8512437 -0.66480255 -0.8909836 -0.99215454 -0.9266791
-1.0219933 -0.9270173 0.41016906 -1.7769411 -0.8413304 -1.3156028 -0.7397832 -0.8594341
-0.85333866 -0.96062136 -0.8298718 -0.5998284 -0.5288563 -0.9206314 -0.74268794 -1.4350448
-0.5840067 -0.8538044 -0.41953558 -0.8017903 -0.9589722 -0.9232351 -0.8432489 -1.6025616
-0.8691123 -1.0918306 -0.1773177 -0.85470647 -0.902687 0.12749046 -0.32483 0.7583531
-0.4094233 -0.6561088 -0.353409 -0.2906006 -0.30686945 -0.23579726 -0.2978472 -0.86104
1.3089744 -0.54276085 -0.005680036 1.2964436 0.46401098 -1.2285081 0.49305028 -0.33081457
-0.3725815 1.44679 -0.43725616 -0.7838174 1.6698765 -0.2830294 -0.39650118 -0.69378966
-0.26251802 -0.25131997 -0.2181084 -0.3244101 0.330107 1.48149 1.1780257 -0.25919545
1.3360459 -0.27963048 -0.68103087 0.98585016 -1.0474458 -0.3135537 1.1424383 -0.20210187
0.32008865 1.8215387 -0.2868762 -0.44167697 -0.2883878 -0.84669536 1.6783376 1.9794174
1.6801186 -0.31267735 0.20356934 -0.24609423 -0.29438633 -0.5224844 -0.207815 -0.2489002
0.093564555 1.7233868 2.1498227 1.5319502 -0.2869184 2.128714 0.79445016 0.84281385
-0.51388544 -0.32510477 -0.624104 -0.23910937 -0.22030245 -0.29446238 -0.7723086 1.3414676
-0.25453928 2.2274168 0.31237063 -0.25197563 -0.29384243 1.4644935 -0.25078171 -0.35815647
-1.2303365 -0.23559462 2.6450384 1.1129557 0.41704616 -0.12684987 0.7380324 -0.40133843
1.2659948 -0.3099489 -0.19423905 2.1898525 -0.28383845 2.1456642 1.4729574 -0.26871738
0.04117399 -0.22476682 -0.059158064 -0.15732205 0.02155374 -0.11560873 -0.23341928 -0.0005023307
-0.054850765 -0.0407794 -0.030521259 -0.42616034 -0.5275043 0.010532871 -0.1377204 -0.27655408
-0.2549206 -0.24259445 0.40223494 0.043373547 0.03077685 0.3544232 -0.14636561 -0.40238705
-0.19149998 0.012216433 -0.07145172 -0.016213777 0.010042167 0.054550976 0.03505466 0.031852666
-0.092534274 -0.102471 0.6227991 -0.031907704 0.0074189883 -0.02713871 -0.14604336 -2.046477
-0.28287232 0.024692975 0.018642662 -0.024107361 0.07594213 -0.25532088 0.061026245 0.041345403
0.019957477 -0.27349907 -0.29672018 0.12432468 0.4842438 -0.022881376 -0.51215065 -0.034120195
00000000: 3751 7dbf 3257 c4be cecd 4dbf a97e 81bf
00000010: 1343 8fbf a5f7 d2be 4420 7bbf 080d 5cbf
00000020: b5f6 55bf b27a 59bf 5f36 5dbf 684b 6fbf
00000030: 21b5 78bf 1edc 8fbf 6d78 9cbe c167 7fbf
00000040: 22d7 78bf e4d2 d2be 327c bfbd 3cfa 72bf
00000050: 146b 68bf 12e1 9cbf 28ae 01bf d758 8ebf
00000060: 0a23 53bf 837f 69bf b0f9 66bf 8e4f 11bf
00000070: 119e 5dbf a495 63bf e10d 55bf 044a 8bbf
00000080: 1669 53bf 11f7 a4bf 68af 9bbf 29ed 66bf
00000090: d122 88bf 618f 5ebf 0e57 60bf b2f7 83bf
000000a0: 93e5 dcbe 808e 74bf 1380 3dbf 6852 56bf
000000b0: 5a83 67bf 17db 6bbf e7a4 61bf a970 78bf
000000c0: bc7a 6bbf 938c a5be 8560 a1bf 5efa 92bf
000000d0: 38d8 67bf 29f2 66bf 10e0 3cbf 3d74 51bf
000000e0: 73fa 73bf 9600 80bf ab76 69bf 4139 65bf
000000f0: 8cef 43bf fbe2 a0bf 4e64 3bbf 6ba6 a9bf
00000100: 83db 63bf 8541 98bf 949d 83bf 1beb 59bf
00000110: 8030 2abf 8017 64bf d7fd 7dbf d73a 6dbf
00000120: add0 82bf 0151 6dbf ae01 d23e ce72 e3bf
00000130: 6e61 57bf ac65 a8bf 6f62 3dbf e003 5cbf
00000140: 6774 5abf 48eb 75bf 7a72 54bf 5b8e 19bf
00000150: 2063 07bf 80ae 6bbf cc20 3ebf 8caf b7bf
00000160: 7781 15bf ed92 5abf 5ecd d6be 2142 4dbf
00000170: 347f 75bf 2359 6cbf 29df 57bf bd20 cdbf
00000180: 257e 5ebf 1bc1 8bbf c592 35be 0bce 5abf
00000190: 7f16 67bf dc8c 023e 1e50 a6be 6e23 423f
000001a0: ee9f d1be bff6 27bf 06f2 b4be 9ac9 94be
000001b0: fe1d 9dbe d674 71be 6e7f 98be 1e6d 5cbf
000001c0: 798c a73f 60f2 0abf 981f babb ddf1 a53f
000001d0: d992 ed3e c13f 9dbf 1671 fc3e 8760 a9be
000001e0: 01c3 bebe 6a30 b93f 0ae0 dfbe 42a8 48bf
000001f0: 83be d53f 3be9 90be 3402 cbbe 339c 31bf
00000200: c368 86be 03ad 80be cf57 5fbe 1519 a6be
00000210: c903 a93e 77a1 bd3f 8cc9 963f 44b5 84be
00000220: 8d03 ab3f ba2b 8fbe 0a58 2ebf ad60 7c3f
00000230: b412 86bf 1c8a a0be 6b3b 923f cbf3 4ebe
00000240: a9e2 a33e 2e28 e93f 70e1 92be 7c23 e2be
00000250: 91a7 93be 07c1 58bf c4d3 d63f 8d5d fd3f
00000260: 200e d73f 3f17 a0be 7b74 503e 2000 7cbe
00000270: ceb9 96be 8ac1 05bf 75cd 54be b2df 7ebe
00000280: c69e bf3d f097 dc3f b296 0940 f216 c43f
00000290: f8e6 92be da3c 0840 1661 4b3f a6c2 573f
000002a0: ff8d 03bf 2274 a6be 48c5 1fbf 16d9 74be
000002b0: f796 61be c6c3 96be 04b6 45bf 36b5 ab3f
000002c0: f952 82be ff8d 0e40 0bef 9f3e f302 81be
000002d0: 8472 96be 8674 bb3f 7666 80be 4960 b7be
000002e0: ab7b 9dbf b73f 71be 4f48 2940 5575 8e3f
000002f0: 1387 d53e efe4 01be b1ef 3c3f 3b7c cdbe
00000300: 1e0c a23f 9fb1 9ebe 9ae6 46be 8b26 0c40
00000310: 4653 91be 9052 0940 de89 bc3f 5395 89be
00000320: 0fa6 283d 4629 66be ba4f 72bd 0819 21be
00000330: 7891 b03c 45c4 ecbd 7705 6fbe d8ae 03ba
00000340: 32ab 60bd 4d08 27bd b807 fabc b031 dabe
00000350: 860a 07bf 1092 2c3c 9406 0dbe 7f98 8dbe
00000360: f484 82be ae6a 78be bdf1 cd3e 76a8 313d
00000370: bc1f fc3c f576 b53e dee0 15be ad05 cebe
00000380: 9218 44be 6f27 483c 4855 92bd c1d2 84bc
00000390: e787 243c d870 5f3d 7a95 0f3d f177 023d
000003a0: 9c82 bdbd 51dc d1bd c36f 1f3f a7b1 02bd
000003b0: fc1a f33b 0052 debc 648c 15be 7bf9 02c0
000003c0: a4d4 90be ec48 ca3c 7fb8 983c cd7c c5bc
000003d0: 8c87 9b3d 6bb9 82be a8f6 793d cc59 293d
000003e0: dd7d a33c 1208 8cbe b5eb 97be f09d fe3d
000003f0: ceee f73e b971 bbbc 4e1c 03bf 9ec1 0bbd

lstm.bias_hh_l0 f4 [400]
-0.9571624 -0.31734455 -0.7862037 -1.0330521 -1.1180313 -0.4331896 -0.99419147 -0.8862102
-0.86678344 -0.85553116 -0.85682887 -0.95756596 -0.9514396 -1.1163714 -0.24420062 -1.0719295
-0.96205264 -0.35720688 0.0006154934 -0.93713194 -0.9104008 -1.2377197 -0.5209817 -1.1226541
-0.8231526 -0.88894296 -0.90870386 -0.5318655 -0.89121544 -0.8749105 -0.85757524 -1.0905874
-0.8575982 -1.3081686 -1.1056801 -0.9118483 -1.1019017 -0.8764234 -0.87355 -1.0081537
-0.4391865 -0.9687144 -0.73723614 -0.8273733 -0.8324875 -1.0250205 -0.8623534 -0.9506322
-0.9387033 -0.3124487 -1.222256 -1.1220261 -0.9476778 -0.89547896 -0.81964105 -0.8248999
-0.9567489 -1.0520631 -0.93078023 -0.92326486 -0.7258932 -1.3056923 -0.6381725 -1.2523388
-0.8842702 -1.1709324 -1.0246426 -0.84177893 -0.67531794 -0.85602254 -0.9647681 -0.9284706
-1.0313656 -0.94410425 0.36556908 -1.7812825 -0.83869475 -1.3458956 -0.7687245 -0.84888583
-0.8792941 -0.97845227 -0.80571616 -0.5206609 -0.5561699 -0.915345 -0.7468981 -1.4255506
-0.5437213 -0.8492581 -0.420068 -0.78718656 -0.95319706 -0.8969751 -0.85855174 -1.5481547
-0.90411985 -1.0652362 -0.17473227 -0.8686555 -0.901958 0.14939608 -0.32407525 0.73705673
-0.41074836 -0.6557338 -0.3577462 -0.29096624 -0.30796275 -0.23586576 -0.29809004 -0.8659505
1.3106058 -0.54067624 -0.0071246773 1.3186325 0.4523909 -1.2290455 0.52168185 -0.33090004
-0.3725314 1.4395468 -0.43856558 -0.78399014 1.6822708 -0.28347906 -0.398509 -0.6969154
-0.26309016 -0.25132945 -0.21834143 -0.32436702 0.3667326 1.4714731 1.2050172 -0.25933343
1.3496971 -0.27978235 -0.68284845 1.0225489 -1.0463663 -0.31352794 1.1707528 -0.20528536
0.32906908 1.7955731 -0.2879192 -0.4425649 -0.28865704 -0.84713805 1.7339162 2.00641
1.6690198 -0.31333876 0.22854379 -0.24603821 -0.2859215 -0.5165159 -0.20780799 -0.24894045
0.1118542 1.7897892 2.143061 1.5358036 -0.28764445 2.1326895 0.7837154 0.828771
-0.5137572 -0.3249806 -0.62444353 -0.23905729 -0.22025186 -0.29454008 -0.78061205 1.3716457
-0.2544155 2.23149 0.30501193 -0.25196245 -0.29206187 1.4558192 -0.24862525 -0.3195195
-1.231011 -0.23556024 2.6482184 1.10548 0.43261465 -0.12679425 0.7108292 -0.37187296
1.2425005 -0.3119547 -0.19379745 2.2112184 -0.28730974 2.1694434 1.472839 -0.26897344
0.015333003 -0.25129405 -0.055786237 -0.18118046 0.03097241 -0.063090116 -0.23356943 0.000551098
0.033903986 0.00683969 0.037973426 -0.43334466 -0.3928067 0.11840851 -0.13213043 -0.19397719
-0.18129034 -0.2779987 0.5000033 0.070508935 0.073496275 0.36370543 -0.2197743 -0.3547923
-0.26588804 -0.046789397 -0.057577353 0.060035307 0.025030984 -0.016423676 -0.01323277 0.0048580915
-0.057907343 -0.13618118 0.5845342 0.05150289 0.025284996 0.056772467 -0.1167927 -2.0398097
-0.29347453 -0.0058858017 0.03129305 0.05792709 0.043668594 -0.3222869 0.045563847 0.032352835
0.07776669 -0.16728942 -0.26585847 0.2742615 0.39927194 -0.039425556 -0.5320381 -0.013404942
00000000: 9808 75bf fc7a a2be a544 49bf 0d3b 84bf
00000010: a61b 8fbf 07cb ddbe 5583 7ebf acde 62bf
00000020: 85e5 5dbf 1704 5bbf 2359 5bbf 0b23 75bf
00000030: 8c91 73bf 42e5 8ebf ba0f 7abe fc34 89bf
00000040: 1549 76bf d2e3 b6be 1059 213a e1e7 6fbf
00000050: 0710 69bf 996d 9ebf 0f5f 05bf 21b3 8fbf
00000060: 21ba 52bf c491 63bf d1a0 68bf 5628 08bf
00000070: b226 64bf 22fa 5fbf 0d8a 5bbf 5e98 8bbf
00000080: 8e8b 5bbf 1272 a7bf ed86 8dbf e46e 69bf
00000090: 1d0b 8dbf 495d 60bf f9a0 5fbf 2e0b 81bf
000000a0: 0edd e0be abfd 77bf 82bb 3cbf bdce 53bf
000000b0: e71d 55bf df33 83bf 31c3 5cbf a25c 73bf
000000c0: dc4e 70bf 47f9 9fbe e272 9cbf 8d9e 8fbf
000000d0: 039b 72bf 1c3e 65bf ffd3 51bf a42c 53bf
000000e0: 7fed 74bf 01aa 86bf 9d47 6ebf 165b 6cbf
000000f0: 23d4 39bf ed20 a7bf 465f 23bf a34c a0bf
00000100: 885f 62bf 1de1 95bf 7d27 83bf d37e 57bf
00000110: a3e1 2cbf 4b24 5bbf 0bfb 76bf 40b0 6dbf
00000120: ca03 84bf d1b0 71bf df2b bb3e 1101 e4bf
00000130: b3b4 56bf 4f46 acbf 21cb 44bf 9550 59bf
00000140: 6b19 61bf d97b 7abf 6a43 4ebf 084a 05bf
00000150: 2761 0ebf 0d54 6abf b734 3fbf 7178 b6bf
00000160: 5231 0bbf fb68 59bf 2713 d7be 0f85 49bf
00000170: b904 74bf 29a0 65bf 0cca 5bbf ef29 c6bf
00000180: 6674 67bf a959 88bf 04ed 32be 3560 5ebf
00000190: b8e6 66bf 49fb 183e 31ed a5be c0af 3c3f
000001a0: 9c4d d2be 2cde 27bf 832a b7be 87f9 94be
000001b0: 4bad 9dbe cb86 71be 429f 98be efae 5dbf
000001c0: eec1 a73f c269 0abf 2076 e9bb f3c8 a83f
000001d0: c89f e73e 5d51 9dbf f18c 053f bb6b a9be
000001e0: 70bc bebe 1243 b83f ab8b e0be 94b3 48bf
000001f0: a654 d73f 2b24 91be 5f09 ccbe 0c69 32bf
00000200: c1b3 86be 41ae 80be e594 5fbe 6f13 a6be
00000210: 60c4 bb3e 3b59 bc3f 013e 9a3f 5ac7 84be
00000220: e0c2 ac3f a23f 8fbe 28cf 2ebf e2e2 823f
00000230: 55ef 85bf bc86 a0be 3adb 953f 5336 52be
00000240: be7b a83e 57d5 e53f 256a 93be de97 e2be
00000250: dbca 93be 0ade 58bf f7f0 dd3f 0569 0040
00000260: 71a2 d53f f06d a0be 6207 6a3e 71f1 7bbe
00000270: 4e64 92be 633a 04bf 9ecb 54be 3fea 7ebe
00000280: d113 e53d d017 e53f e927 0940 3695 c43f
00000290: 2246 93be fc7d 0840 93a1 483f 562a 543f
000002a0: 9885 03bf db63 a6be 88db 1fbf 6fcb 74be
000002b0: b489 61be f5cd 96be 31d6 47bf 1692 af3f
000002c0: c042 82be bbd0 0e40 862a 9c3e 3901 81be
000002d0: 2289 95be 4958 ba3f 9e97 7ebe 0f98 a3be
000002e0: c591 9dbf b436 71be 697c 2940 5e80 8d3f
000002f0: ab7f dd3e 5ad6 01be e7f8 353f 2266 bebe
00000300: 420a 9f3f 87b8 9fbe d772 46be 9a84 0d40
00000310: 431a 93be 29d8 0a40 fd85 bc3f e3b6 89be
00000320: 4737 7b3c 9da9 80be 1c80 64bd 5f87 39be
00000330: dab9 fd3c 6435 81bd d32c 6fbe 9077 103a
00000340: e8de 0a3d 7a1f e03b 068a 1b3d 5adf ddbe
00000350: f61d c9be 2980 f23d 334d 07be f5a1 46be
00000360: 2da4 39be d855 8ebe 3700 003f fd66 903d
00000370: 3785 963d 9937 ba3e 840c 61be 56a7 b5be
00000380: 7a22 88be 3da6 3fbd 3bd6 6bbd 95e7 753d
00000390: c70d cd3c f28a 86bc 43ce 58bc a030 9f3b
000003a0: 4030 6dbd 1473 0bbe 09a4 153f b2f4 523d
000003b0: 7b22 cf3c 3f8a 683d 0331 efbd 3e8c 02c0
000003c0: 4b42 96be afdd c0bb 242d 003d f544 6d3d
000003d0: d7dd 323d ca02 a5be 28a1 3a3d 6884 043d
000003e0: 2444 9f3d eb4d 2bbe 9a1e 88be 016c 8c3e
000003f0: 5f6d cc3e b17c 21bd a633 08bf 67a0 5bbc

fc1.weight f4 [100, 100]
4.628703e-16 -0.10134383 -0.04400444 -0.01720954 4.2366505e-06 -1.2491449e-06 -0.0060401303 -1.7883461e-17
0.0010150853 1.7529383e-07 -9.093323e-06 2.5722618e-05 -0.01084023 9.3408664e-05 0.18905333 0.0034893288
-0.06663472 0.0817281 -0.013256248 -0.00020888505 -6.196203e-10 0.11567878 6.932993e-06 -0.0084089
-0.035296172 -2.6122777e-09 -0.00012590739 -0.018128015 2.6731761e-09 3.878601e-09 -0.000748832 -1.5225994e-07
0.031050904 0.00032748102 0.017341467 5.1992552e-05 0.11785201 2.8912223e-06 5.082556e-06 0.10271807
0.00019709869 -0.0054149223 0.008227685 -5.2533053e-09 0.0069095306 0.01294959 -1.5775119e-07 -4.997261e-09
0.0020004474 -3.1148297e-06 0.084272265 0.05728626 -0.2355116 4.7918604e-08 -0.0016537963 -2.0352147e-09
0.00047645823 0.0038616997 -4.636569e-08 -0.0005941074 0.16894506 -0.0003384879 -0.28101897 0.10249751
-8.6443606e-08 -9.38781e-10 0.013105874 -0.042367235 -0.007825979 2.354507e-09 2.11757e-09 3.868843e-07
-0.00027482992 -3.3260736e-07 -0.0340912 -0.07686401 -5.235352e-08 -8.368051e-12 0.131898 -8.825896e-08
-1.55251e-08 0.00020081138 -0.00010818326 -0.014711749 -1.2237002e-05 -2.09868e-09 -0.00194396 2.446278e-05
-0.030582648 0.00016611679 -0.0025098966 3.8572376e-10 0.08958196 -0.0035280783 -6.6211454e-09 -0.0003907332
1.20110375e-08 0.12022768 0.027742019 2.8610193e-08 8.193909e-05 -8.880069e-26 6.2430133e-10 1.587111e-09
-1.1490289e-11 8.3563955e-06 -3.2157463e-05 -4.857919e-06 -1.6136812e-05 -6.6089347e-06 2.4048783e-05 -3.2398573e-06
9.682714e-07 -1.7645275e-08 0.000111888374 -3.469296e-19 1.9375849e-25 -8.542316e-24 -6.754298e-07 1.13128535e-05
4.648804e-06 6.7433475e-11 -2.2494212e-05 -4.1738813e-06 -7.839548e-18 3.3709875e-05 2.1509844e-05 -2.8351874e-18
-2.130255e-05 -2.6438418e-05 -2.0569416e-07 3.6553085e-24 3.350103e-24 -4.1541682e-07 -1.1387039e-08 -3.76335e-06
5.0025033e-25 -2.1336115e-05 -1.7288272e-06 6.513999e-06 -8.313382e-05 -1.7382076e-06 -7.4595544e-13 1.4811076e-07
-1.1831341e-05 5.4097487e-21 2.6931395e-05 2.5217052e-05 3.2580203e-05 9.857856e-07 8.007706e-12 3.8336447e-24
-0.00017862843 -4.8378748e-05 8.6023576e-08 2.7456723e-05 3.953844e-09 2.8504443e-05 1.124386e-06 1.012833e-05
0.00037165036 1.4556909e-08 -3.9144004e-05 2.1524094e-13 1.686625e-05 -2.9645422e-05 -9.260338e-12 -4.0863066e-25
-4.7694112e-24 -3.2466327e-05 -1.0077556e-05 -1.3419889e-06 6.8456005e-17 5.2197124e-06 3.4162082e-09 -1.7677603e-05
1.8070352e-05 2.7968195e-05 2.3874652e-12 7.466511e-05 6.796634e-05 -5.9094714e-06 7.556382e-23 -3.611551e-21
3.2850217e-08 3.2969678e-05 2.5734248e-09 -1.9992221e-06 -0.00013142338 6.58228e-26 8.322483e-06 -9.1881935e-10
1.9536102e-27 -8.864747e-06 1.3614404e-06 9.872941e-06 -3.639357e-06 1.0322063e-21 -1.00497e-18 -2.5445544e-05
0.2756034 -1.1672798 0.0033509224 2.3775225 -0.11177398 0.30397847 0.034761906 -0.29611647
-0.37146032 -0.31150568 0.20169657 -0.22395287 -3.1530883 -0.3212796 0.05919153 1.8534772
0.026802711 -1.3672189 0.4693674 0.27094325 0.28026304 1.6098782 -0.38941678 0.9750589
-0.8791588 0.30522728 0.21483491 -0.26268607 -0.23038892 -0.3442634 0.2744361 -0.012143836
-1.537823 -0.22229771 1.0363486 -0.33870456 -0.8734753 -0.26286978 -0.12509543 0.4669578
0.9692394 -0.031445563 -0.112194315 0.4207702 0.16433033 -0.487489 0.1870919 0.3233032
0.02710012 -0.2791941 2.1005123 0.70069295 0.7408607 -0.21781816 0.7256055 0.21107513
00000000: cd69 0526 5b8d cfbd 003e 34bd 05fb 8cbc
00000010: 8d28 8e36 4ba8 a7b5 49ec c5bb 21f2 a4a3
00000020: 9c0c 853a 6738 3c34 868f 18b7 e7c6 d737
00000030: 389b 31bc 65e4 c338 3297 413e 39ad 643b
00000040: c977 88bd 1061 a73d bc30 59bc 2708 5bb9
00000050: e751 2ab0 ffe8 ec3d f5a1 e836 7cc5 09bc
00000060: b892 10bd ad83 33b1 0206 04b9 3481 94bc
00000070: 03b3 3731 8944 8531 444d 44ba e57c 23b4
00000080: 775e fe3c c2b1 ab39 b10f 8e3c 9412 5a38
00000090: 655c f13d d206 4236 d38a aa36 da5d d23d
000000a0: 47ac 4e39 a96f b1bb 69cd 063c 9080 b4b1
000000b0: 5869 e23b 842a 543c 5162 29b4 5fb4 abb1
000000c0: f019 033b 5e08 51b6 f096 ac3d ffa4 6a3d
000000d0: f429 71be 10cf 4d33 32c4 d8ba e0db 0bb1
000000e0: 24cd f939 9214 7d3b 9e23 47b3 dfbd 1bba
000000f0: efff 2c3e 1477 b1b9 b8e1 8fbe 37ea d13d
00000100: e0a2 b9b3 6c06 81b0 05ba 563c 4489 2dbd
00000110: 8938 00bc edcc 2131 af84 1131 f9b4 cf34
00000120: 0c17 90b9 3591 b2b4 37a3 0bbd e16a 9dbd
00000130: 4edb 60b3 5a36 13ad 4510 073e e088 bdb3
00000140: 0e5c 85b2 e590 5239 72e0 e2b8 8c09 71bc
00000150: 864d 4db7 5e38 10b1 79cc feba 6c35 cd37
00000160: 7688 fabc a32f 2e39 147d 24bb cb0d d42f
00000170: bf76 b73d 5537 67bb 3680 e3b1 53db ccb9
00000180: 1a59 4e32 ee39 f63d 3b43 e33c 7bc2 f532
00000190: b7d6 ab38 20dc db95 4d9b 2b30 8121 da30
000001a0: a923 4aad 7232 0c37 d0e0 06b8 3501 a3b6
000001b0: 8a5d 87b7 51c2 ddb6 5ebc c937 536c 59b6
000001c0: 8df5 8135 5f92 97b2 9da5 ea38 85ca cca0
000001d0: 84dc 6f16 803b 2599 2f4f 35b5 56cc 3d37
000001e0: ecfc 9b36 ac49 942e f4b1 bcb7 5e0d 8cb6
000001f0: 389d 10a3 b463 0d38 0a70 b437 2d33 51a2
00000200: e1b2 b2b7 12c8 ddb7 c8dc 5cb4 6c68 8d18
00000210: d099 8118 7406 dfb4 baa0 43b2 dc8d 7cb6
00000220: ead1 1a17 f5fa b2b7 0d0a e8b5 d392 da36
00000230: 2158 aeb8 5c4c e9b5 c1f7 51ab 6008 1f34
00000240: 397f 46b7 e15f cc1d bbea e137 3589 d337
00000250: baa6 0838 564f 8435 80df 0c2d 944e 9418
00000260: 344e 3bb9 49ea 4ab8 f6bb b833 dd52 e637
00000270: 61da 8731 d31c ef37 9ce9 9635 d9ec 2937
00000280: 11da c239 f615 7a32 8e2e 24b8 fa56 722a
00000290: ff7b 8d37 0faf f8b7 dbe8 22ad 1dee fc96
000002a0: f681 b898 742c 08b8 c612 29b7 631e b4b5
000002b0: 4bd9 9d24 fd24 af36 92c2 6a31 5d4a 94b7
000002c0: c995 9737 3e9d ea37 c000 282c 8795 9c38
000002d0: 2789 8e38 f949 c6b6 bdb3 b61a c770 889d
000002e0: 3217 0d33 ec48 0a38 2bd8 3031 602a 06b6
000002f0: b2ce 09b9 28f8 a215 cba0 0b37 2a90 7cb0
00000300: ecc7 1a13 ccb9 14b7 bcba b635 f5a3 2537
00000310: ad3b 74b6 8cfb 9b1c b14e 94a1 e473 d5b7
00000320: e41b 8d3e 6d69 95bf 269b 5b3b 5429 1840
00000330: c2e9 e4bd 11a3 9b3e 8062 0e3d 949c 97be
00000340: 0c30 bebe ac7d 9fbe 8c89 4e3e e753 65be
00000350: 33cc 49c0 c27e a4be d172 723d be3e ed3f
00000360: 5c91 db3c 0701 afbf ed50 f03e 13b9 8a3e
00000370: a37e 8f3e 7d10 ce3f a361 c7be 769d 793f
00000380: 8d10 61bf c046 9c3e affd 5b3e ca7e 86be
00000390: 13eb 6bbe 4b43 b0be e382 8c3e f1f6 46bc
000003a0: 62d7 c4bf 03a2 63be 12a7 843f af6a adbe
000003b0: 149c 5fbf de96 86be 0419 00be 1815 ef3e
000003c0: 1320 783f 10cd 00bd 22c6 e5bd 316f d73e
000003d0: 3646 283e 2998 f9be 0595 3f3e ff87 a53e
000003e0: 1201 de3c 87f2 8ebe cb6e 0640 9d60 333f
000003f0: 0ca9 3d3f b90b 5fbe 48c1 393f 1424 583e

fc1.bias f4 [100]
-0.56435585 -0.11267076 -0.7121198 -0.19742982 -0.22246589 -0.13439895 -0.77552956 -0.30475104
-0.18763551 -0.7379477 -0.61319834 -0.728434 -0.01864688 -0.87398875 -0.5312169 -0.22955021
-0.9501388 -0.28632137 -0.034665775 -0.54090196 -1.3080937 -1.2284364 -0.8251329 -1.1303915
-0.3780329 -0.18234153 -0.24859464 -0.029954849 -0.37334287 -0.496949 -0.033702195 -0.94132364
-2.472053 -0.3778986 -0.12677845 -5.954269e-05 -0.12658168 -4.195252e-07 -1.1873499 -0.02765071
-0.042464048 -0.12840374 -0.9013088 -0.30910683 -0.11943967 -0.06772442 -0.43673366 -2.994491e-06
-1.4076155 -0.3251784 -0.6352973 -0.24470662 -0.37526754 -0.025487376 -0.94601935 -0.31807318
-0.31725666 0.66251653 -0.2468783 -0.49384475 -0.790287 -0.36911973 -1.4883664 -0.24202043
0.2171697 -1.6749102 -0.17956485 -1.0199193 -0.9064588 -0.43126324 -1.0292205 -0.34654725
-8.480525e-08 -0.17468904 -0.6476128 -0.6584619 -1.0883895 -2.3263442e-06 -0.441352 -1.0287642
0.82650197 -0.78497595 -0.19116639 -0.30531493 -0.26786074 -0.17395632 -0.2640697 -0.33639216
0.07959664 -0.6086618 -0.045033798 -0.5536953 -0.8153154 -0.6246576 -0.62353575 -1.10355
-0.4294667 -0.07819523 -0.52869266 -0.4548438
00000000: a079 10bf edbf e6bd 7c4d 36bf 0b2b 4abe
00000010: 19ce 63be e19f 09be 1b89 46bf 5408 9cbe
00000020: 8623 40be 24ea 3cbf 91fa 1cbf a77a 3abf
00000030: 57c1 98bc babd 5fbf d5fd 07bf 360f 6bbe
00000040: 4c3c 73bf b798 92be b3fd 0dbd 8d78 0abf
00000050: 9d6f a7bf 673d 9dbf e93b 53bf abb0 90bf
00000060: 878d c1be bdb7 3abe 988f 7ebe df63 f5bc
00000070: cc26 bfbe 1970 febe 500b 0abd 96fa 70bf
00000080: 1e36 1ec0 ed7b c1be 36d2 01be 7abd 79b8
00000090: a19e 01be 1b3b e1b4 15fb 97bf be83 e2bc
000000a0: c8ee 2dbd 457c 03be 2cbc 66bf 4043 9ebe
000000b0: c99c f4bd 1ab3 8abd 8e9b dfbe f7f4 48b6
000000c0: bf2c b4bf c97d a6be d8a2 22bf 5f94 7abe
000000d0: 1123 c0be e7ca d0bc 532e 72bf 7dda a2be
000000e0: 776f a2be af9a 293f aacd 7cbe 38d9 fcbe
000000f0: 4050 4abf 43fd bcbe ca82 bebf 34d4 77be
00000100: bc61 5e3e 7563 d6bf d9df 37be b78c 82bf
00000110: af0d 68bf 89ce dcbe 7fbd 83bf a46e b1be
00000120: 2e1e b6b3 afe1 32be f4c9 25bf f690 28bf
00000130: 5950 8bbf 4a1e 1cb6 e4f8 e1be 8cae 83bf
00000140: a295 533f 2ff4 48bf 1fc1 43be 3d52 9cbe
00000150: 0b25 89be 9b21 32be 2534 87be 983b acbe
00000160: 9003 a33d 42d1 1bbf 5c75 38bd fabe 0dbf
00000170: 83b8 50bf 8fe9 1fbf 0aa0 1fbf 2041 8dbf
00000180: 0fe3 dbbe d224 a0bd 6758 07bf 49e1 e8be

fc2.weight f4 [36, 100]
0.02037955 0.0076120044 0.898496 0.0006691851 -0.88160044 0.0692642 0.18320902 0.044712204
0.054671183 0.4361078 0.1041078 -0.27178058 0.028321423 0.61110955 0.05852239 -1.1833337e-16
0.29697952 0.04315271 -5.6118326e-05 0.25048906 0.28693244 0.3749698 1.1782049 0.796532
-0.023685517 -0.0024620413 0.020557996 1.01348356e-22 0.018496146 0.045200266 0.0036524725 -0.4577133
2.0321372 0.014618762 -1.7936576e-07 -1.209803e-24 -2.2459801e-11 -4.2234356e-25 -0.1127753 5.7124303e-06
0.0019069139 -9.030885e-05 0.6770067 0.027675502 0.016418727 -1.4047983e-11 0.053646974 7.3729287e-25
0.4013149 -0.010706541 1.9131477 2.2581627 0.008822558 0.0021651331 2.0500264 -0.0013433838
0.3033982 0.7760903 1.2153671e-05 0.14948586 0.4309048 -1.561583 -0.12670837 0.011195739
0.68787974 -0.32917425 0.001411891 -0.024304979 0.018066667 0.058405604 1.7024795 0.05558987
-3.7237848e-24 3.821496e-12 -0.42398262 -1.8076079 1.6201453 2.1949138e-24 0.053564135 1.794768
-0.76574695 0.23161437 0.6359651 0.05339662 0.03182698 8.5057095e-10 0.43952546 1.5058441
-0.68476516 0.09940827 -0.25821102 -0.6710547 -0.08403687 0.111813724 -0.47814086 -0.98021233
0.10249847 0.04553295 0.029388873 -1.0375142 0.0007085273 0.0010245775 1.4868145 1.073266e-06
-0.3579604 0.0008838647 0.039092254 0.0023667556 0.047264453 -0.47673547 -0.3278236 -0.36520028
1.1920333e-06 -0.012014838 0.0016814554 1.1937944e-11 -0.14514686 0.0021486776 -0.0028516517 0.4313471
-0.015683958 0.20631586 1.0923537 -0.20777601 -0.0027788123 0.0012061144 0.0004236053 8.1736245e-26
0.0059821643 0.0029219687 0.00043010502 -0.5808703 -1.8530027 -0.5102732 -5.194305e-06 -2.8428808e-23
-9.512332e-10 1.6976368e-26 0.39653865 6.8306626e-06 1.2275903e-12 -0.0008678603 -0.52302283 0.00029255915
0.012185361 -2.3351532e-07 0.002078381 -2.932839e-27 -0.06592078 -0.012184861 -1.3615228 0.8700974
0.01952097 -0.0007011672 0.36993325 -3.148398e-05 -1.5795585 0.56637657 1.0627082e-06 0.08019244
0.23878478 0.71551955 1.5599524 -9.090568e-05 0.16608343 1.9725931 0.0060315533 -0.232022
-0.04193403 0.0009860503 -0.8449426 0.00040124674 -1.9180073e-09 2.2811917e-12 0.23563299 -1.5114962
-1.1230761 -3.4704353e-10 0.2737134 -0.06898159 -2.928975 0.071271904 0.3871568 0.01895512
2.3518553e-05 -4.4958606e-09 -0.83791596 2.4431796 1.3879454 0.0026436616 -1.040863 -0.4290063
-0.31304172 0.07461822 -0.3551781 0.36140847 0.06245126 0.025933247 0.0005555264 -0.476594
0.025287164 0.00041038147 1.0425583 0.001741253 0.8023178 0.025415778 0.18392469 0.0008414718
0.03721835 0.7334249 -0.021368412 1.417985 0.0123853125 -0.40949237 0.020184832 0.00045048818
-0.08421718 0.018243626 0.0022407714 -1.5682285 0.01712743 0.21240695 -0.33136073 0.0027550429
-0.10472898 0.0051986966 0.019022718 7.0306553e-25 0.029929023 0.041440774 6.176271e-05 -0.63056564
-1.6790879 -0.323398 2.3360337e-05 1.095348e-06 0.0020854294 -1.1126831e-24 0.08484994 0.0016223284
0.0011062749 0.00055681815 1.9664612 0.028630598 0.030327342 0.004638108 0.067386545 1.4007475e-08
0.19867203 0.011739735 1.7330725 -0.1074658 0.01758518 0.009600534 1.599071 5.8190482e-05
00000000: 04f3 a63c 1f6e f93b d503 663f 406c 2f3a
00000010: 91b0 61bf 64da 8d3d 259b 3b3e 2524 373d
00000020: e4ee 5f3d 8649 df3e 7836 d53d d326 8bbe
00000030: 5402 e83c ad71 1c3f 2cb5 6f3d d96d 08a5
00000040: b30d 983e e5c0 303d 9860 6bb8 1a40 803e
00000050: cfe8 923e 0bfc bf3e 6bcf 963f 85e9 4b3f
00000060: 2108 c2bc 335a 21bb 3e69 a83c 980b f51a
00000070: 3b85 973c ea23 393d 525e 6f3b 6659 eabe
00000080: 890e 0240 8883 6f3c af97 40b4 3c35 bb97
00000090: fa8e c5ad 81b5 0297 bdf6 e6bd 67ad bf36
000000a0: 6af1 f93a 3264 bdb8 5050 2d3f bcb7 e23c
000000b0: 9180 863c 7e22 77ad eebc 5b3d 5c2e 6417
000000c0: 2679 cd3e 7d6a 2fbc 06e2 f43f bd85 1040
000000d0: 7e8c 103c e8e4 0d3b a233 0340 7b14 b0ba
000000e0: 0257 9b3e dbad 463f 9fe7 4b37 d212 193e
000000f0: 8e9f dc3e f4e1 c7bf d7bf 01be 556e 373c
00000100: e318 303f 8789 a8be 330f b93a 3c1b c7bc
00000110: 8c00 943c b73a 6f3d d9ea d93f 34b2 633d
00000120: 940e 9098 fa74 862c 4014 d9be b25f e7bf
00000130: ec60 cf3f bfd2 2918 1166 5b3d f5ba e53f
00000140: fe07 44bf 512c 6d3e 9cce 223f 6ab6 5a3d
00000150: 025d 023d 9ccd 6930 7b09 e13e 80bf c03f
00000160: c54c 2fbf 9096 cb3d 3c34 84be 3eca 2bbf
00000170: 861b acbd 98fe e43d e1ce f4be 32ef 7abf
00000180: b8ea d13d c280 3a3d efc0 f03c 44cd 84bf
00000190: 76bc 393a 1e4b 863a f04f be3f 240d 9035
000001a0: 9646 b7be 28b3 673a 331f 203d 921b 1b3b
000001b0: 5f98 413d ac16 f4be 7fd8 a7be 88fb babe
000001c0: f4fd 9f35 e2d9 44bc 4864 dc3a b803 522d
000001d0: 61a1 14be d4d0 0c3b c7e2 3abb 87d9 dc3e
000001e0: a57b 80bc 7744 533e 3fd2 8b3f 3cc3 54be
000001f0: bc1c 36bb 7c16 9e3a 5717 de39 805e ca15
00000200: 0806 c43b 807e 3f3b b87f e139 eab3 14bf
00000210: 312f edbf 44a1 02bf bd4a aeb6 2979 099a
00000220: 8bbc 82b0 3520 a814 1d07 cb3e f232 e536
00000230: 9ac4 ac2b 1e81 63ba d3e4 05bf a062 9939
00000240: 1ca5 473c 34bc 7ab4 7235 083b 0b5d 6893
00000250: 7901 87bd 03a3 47bc 6146 aebf b4be 5e3f
00000260: 71ea 9f3c 89ce 37ba e467 bd3e ab0d 04b8
00000270: f92e cabf 0efe 103f 60a2 8e35 ef3b a43d
00000280: ff83 743e 4a2c 373f 85ac c73f 9ea4 beb8
00000290: c611 2a3e ee7d fc3f 56a4 c53b 2d97 6dbe
000002a0: 04c3 2bbd 5c3e 813a 294e 58bf 6d5e d239
000002b0: f1cd 03b1 4c86 202c c649 713e b578 c1bf
000002c0: f5c0 8fbf 09ca beaf 2a24 8c3e 3846 8dbd
000002d0: 5474 3bc0 01f7 913d 6b39 c63e c547 9b3c
000002e0: b549 c537 027a 9ab1 a981 56bf 0e5d 1c40
000002f0: 32a8 b13f 4841 2d3b 003b 85bf b7a6 dbbe
00000300: 0147 a0be 70d1 983d e7d9 b5be 880a b93e
00000310: e4cc 7f3d f671 d43c bfa0 113a 2104 f4be
00000320: 0727 cf3c 7828 d739 8d72 853f c13a e43a
00000330: b364 4d3f c034 d03c c156 3c3e 3796 5c3a
00000340: 4572 183d bcc1 3b3f cf0c afbc 8880 b53f
00000350: c4eb 4a3c fca8 d1be a95a a53c 802f ec39
00000360: 0f7a acbd a873 953c e8d9 123b b6bb c8bf
00000370: d34e 8c3c 3581 593e 1da8 a9be f38d 343b
00000380: 267c d6bd d459 aa3b 88d5 9b3c 9796 5917
00000390: b62d f53c cdbd 293d 9a86 8138 c06c 21bf
000003a0: 5aec d6bf 6c94 a5be f1f5 c337 df03 9335
000003b0: b3ab 083b eb2d ac97 cec5 ad3d 4fa4 d43a
000003c0: 6d00 913a 6ff7 113a 00b5 fb3f b78a ea3c
000003d0: 0c71 f83c 45fb 973b f501 8a3d 87a5 7032
000003e0: ae70 4b3e 0458 403c 52d5 dd3f 0817 dcbd
000003f0: cc0e 903c 8f4b 1d3c 5cae cc3f 8e11 7438

fc2.bias f4 [36]
-0.82912266 -0.044604443 1.3926437 -1.3154502 -1.7969401 1.1011022 -0.7055909 1.6732633
-0.07470355 0.9433993 0.14305712 -0.17106439 -0.5235136 4.0709634 -0.1735808 -0.65135056
0.7994028 0.5416565 -0.56390244 0.28460696 0.05802442 -0.37089482 -0.91006994 1.4331877
-1.119425 -0.49426013 -1.4343679 -0.29820257 -1.459788 0.43459213 -1.7346647 1.0646482
0.40408367 -0.6553823 -0.6722877 -1.5036675
00000000: 6241 54bf 26b3 36bd 2642 b23f ac60 a8bf
00000010: 2202 e6bf ebf0 8c3f 9ba1 34bf 7e2d d63f
00000020: 2dfe 98bd 9e82 713f 917d 123e 812b 2fbe
00000030: fd04 06bf 5545 8240 2abf 31be e9be 26bf
00000040: a9a5 4c3f 00aa 0a3f e95b 10bf 01b8 913e
00000050: 04ab 6d3d ede5 bdbe 58fa 68bf b272 b73f
00000060: 5249 8fbf aa0f fdbe 5e99 b7bf 02ae 98be
00000070: 55da babf dc82 de3e 7e09 debf 6446 883f
00000080: 0ee4 ce3e 22c7 27bf 0c1b 2cbf 2d78 c0bf
